digital_twin/pinn_2/model.pt (torch, 42217 bytes, 8 tensors)

weight f4 [64, 2]
0	0xbc9dc732	-0.019260023
1	0xb8d2f876	-0.0001005986
2	0xbcf676ac	-0.030085884
3	0x3d99a451	0.07502044
4	0xbce809bf	-0.02832496
5	0x3e908aa7	0.28230783
6	0xbc8064f4	-0.015673138
7	0xbb8c7322	-0.004286186
8	0x3cc4eba1	0.024038138
9	0xbd0b72c7	-0.034045007
10	0x3ca470a9	0.020073252
11	0x3d8bf53e	0.068338856
12	0xb9251d0b	-0.00015746446
13	0x3ebe52f4	0.37172663
14	0xbbd81e6c	-0.0065954234
15	0x3ea0176a	0.31267864
16	0xbcc068e4	-0.023487516
17	0x3ec3160e	0.38102764
18	0xbca14719	-0.019687222
19	0x3eb3e71b	0.35137257
20	0x3bc3631e	0.0059627434
21	0xbc54e4d1	-0.012994007
22	0xbc05b5bc	-0.008161005
23	0x3e5e8bb6	0.21732983
24	0x3c77427c	0.015091535
25	0x3ea58f7f	0.3233604
26	0xbd1e6361	-0.038668994
27	0xbdac09f6	-0.084003374
28	0x3caf7ec1	0.021422746
29	0x3da06714	0.078321606
30	0x3d635b32	0.055506893
31	0xbd6de750	-0.058081925
32	0x3bd449fb	0.0064785457
33	0x3c38e8bc	0.011285957
34	0x3c74903e	0.014926968
35	0x3e390555	0.1806844
36	0x3cbddfb9	0.023177968
37	0x3cb6f34a	0.022332806
38	0x3d8317c6	0.06401019
39	0x3c36f36a	0.011166433
40	0xbba838e8	-0.005133737
41	0xbd747982	-0.05968619
42	0x3ca48556	0.02008311
43	0x3d91d769	0.07121164
44	0xbbdde7dc	-0.0067720246
45	0x3eb29776	0.3488118
46	0xbca2f6c3	-0.019893056
47	0xbd496cc7	-0.049176004
48	0xb7ff15eb	-3.0408575e-05
49	0x3eb518fb	0.3537062
50	0xbb1cfe7e	-0.00239554
51	0x3efd0bb9	0.49423006
52	0x3dbe0ee8	0.09280187
53	0xbe6613ed	-0.22468539
54	0x3d9db906	0.07701306
55	0xbe98f553	-0.29874668
56	0xbc8786e8	-0.01654382
57	0x3d3e65a1	0.04648364
58	0xbb77a9e8	-0.003779048
59	0xbd57bbde	-0.0526694
60	0xbb1ba44e	-0.0023749056
61	0x3ec72a67	0.38899538
62	0x3cfc013f	0.030762313
63	0xbda34fe2	-0.07974221
64	0xbc7e4dbe	-0.015521465
65	0xbe0589dc	-0.1304087
66	0x3c81a479	0.015825497
67	0x3cde3ef8	0.027129635
68	0xbaaa4bc6	-0.0012992553
69	0xbd4ac305	-0.04950239
70	0xbc7c222f	-0.015389009
71	0x3c888884	0.016666658
72	0xbb00d8a7	-0.0019660385
73	0x3f0b4dc2	0.54415524
74	0x3bff09ee	0.007783166
75	0xbd1db289	-0.038500343
76	0xbc70e0cc	-0.014702033
77	0x3c451baa	0.012030521
78	0x3bcd1bbc	0.0062594097
79	0x3c87c6bf	0.016574262
80	0xbd0342cf	-0.032046136
81	0x3ebcbe1c	0.36863792
82	0xbc1b55e0	-0.009480923
83	0xbd7b73b0	-0.061389625
84	0x3c41835a	0.011811102
85	0x3fb7d780	1.436264
86	0x3ce29910	0.027660877
87	0x3d42cafb	0.04755686
88	0xbd0b6fbc	-0.034042105
89	0x3e82bfd5	0.2553698
90	0x3d71a168	0.05899182
91	0x3f04135f	0.5159206
92	0xbbe9f588	-0.0071398653
93	0xbda0c671	-0.0785035
94	0x3d246d1d	0.04014312
95	0x3ca62f00	0.020286083
96	0xbb694b86	-0.0035597994
97	0x3e99ad75	0.3001515
98	0x3c621297	0.0137983775
99	0x3d48cd6f	0.04902404
100	0x3da574bb	0.08078905
101	0x3f9d1882	1.2273104
102	0xbc643c21	-0.0139303515
103	0x393979aa	0.00017688298
104	0xbbf30081	-0.0074158316
105	0x3fa59234	1.2935243
106	0x3be018eb	0.006838908
107	0x3c50be54	0.01274069
108	0xbb78c384	-0.0037958333
109	0xbd61586c	-0.055015966
110	0xbb894755	-0.0041894116
111	0xbe03ae47	-0.1285945
112	0xbc863bac	-0.016385876
113	0x3c9cff42	0.019164685
114	0x3e0f94c2	0.1402159
115	0x3d1cd56d	0.038289476
116	0xbc582cf1	-0.013194309
117	0x3b298135	0.0025864367
118	0x3bef2c47	0.0072989794
119	0xbbc03ae4	-0.0058663953
120	0xbca72f68	-0.020408347
121	0x3e5e137b	0.21687119
122	0x3d5ee986	0.054421924
123	0x3d3b8eff	0.04579067
124	0xbc124e78	-0.008929841
125	0x3e388a60	0.18021536
126	0xbb9a3c1c	-0.0047068726
127	0xbd636b68	-0.055522352

bias f4 [64]
0	0x3f8406b9	1.0314552
1	0xbd18b83e	-0.037285082
2	0x3e996950	0.2996316
3	0x3e8b942c	0.27261484
4	0x3dd7c935	0.10536424
5	0xbdab037a	-0.083502725
6	0xbf01ab41	-0.5065194
7	0x3f068655	0.52548724
8	0x3e940ca3	0.2891589
9	0xbdad910f	-0.08474933
10	0x3d2687e9	0.040656958
11	0x3f126130	0.57179546
12	0x3e195bc7	0.14976417
13	0x3f2f7f69	0.6855379
14	0xbe3f0bc7	-0.18656836
15	0xbeeb22b9	-0.4592493
16	0x3e9b3035	0.30310217
17	0xbd872307	-0.06598478
18	0xbd3a8f78	-0.04554698
19	0x3f1c1951	0.6097613
20	0x3ec7693c	0.38947475
21	0xbe9d6cfd	-0.30747214
22	0xbdfef61a	-0.12449284
23	0x3f952d4b	1.1654447
24	0xbbdddc90	-0.006770678
25	0x3e9192f8	0.2843244
26	0x3fcf6695	1.620318
27	0x3fb03f47	1.3769311
28	0x3e2cab38	0.1686219
29	0x3e59cf78	0.2127055
30	0x3f100488	0.56256914
31	0x3eb0e08b	0.34546313
32	0x3f85e788	1.0461283
33	0x3e88ef19	0.26744917
34	0x3eb35e86	0.35033053
35	0x3d7c4dc2	0.061597593
36	0xbe4503ec	-0.19239777
37	0xbd44f700	-0.04808712
38	0x3e123329	0.14277329
39	0xbd68f02e	-0.05686968
40	0x3e0e1a38	0.13877189
41	0x3ef80c84	0.4844705
42	0x3edcbd11	0.43112996
43	0xbe892a98	-0.2679031
44	0x3f4062c7	0.7515072
45	0x3f19641e	0.5991839
46	0x3ee0869a	0.43852693
47	0x3f33003a	0.6992222
48	0xbd21a2a6	-0.039461754
49	0xbd21e26c	-0.039522573
50	0x3f507ec3	0.81443423
51	0x3de45b1b	0.111501895
52	0x3eeca657	0.46220657
53	0x3f085c18	0.53265524
54	0x3d19644e	0.037449174
55	0x3eba3f7d	0.36376563
56	0x3e201267	0.1563202
57	0x3fb51a87	1.414872
58	0x3e469188	0.19391453
59	0xbd52e171	-0.05148453
60	0x3f37ccf0	0.71797085
61	0xbf5fbbb5	-0.87395793
62	0x3e25a228	0.16175139
63	0x3d2e7d4b	0.042599957

weight f4 [64, 64]
0	0x3bdfaca6	0.006826001
1	0x3ca37bb1	0.019956442
2	0xbd31063e	-0.043218844
3	0x3df4bb39	0.119497724
4	0x3cdb5245	0.026772628
5	0x3b3ada58	0.002851149
6	0x39fa2b8f	0.0004771617
7	0x3d610045	0.054931898
8	0x3a887a8e	0.0010412501
9	0x3de07439	0.10959668
10	0xbd3b4391	-0.045718733
11	0x3d9dffcb	0.07714804
12	0x3df14ff3	0.11782827
13	0x3d68ccb7	0.056835856
14	0x3d9b6a9d	0.07588694
15	0x3d8e7854	0.069565445
16	0xbd0cced3	-0.03437693
17	0xbaee498f	-0.0018179881
18	0x3cc8845e	0.02447718
19	0xbcb29013	-0.021797216
20	0x3d36842c	0.044559643
21	0x3d9f78f1	0.077867396
22	0xbcb718a8	-0.022350624
23	0x3c99d793	0.018779552
24	0xbbc1a47b	-0.0059095
25	0x3a271ae7	0.0006374553
26	0xbc892029	-0.016738968
27	0x3ca3d1b2	0.019997451
28	0x3c9b570c	0.018962406
29	0x3d37dd5b	0.044888835
30	0x3c84b9ec	0.016201936
31	0x3d5f576f	0.054526743
32	0xbcd819da	-0.026379514
33	0x3d9ada77	0.075612
34	0x3da3ac91	0.07991899
35	0x3e17a841	0.14810278
36	0xbc35e913	-0.0111029325
37	0xbc865afa	-0.016400803
38	0x3d930c3d	0.07180069
39	0xbd59896d	-0.053109575
40	0x3d4471cc	0.047960088
41	0x3db97428	0.09055358
42	0x3d2f5ee6	0.04281511
43	0x3b8cb994	0.0042945836
44	0x3d994c40	0.07485247
45	0xbc6cae14	-0.0144458
46	0x3e09cc6c	0.13456887
47	0xbcaa46fc	-0.020785801
48	0xbc73319b	-0.01484337
49	0xbd62b564	-0.05534877
50	0xbc6a646f	-0.014306172
51	0x3c72f3ed	0.014828664
52	0xbd0c8109	-0.034302745
53	0xbcddf644	-0.027094968
54	0x3d7cca4c	0.061716363
55	0x3da69f6e	0.081358775
56	0x3d0b5797	0.03401908
57	0xbc742a61	-0.014902682
58	0x3db2dbcc	0.08733329
59	0xbd50ddeb	-0.050992887
60	0x3da7caf7	0.08193009
61	0x3e025597	0.12727962
62	0xbd4630de	-0.048386447
63	0x3d42fac3	0.047602426
64	0x3da08e7e	0.07839678
65	0x3cf1b0b6	0.029503208
66	0xbcc04d67	-0.023474408
67	0x3db0fc51	0.086418755
68	0x3d1ff7ed	0.0390548
69	0xbc45843e	-0.012055455
70	0x3cde5e02	0.027144436
71	0x3c3997ed	0.011327726
72	0xbc1201f4	-0.0089115985
73	0xbcf3420e	-0.029694583
74	0xb9bb469c	-0.00035720028
75	0x3cf876e6	0.030330133
76	0xbc9052ab	-0.017617544
77	0xbc850542	-0.016237859
78	0xbcecbad1	-0.028897675
79	0x3d885501	0.06656838
80	0x3c1b187b	0.009466286
81	0x3dd4c59a	0.10389252
82	0x3da14d64	0.07876089
83	0x3b38570e	0.002812806
84	0x3c5ead11	0.013591067
85	0x3d95b1e1	0.07309318
86	0xbdde756f	-0.108622424
87	0x3ddac109	0.1068135
88	0x3b0a2c04	0.0021083364
89	0x3dd09570	0.10184753
90	0x3a95c5b7	0.0011426721
91	0xbca58615	-0.020205537
92	0x3cbdca03	0.023167616
93	0x3dffaff6	0.12484734
94	0xbccb5b6e	-0.02482387
95	0x3cb31fa0	0.021865666
96	0x3d0db092	0.03459222
97	0xbce83ac6	-0.028348338
98	0x3c655d50	0.013999298
99	0x3cf8f249	0.030388968
100	0xbca0382b	-0.019558033
101	0x3d5083f1	0.05090708
102	0x3ca562a4	0.020188637
103	0xbd3b5107	-0.04573157
104	0xbc15d291	-0.009144441
105	0x3d1d7b7c	0.038447842
106	0x3db27cc2	0.08715202
107	0x3d920b84	0.07131103
108	0xbb118afc	-0.0022208085
109	0x3ba4412c	0.005012652
110	0x3e015604	0.12630469
111	0x3d26bdc7	0.04070833
112	0xbda8f869	-0.082505055
113	0x3d2403bc	0.040042624
114	0x3d327c2c	0.04357545
115	0x3cdfdfe8	0.027328447
116	0x3c036779	0.008020275
117	0xbc35c309	-0.011093863
118	0x3cdf1f1d	0.027236516
119	0xbd142597	-0.03616866
120	0x3e162fc2	0.14666656
121	0x3cf10288	0.029420152
122	0x3d03635f	0.03207719
123	0x3d13e81d	0.036110032
124	0x3b6835ef	0.0035432538
125	0x3d32778e	0.043571047
126	0xbd8660f9	-0.06561465
127	0x3da4a675	0.08039562
128	0xbb96ae9b	-0.0045984513
129	0x3de67b08	0.11253935
130	0x3e0c0b98	0.13676298
131	0x38fd7e0a	0.00012087457
132	0x3d272873	0.04081006
133	0xbcaeaa2c	-0.021321379
134	0x3d5575a5	0.052114148
135	0xbdd54bc3	-0.10414841
136	0xbcbda229	-0.023148613
137	0x3dfed249	0.124424525
138	0x3d0677d4	0.03282912
139	0x3d8c6202	0.06854631
140	0xbaa9a135	-0.001294172
141	0xbbc6ba5d	-0.0060646967
142	0xbcfea21e	-0.031083163
143	0xbd959bdb	-0.07305118
144	0x3dd36847	0.10322624
145	0x3ddd140c	0.10794839
146	0xbd15b8c0	-0.036553144
147	0x3c6abbc6	0.014326995
148	0x3db96e5f	0.09054255
149	0x3c214d1d	0.009845045
150	0x3cf19743	0.029491073
151	0x3d6dafe5	0.058029074
152	0x3d0d02d5	0.03442653
153	0xbc4508de	-0.01202604
154	0xbcafeb17	-0.021474404
155	0xbd27017a	-0.040772893
156	0xbc58a789	-0.013223537
157	0x3c237c87	0.00997842
158	0xbd8d60a8	-0.06903201
159	0x3d84397d	0.064562775
160	0x3c020c1e	0.007937459
161	0xbccb7fcc	-0.024841212
162	0xbc8124de	-0.01576465
163	0x3d24c39a	0.040225603
164	0xbd219f01	-0.03945828
165	0xbc79a077	-0.015236012
166	0x3bfa50ef	0.0076390426
167	0xbcd3dd5c	-0.025862388
168	0xbe2547d6	-0.16140684
169	0xbb8d63ed	-0.0043148906
170	0xbb99adc2	-0.004689903
171	0x3c5b1a71	0.013373003
172	0x3d29435c	0.041324005
173	0xbb60c164	-0.0034294957
174	0xbc90074d	-0.017581606
175	0xbbfc90b6	-0.0077076806
176	0x3d2549f5	0.040353734
177	0x3ccc5516	0.024942916
178	0x3dd4694e	0.10371648
179	0x3db379ea	0.08763488
180	0x3dd93a87	0.10606866
181	0xbc66d900	-0.014089823
182	0xbca30f9e	-0.019904908
183	0xbdab1954	-0.0835444
184	0x3d75c7e1	0.060005073
185	0x3d5ea20d	0.054353762
186	0xb9db7272	-0.00041856203
187	0x3d7410ad	0.059586216
188	0xbcfd3320	-0.030908167
189	0xbb3ba6fb	-0.0028633464
190	0x3bb0b996	0.0053932173
191	0x3b888eb7	0.0041674036
192	0x3d95c8be	0.07313679
193	0x3df0cfd1	0.11758388
194	0xb8bf85bc	-9.1325e-05
195	0x3d82577b	0.06364342
196	0x3c0ba5d2	0.008523421
197	0x3c8e2a74	0.017354228
198	0x3c90f93f	0.017696975
199	0x3da4f58d	0.080546476
200	0x3c83412a	0.016022284
201	0xbd00e8e7	-0.031472113
202	0xbc2fc0dd	-0.0107271345
203	0xbab18608	-0.0013543973
204	0xbcc13067	-0.02358265
205	0xbd4ef2de	-0.050524585
206	0x3c8e15bc	0.017344348
207	0x3d0a5980	0.03377676
208	0x3c5df70d	0.013547671
209	0xbc50adb4	-0.012736727
210	0x3c8c778a	0.017146844
211	0x3c325043	0.010883394
212	0x3d00ba0b	0.031427424
213	0x3da9492c	0.082659096
214	0xbce4014d	-0.027832652
215	0x3c52cff4	0.012866963
216	0xbc87efcf	-0.016593842
217	0xbd098348	-0.033572465
218	0xbcf6b536	-0.030115705
219	0x3dfd520e	0.12369166
220	0x3c0b15f5	0.008489122
221	0x3cb231b7	0.021752222
222	0xbcf40b5f	-0.029790578
223	0xbcd4e101	-0.025986196
224	0xbd4f6f82	-0.05064345
225	0xbc73e39e	-0.014885811
226	0x3d23f7ec	0.04003136
227	0x3c57291b	0.013132359
228	0xbd20f170	-0.039292753
229	0x3d366526	0.044530056
230	0x3da990ae	0.082795486
231	0x3b604dd3	0.0034226074
232	0xbb8b108d	-0.0042439164
233	0x3c17e924	0.009271894
234	0xbd0bc590	-0.034123957
235	0x3ddc043c	0.10742995
236	0xbd065d74	-0.032803968
237	0xbcef49e5	-0.02921004
238	0x3dbd0cc5	0.09230951
239	0xbccb4786	-0.024814378
240	0xbad42da8	-0.0016187923
241	0x3dd41f68	0.10357553
242	0xbcd4545a	-0.025919128
243	0x3babf6c4	0.0052479226
244	0x3da13d1f	0.07872986
245	0xbcbd68d2	-0.023121271
246	0x3da6871e	0.0813124
247	0x3d2e42b7	0.042544093
248	0x3d214473	0.03937192
249	0xbd0a3d0f	-0.033749636
250	0x3a66f950	0.0008810954
251	0x3bae3b18	0.005317103
252	0xbc9e569b	-0.019328406
253	0x3caa2b1c	0.02077251
254	0xbc8b21ca	-0.016983885
255	0x3c272922	0.010202678

bias f4 [64]
0	0xbc91e2cf	-0.017808346
1	0xbc434bb7	-0.011919907
2	0x3d8bba7a	0.06822677
3	0xbd0b486b	-0.03400461
4	0x3cdfed0b	0.02733471
5	0x3bc4d847	0.0060072276
6	0x3bda3f5e	0.006660386
7	0xbcb1df55	-0.021712938
8	0x3ca2124a	0.019784112
9	0x3d247956	0.040154777
10	0xbbdeeb4e	-0.006802953
11	0xbcb633e4	-0.02224154
12	0xbc1e5beb	-0.00966547
13	0x3dd80a3e	0.105488285
14	0x3c2dcc6f	0.010607823
15	0xbc614cf1	-0.013751254
16	0x3c0b7d59	0.008513772
17	0xbd0b018e	-0.03393703
18	0x3cd375fd	0.025813097
19	0xbc3e5300	-0.011616468
20	0x3cf2582f	0.029583065
21	0x3d1825c0	0.037145376
22	0xbca20003	-0.019775396
23	0x3d64a668	0.05582276
24	0x3d372fa0	0.044723153
25	0x3daa5490	0.0831691
26	0x3d887abc	0.06664035
27	0xbcdf58c9	-0.027264016
28	0xbc271399	-0.010197544
29	0x3a9a337e	0.0011764613
30	0x3d41d620	0.047323346
31	0x3d5f05c7	0.05444887
32	0xbcd2e71f	-0.025744973
33	0x3ce1f50d	0.02758267
34	0x3dd92e81	0.10604573
35	0x3dcaa942	0.098955646
36	0xbaee85c1	-0.0018197821
37	0xbc946feb	-0.018119773
38	0x3c9fcdd6	0.01950733
39	0x3ccae675	0.024768094
40	0xbca6265a	-0.02028196
41	0xbc73a640	-0.01487118
42	0x3da83053	0.08212342
43	0xbcae42ef	-0.02127215
44	0xbc48df9a	-0.012260342
45	0x3c8a3583	0.01687122
46	0x3d32bb60	0.043635726
47	0x3d70458a	0.058660068
48	0xbb174b01	-0.0023085477
49	0x3d9fc3eb	0.0780104
50	0xbc836530	-0.01603946
51	0xbc9e630b	-0.019334337
52	0xbd0c513c	-0.03425716
53	0x3d66b7c4	0.056327596
54	0x3c420d3e	0.0118439775
55	0xbd2daba3	-0.042400014
56	0xbb949a2a	-0.0045349794
57	0xbca70b78	-0.02039121
58	0x3d3e1a13	0.046411585
59	0xbc6abc84	-0.014327172
60	0xbd1382f2	-0.03601355
61	0xbb574319	-0.003284639
62	0xbcad9d90	-0.021193296
63	0xbcf582b7	-0.029969556

weight f4 [64, 64]
0	0xbcae94c8	-0.021311179
1	0x3bee2720	0.0072678477
2	0xbd1aa6ee	-0.037756853
3	0xbc5b0231	-0.013367222
4	0x3be233b0	0.0069031343
5	0x3ad9edc0	0.0016626641
6	0xbcad270c	-0.021136783
7	0x3ba02abc	0.004887907
8	0xbd26a1db	-0.0406817
9	0x3c3c2572	0.011483537
10	0xbd0bb9f3	-0.034112882
11	0x3c2ecd17	0.010669014
12	0xbbfdcea4	-0.0077455807
13	0xbd8b678b	-0.06806859
14	0x3dffbb27	0.12486868
15	0x3dc5b2c7	0.0965324
16	0x3d1401db	0.036134582
17	0x3d5bfcd0	0.053707898
18	0x3d81fd18	0.06347102
19	0xbd81a15d	-0.06329606
20	0x3c1e67b7	0.009668282
21	0xbce0e5e4	-0.02745337
22	0x3c8b72e1	0.017022552
23	0x3e07bee9	0.1325642
24	0xbd97a7e1	-0.07405067
25	0x3d2e3f18	0.04254064
26	0xbd0dad22	-0.03458894
27	0xbc5b8f1e	-0.013400821
28	0x3c5ebaa7	0.013594306
29	0xbcf09b56	-0.029370945
30	0xbd3f8cce	-0.04676514
31	0x3d0946bc	0.033514723
32	0xbabc515f	-0.0014367512
33	0xbd253cdd	-0.040341247
34	0xbc8eda37	-0.017438037
35	0x3d82a26c	0.06378636
36	0x3c4cc58f	0.0124982735
37	0x3c922196	0.01783828
38	0x3d03ff17	0.032225695
39	0xbb02b515	-0.001994436
40	0x3d960f87	0.0732718
41	0x3c93e576	0.018053751
42	0xbde2068c	-0.11036405
43	0xbdb78a52	-0.089619294
44	0x3d44ea78	0.04807517
45	0xbd5338f5	-0.05156799
46	0x3dddc453	0.108284615
47	0xbd538afe	-0.051646225
48	0x3de79603	0.11307909
49	0x3dd464cc	0.10370788
50	0x3d095432	0.03352756
51	0xbcc0219f	-0.023453532
52	0x3b476486	0.0030424907
53	0xbce4d78d	-0.027934814
54	0xbcb9b62c	-0.022669874
55	0xbc9733bc	-0.018457286
56	0xbcd6c40f	-0.026216535
57	0xbc81f72e	-0.015864935
58	0xbd5bfec5	-0.053709764
59	0xbc30f9ce	-0.010801746
60	0x3ca1b9cc	0.019741915
61	0xbce03d62	-0.02737302
62	0xbcb18c33	-0.021673298
63	0xbd93f08d	-0.07223616
64	0xbd09a87c	-0.033607945
65	0xbdd0d766	-0.10197334
66	0xbc8ef07c	-0.017448656
67	0xbd0af0d0	-0.033921063
68	0xbc8f3e02	-0.017485622
69	0xbccc511c	-0.02494102
70	0xbc980552	-0.018557224
71	0xbe393d4a	-0.18089786
72	0xbcf74c51	-0.030187758
73	0xbd449e24	-0.048002377
74	0xbcf02d3d	-0.029318446
75	0xbcaa2498	-0.020769402
76	0xbcbf689e	-0.023365315
77	0xbc94c43e	-0.018159982
78	0x3c658d8f	0.014010801
79	0x3da62bd2	0.08113827
80	0x3d6c37c3	0.057670366
81	0x3cff2e4e	0.03115001
82	0x3e0660ed	0.13122912
83	0xbda8d7d8	-0.08244294
84	0xbc59ffea	-0.013305644
85	0xbc9f6327	-0.01945646
86	0xbc21a9ce	-0.009867145
87	0x3da98817	0.0827791
88	0xbd8c88fc	-0.06862065
89	0xbca5a69d	-0.020221049
90	0x3d3daccc	0.04630737
91	0xbd282c4a	-0.041057862
92	0x3ce3d640	0.027812123
93	0xbb2d8245	-0.0026475352
94	0xbce5aeda	-0.028037477
95	0xbc7bd305	-0.015370135
96	0x3d993efa	0.07482715
97	0x3c8a0faa	0.016853172
98	0xbc99d678	-0.018779024
99	0xbd100f98	-0.03517112
100	0xbcd1dcdc	-0.02561801
101	0xbc33ad2d	-0.010966581
102	0x3d58f245	0.05296542
103	0xbcaaabc0	-0.02083385
104	0xbc09e864	-0.008417223
105	0xbd1ab8b4	-0.037773803
106	0xbdbd34e3	-0.09238603
107	0xbe291333	-0.1651123
108	0xbc83351e	-0.01601654
109	0xbb2ed54e	-0.0026677432
110	0xbb7c502b	-0.0038499932
111	0x3d5091b5	0.050920207
112	0xbc17fcd8	-0.009276591
113	0x3dd1658b	0.10224446
114	0x3d9b5fb9	0.07586617
115	0xbd3e5b27	-0.04647365
116	0xbc0c15a2	-0.00855008
117	0x3d84eefb	0.064908944
118	0x3d64772e	0.05577772
119	0x3d94f8f6	0.07274048
120	0xbbc5ec7e	-0.006040155
121	0xbcce1e2c	-0.025160871
122	0x3ca46b09	0.02007057
123	0xb9d8fcac	-0.00041386986
124	0x3c4f64dd	0.012658325
125	0xbbb46e4e	-0.0055063134
126	0x3d8986cf	0.06715166
127	0xbd261668	-0.040548712
128	0xbcc11b8f	-0.023572711
129	0x3d5a05f6	0.05322834
130	0xbc973edd	-0.018462593
131	0x3d5d57c9	0.054038797
132	0x3d9a595a	0.07536574
133	0xbcd42e7b	-0.02590107
134	0x3d194a8b	0.037424605
135	0xbd11eda4	-0.035627022
136	0xbd2637e0	-0.04058063
137	0x3e04e2db	0.12977163
138	0xbd119c53	-0.035549473
139	0x3d1fbe3a	0.038999774
140	0xbc854148	-0.01626648
141	0xbd8b61f6	-0.06805794
142	0x3d1ae9f9	0.03782079
143	0xbbafad33	-0.005361223
144	0x3dc4ca67	0.09608918
145	0x3c863d93	0.016386783
146	0x3d14c1a0	0.036317468
147	0xbdb52367	-0.08844643
148	0x3cc21fa0	0.02369672
149	0x3d614988	0.055001765
150	0x3be96388	0.0071224608
151	0x3d9c64ca	0.076364115
152	0x3db21db9	0.086970754
153	0xbd11d150	-0.035600007
154	0xbd060a27	-0.032724526
155	0xbc9b1c7c	-0.01893448
156	0xbd8a0103	-0.06738474
157	0xbd009076	-0.03138777
158	0xbd253cdf	-0.040341254
159	0xbcd37871	-0.025814267
160	0x3ddb85b4	0.10718861
161	0xbd304d48	-0.04304245
162	0x3b131895	0.0022445072
163	0x3d29db1f	0.041468736
164	0x3d92ef32	0.07174529
165	0xbd2c5c44	-0.04208018
166	0x3bb49b17	0.005511652
167	0xbd3be6ca	-0.045874394
168	0xbcf4dad0	-0.029889494
169	0x3a54cbdb	0.0008117535
170	0xbc17c1a0	-0.009262472
171	0x3d187e83	0.037230026
172	0xbca15dee	-0.01969811
173	0xbd2e66d9	-0.042578552
174	0x3c35c12a	0.011093417
175	0xbd439fa0	-0.047759652
176	0xbd04ca49	-0.032419477
177	0x3d935b1b	0.07195111
178	0xbc1c4119	-0.009537005
179	0x3c0dfe55	0.0086665945
180	0xbc60b4d1	-0.013714985
181	0xbd291437	-0.041279044
182	0xbcff21ee	-0.031144109
183	0xbcebf373	-0.02880261
184	0xbcc07291	-0.02349213
185	0x3d3666ea	0.04453174
186	0xbd8eb0c9	-0.06967313
187	0x3d8be9e6	0.06831722
188	0xbab84f35	-0.0014061691
189	0xbd03c6fd	-0.032172192
190	0x3ce1b608	0.02755262
191	0xbd8e01b1	-0.06933916
192	0x3df57b99	0.11986465
193	0x3f556cb1	0.83368975
194	0xbd90b160	-0.070650816
195	0x3dd3cdda	0.103419974
196	0x3e054a7b	0.13016693
197	0x3dd16f74	0.10226336
198	0x3e8013c7	0.2501509
199	0xbe335243	-0.17511849
200	0x3e175762	0.14779428
201	0xbdaa7979	-0.0832395
202	0x3dee9d1d	0.11651061
203	0x3d2b0fda	0.041763164
204	0x3e965549	0.29361942
205	0x3e9950b1	0.29944375
206	0x3dd17801	0.10227967
207	0x3dec360d	0.11533747
208	0xbe8c7af0	-0.27437544
209	0x3dbf5d56	0.09343974
210	0xbc36d621	-0.011159451
211	0x3eb04cf0	0.344337
212	0x3e5ce1a9	0.21570458
213	0x3e584796	0.21121058
214	0x3e38411f	0.17993592
215	0x3cc8fab3	0.024533605
216	0x3eb3a733	0.350885
217	0xbc4f6aa6	-0.012659704
218	0x3e9446cc	0.28960264
219	0x3d9e905d	0.07742379
220	0x3e856084	0.26050198
221	0x3e2ffc7b	0.17186157
222	0x3e2ea032	0.17053297
223	0xbce76a1b	-0.028248837
224	0xbd99cde9	-0.07509977
225	0x3e804948	0.2505591
226	0xbdc87e6b	-0.09789737
227	0x3e4b1305	0.19831474
228	0x3e60f956	0.21970114
229	0xbe390a12	-0.18070248
230	0x3e15d7c8	0.14633095
231	0xbdfbe6f9	-0.12299914
232	0x3e2a05ed	0.16603823
233	0x3c1774b8	0.0092441365
234	0x3f165634	0.58725286
235	0x3f188d83	0.5959093
236	0x3e713270	0.23554397
237	0x3e2ce312	0.16883495
238	0x3e33b3a6	0.17548999
239	0x3ec94209	0.39308193
240	0xbdeba525	-0.11506108
241	0x3e4e5565	0.20149763
242	0x3e821e67	0.2541382
243	0xbd560d01	-0.052258495
244	0x3de6a295	0.11261479
245	0x3de90897	0.113785915
246	0x3c963463	0.018335527
247	0xbd6236f2	-0.05522818
248	0x3d26bcf6	0.04070755
249	0x3e41dd9e	0.18932196
250	0x3e59d2ef	0.21271871
251	0xbdbb8780	-0.09156704
252	0xbe30bd55	-0.17259724
253	0x3da2d1b0	0.07950151
254	0x3eb6eecc	0.35729063
255	0x3ce9000e	0.028442409

bias f4 [64]
0	0xbd069b1c	-0.032862768
1	0x39f5e450	0.00046900148
2	0xbd0bb5a5	-0.034108777
3	0xbaf5971a	-0.0018737048
4	0xbc6bb19a	-0.014385605
5	0xbbddd055	-0.00676922
6	0xbcb11e32	-0.021620844
7	0xbcce53ce	-0.025186446
8	0x3ce1abcc	0.02754774
9	0xbd22af21	-0.039717797
10	0x3dcc7f90	0.09985268
11	0xbd0dab93	-0.034587454
12	0x3c0846b8	0.008317642
13	0xbccb1383	-0.024789577
14	0x3aef62a6	0.0018263652
15	0x3d518ea0	0.05116141
16	0x3b8bb680	0.004263699
17	0xbb68f962	-0.0035549034
18	0xbd849708	-0.064741194
19	0xbbbf8719	-0.0058449623
20	0xbd03a5f9	-0.032140706
21	0xbcfa95f0	-0.030589074
22	0x3d3c197d	0.045922745
23	0x3c4623c6	0.01209349
24	0xbd528267	-0.051393893
25	0x3d8623a4	0.06549767
26	0x3e10dd66	0.14146957
27	0xbcfaec8f	-0.030630378
28	0x3d15e257	0.036592808
29	0xbd483b3b	-0.04888461
30	0xbd0b1d87	-0.033963706
31	0xbd6e9eca	-0.0582569
32	0xbb7596c7	-0.0037473904
33	0x3d9ddfb4	0.077086836
34	0xbd3c6f2c	-0.04600446
35	0x3d91ae79	0.07113356
36	0x3c8ffc08	0.017576233
37	0x3db4db36	0.08830874
38	0xbd298a23	-0.041391503
39	0x3ddfcd89	0.109278746
40	0xbb145d3c	-0.002263858
41	0x3d1eef53	0.038802456
42	0x3e14f13b	0.14545147
43	0x3d2049a5	0.039132733
44	0x3d8dcc4b	0.069237314
45	0xbc109b69	-0.008826115
46	0xbd4687e0	-0.048469424
47	0xbd556c33	-0.05210514
48	0xbcdbf0d6	-0.026848238
49	0xbc785e25	-0.015159165
50	0x3d3ba774	0.045813993
51	0x3d4bf809	0.04979709
52	0xbcbc20b1	-0.022964807
53	0x3ccd2c71	0.025045605
54	0xbcd90779	-0.026492821
55	0xbcd02a04	-0.02541066
56	0x3e011420	0.12605333
57	0xbc0e9533	-0.008702564
58	0x3bf7596f	0.007548503
59	0x3c3171d6	0.010830363
60	0x3dc46593	0.09589686
61	0xbbf61639	-0.0075099734
62	0xbd1f0616	-0.038824163
63	0xbbada685	-0.0052993917

weight f4 [5, 64]
0	0x3da1fc59	0.079094596
1	0x3d71a02a	0.058990635
2	0xba1c2430	-0.000595632
3	0x3d152258	0.036409706
4	0xbc64bebb	-0.013961489
5	0x3d2f35d8	0.04277596
6	0xbd46d3e2	-0.04854191
7	0x3cbdd87a	0.023174513
8	0xbcdb4caf	-0.026769964
9	0xbd00a1e8	-0.031404406
10	0x3ca480c4	0.020080931
11	0xbd2c1886	-0.042015575
12	0x3e0142d3	0.12623148
13	0xbd7d2306	-0.06180098
14	0x3d3136dd	0.043265212
15	0xbc8a27e2	-0.01686472
16	0x3d929d6e	0.071589336
17	0xbc4de753	-0.012567359
18	0xbcffd162	-0.031227771
19	0xbc9cca61	-0.01913947
20	0xbc3a9105	-0.011387114
21	0xbcee3584	-0.029078253
22	0x3d4b5c22	0.04964841
23	0x3caf1f08	0.021377102
24	0x3ab8dc62	0.0014103765
25	0x3e7d612c	0.247441
26	0x3db5743b	0.0886006
27	0xbd217874	-0.039421514
28	0x3d884e50	0.06655562
29	0xbc56e93b	-0.01311713
30	0xbd03da54	-0.032190636
31	0xbc0509b5	-0.00811999
32	0x3d169ae2	0.0367688
33	0xbb87f191	-0.00414867
34	0xbcc1a988	-0.02364041
35	0x3e9f7efb	0.31151566
36	0xbcfd5dd4	-0.03092853
37	0x3e0af312	0.13569286
38	0xbc666ba4	-0.014063749
39	0x3e05f60e	0.13082144
40	0x3e05d9d6	0.13071379
41	0xbd9cd4dd	-0.07657788
42	0xbd691575	-0.05690523
43	0xbca9d9a0	-0.020733654
44	0x3d3c0d0d	0.045910884
45	0x3ce72b8f	0.028219013
46	0xbc8d727e	-0.017266508
47	0x3d00d465	0.031452555
48	0xbdc23f2b	-0.094847046
49	0x3d6e9b68	0.058253676
50	0x3db827ce	0.08991967
51	0xbc231126	-0.009952819
52	0xbc4dc605	-0.012559419
53	0x3e07ca5c	0.13260788
54	0xbd117a98	-0.035517305
55	0xbc600e4f	-0.013675286
56	0xbb08ae1e	-0.0020855735
57	0x3e3a9e4c	0.18224448
58	0x3eaa2cc8	0.3323729
59	0x3ea97098	0.33093715
60	0x3dbe7a44	0.09300664
61	0xbc56c007	-0.013107306
62	0xbd22d0d1	-0.039749924
63	0x3d279a34	0.040918544
64	0x3db22c87	0.08699899
65	0x3d1fd8f4	0.039025262
66	0x3de9d642	0.114178196
67	0xbc664929	-0.014055529
68	0x3b619885	0.0034423184
69	0xbcf0183b	-0.029308429
70	0x3ba90539	0.0051580933
71	0xbcad3d77	-0.021147473
72	0xbc45cb78	-0.0120724365
73	0x3db0b62f	0.08628499
74	0xbc998b9c	-0.018743329
75	0x3d74daca	0.059778966
76	0x3df0fce0	0.11766982
77	0xbc4b7ca5	-0.012419854
78	0xbca999cb	-0.020703217
79	0x3cf84f06	0.030311119
80	0xba82a391	-0.000996696
81	0xbc70d6dd	-0.014699665
82	0xbc9d3c5d	-0.019193823
83	0x3d7b5348	0.06135872
84	0x3d06504d	0.032791425
85	0xbcb746a4	-0.022372551
86	0x3a6dcb07	0.0009071086
87	0xbc442d53	-0.011973697
88	0xbb5bf824	-0.0033564651
89	0x3e22a22c	0.15882176
90	0xbcb0722f	-0.021538822
91	0xbc8fc931	-0.01755199
92	0x3dcfbc03	0.10143282
93	0x3d611344	0.054950014
94	0xba0f7ff2	-0.00054740824
95	0x3d317394	0.043323115
96	0x3c9627b6	0.018329483
97	0xbc9e9f09	-0.019362943
98	0xbc48eb41	-0.01226312
99	0x3eb74db6	0.35801476
100	0xbc554bad	-0.013018531
101	0x3d7a3980	0.061089993
102	0x3d018a59	0.03162608
103	0x3d4ce2b0	0.050020874
104	0x3d3e0322	0.046389706
105	0xbd8bd036	-0.068268225
106	0xbd19ab3e	-0.037516825
107	0xbc93f197	-0.018059535
108	0x3e1388c5	0.14407642
109	0x3df4efaf	0.119597785
110	0xbc919a5c	-0.0177738
111	0x3dbce7a5	0.0922387
112	0xbe0404eb	-0.12892501
113	0xbcb7b75b	-0.022426298
114	0x3cd56a7a	0.026051749
115	0x3cf82a59	0.03029363
116	0x3dc17531	0.094461806
117	0x3b9df362	0.0048202733
118	0x3b012a7c	0.001970916
119	0xbca99711	-0.020701917
120	0xbcccb495	-0.024988452
121	0xbd1a97bc	-0.03774236
122	0x3d279895	0.040916998
123	0x3ea518c9	0.32245472
124	0x3c5fdec1	0.0136639485
125	0x3de5d362	0.11221959
126	0x3e44ae50	0.1920712
127	0xbc834c0a	-0.01602747
128	0x3d3b6c98	0.04575786
129	0x3d2edb45	0.04268958
130	0x3dbcc0c3	0.09216454
131	0xbd25981d	-0.04042827
132	0xbcb84e7b	-0.02249836
133	0xbd719776	-0.058982335
134	0x3d094770	0.033515394
135	0x3e353a2e	0.17697975
136	0xbbbcf17c	-0.005766092
137	0x3dd3c765	0.10340766
138	0xbc42f9b6	-0.011900356
139	0x3cfcb560	0.030848205
140	0xbc03151b	-0.008000637
141	0xbca5888c	-0.020206712
142	0xbc817dc6	-0.015807044
143	0xbcffffff	-0.031249998
144	0x3d78d5f4	0.060750917
145	0x3d6526fc	0.05594538
146	0xbaf176a6	-0.0018422201
147	0x3d870de8	0.06594449
148	0x3d913259	0.07089681
149	0xbca4ac1b	-0.020101598
150	0x3d6543a4	0.05597271
151	0x3cac3f3b	0.021026244
152	0x3de3cf1d	0.11123488
153	0x3d348921	0.04407609
154	0xbca93bfc	-0.020658486
155	0x3ce4e1ae	0.027939644
156	0xbc6885c3	-0.0141920475
157	0xbc6e1b13	-0.014532822
158	0x3ceddf95	0.029037276
159	0x3d96000c	0.07324228
160	0xbc309adb	-0.010779108
161	0xbcbea600	-0.023272514
162	0xbbe029c8	-0.006840918
163	0x3ead9ed7	0.33910248
164	0x3dc46fb2	0.09591617
165	0x3d963b21	0.07335497
166	0xbccdaf1c	-0.025107913
167	0xbb3d6191	-0.0028897265
168	0x3c7ee818	0.015558265
169	0xbb5c1a3a	-0.0033584968
170	0xbd9d179a	-0.07670517
171	0x3d68dd98	0.056851953
172	0x3c4272c3	0.011868182
173	0xbc7ee383	-0.015557173
174	0x3b02bb27	0.0019947977
175	0x3df1c66b	0.11805423
176	0x3d800b29	0.06252129
177	0xbcdbc78e	-0.026828554
178	0xbd2ec847	-0.042671468
179	0x3dd55b06	0.10417752
180	0x3bf39250	0.0074332133
181	0x3caebc88	0.021330133
182	0x3d663703	0.056204807
183	0xbcaecbfa	-0.021337498
184	0xbd192db2	-0.037397094
185	0x3e78cc4b	0.24296682
186	0x3e169e36	0.1470879
187	0x3e8606b5	0.26176992
188	0xbc8ff3e0	-0.017572343
189	0x3b8a6f05	0.0042246603
190	0x3c4df2ca	0.012570092
191	0x3d287765	0.04112949
192	0x3cef959c	0.029246144
193	0x3e6c332c	0.23066396
194	0xbcde32e6	-0.02712388
195	0x3d1a275e	0.0376352
196	0xbd4ddb81	-0.050258163
197	0x3e405743	0.18783288
198	0x3d81a1ac	0.063296646
199	0xbbac3f8d	-0.0052565993
200	0xbc9686ff	-0.018374918
201	0xbcc199fd	-0.023632998
202	0xbd7a8226	-0.061159275
203	0x3ebb5b7e	0.3659324
204	0x3ca26ab3	0.019826269
205	0x3d8d852d	0.06910167
206	0x3e353ef7	0.176998
207	0x3d3faeb4	0.04679747
208	0x3d654300	0.0559721
209	0x3e453033	0.19256668
210	0xbc4f2340	-0.012642682
211	0x3ee1c65b	0.44096646
212	0xbd52db49	-0.051478658
213	0xbc87af29	-0.016563015
214	0xbc4b8e9c	-0.012424137
215	0x3e2e2f61	0.17010261
216	0xbe181b92	-0.14854267
217	0x3db7f0c9	0.08981473
218	0x3d0e4ffc	0.034744248
219	0xbd5117b1	-0.051047985
220	0x3d8a029c	0.06738779
221	0xbd4b1271	-0.049578134
222	0xbbcc570a	-0.006235962
223	0x3ca111e4	0.019661851
224	0xbcf44889	-0.029819744
225	0xbc3e2947	-0.011606521
226	0x3db2a6eb	0.08723243
227	0x3de9c688	0.1141482
228	0x3c783d6d	0.015151364
229	0xbd048eba	-0.032362677
230	0xbd452280	-0.048128605
231	0xbc05cafc	-0.008166071
232	0x3e2e0419	0.1699375
233	0x3e053894	0.13009864
234	0x3cbd4536	0.023104291
235	0x39130fc3	0.00014024884
236	0xbd00026d	-0.031252313
237	0x3e0f3a75	0.13987143
238	0xbdb955a5	-0.090495385
239	0x3f05f5a2	0.5232793
240	0x3e158aa1	0.14603664
241	0x3d3960e2	0.04525841
242	0x3d467d14	0.048459128
243	0x3d91ebbc	0.07125041
244	0x3b835197	0.004007529
245	0x3d8b3de3	0.06798913
246	0xbc9bb206	-0.019005787
247	0xbc879a15	-0.016552964
248	0xbd1465c6	-0.03622987
249	0xbc93d803	-0.018047338
250	0x3d1c5331	0.038165275
251	0xbc1b11d0	-0.009464696
252	0x3cf10678	0.02942203
253	0xbc72ba77	-0.0148149645
254	0x3e5f3f2f	0.21801446
255	0x3dafb4b5	0.08579389

bias f4 [5]
0	0x3d147796	0.03624686
1	0xbcc76353	-0.024339354
2	0x3ca02e53	0.01955334
3	0x3cc62d4a	0.024191517
4	0x3e06045f	0.13087605
