digital_twin/pinn_2/model.pt (torch, 37865 bytes, 8 tensors)

weight f4 [60, 2]
00000000: f2cb e0bb 0d4b 21bd 1f76 edbb f364 afbc
00000010: 1e63 75bc 8cd3 953e 2e4d dbbb 5c43 cabc
00000020: 0b29 773d 742e 2dbd 2275 8c3c 701d dd3d
00000030: 3f2f 073c ec2e 4a3f a17e ccbc 8cd5 dd3e
00000040: a160 c7bc 45fe 913e 64c8 d8bb 2868 d93e
00000050: 435a 9c3d 1971 6dbd ae6f eabc 0146 783e
00000060: 665a b43c ab8a f53e 02ff f5bb ef69 7939
00000070: a614 f03c efcd 06bd 6313 f93b ae2e 19bd
00000080: 8629 033c 15ab 60bd 1ea4 fd3a efeb 103e
00000090: e8a2 d93c 1678 89bd 5fa5 c83b 062c 1cbd
000000a0: 5de3 edbb 10df c3bb 4a58 263c 9a3c 3f3e
000000b0: 07b0 f2bc 515b a63e 96c5 cdba e477 8d3d
000000c0: 9297 553c c990 153f 1e27 2a3c 9a8b 133f
000000d0: 7632 843c 3dcb 043f b970 a53c aeea 20bc
000000e0: 5629 9fbc 9162 493d ff7a a5bb a925 3abd
000000f0: 9a64 5dbc 59a8 d33e d094 eb3b 92ff 6dbd
00000100: 4910 80bc ccfc 9ebc 08a4 353d 71ab d3bc
00000110: b120 ecbb 6494 30bd f898 b3bc 3fd6 933d
00000120: c58e 9dbb a6f0 213f a08b 943b f07d 4bbd
00000130: cc1b 8fbc ba9b bd3b 1dd0 563d 9f44 42bd
00000140: 24b4 04bd bfff f53e 849b 17bc b522 263a
00000150: 7ff0 e0bb 1a43 563f 8f9f f63c f259 c3bc
00000160: b00c e5bc 6765 183f 62b4 fd3c 2241 9f3d
00000170: a505 6bbc b045 873c 2ac5 043d 85d1 a73b
00000180: ecce 7abd 5c66 383f aacb 343d 663e 9bbc
00000190: 4587 0e3c e9a7 003f 8a4b 8dbc c069 203c
000001a0: 096a 963c d71d 583f d925 143e 002d 93bd
000001b0: f6b7 3bbc a9d3 debc 35e1 b8bb e89d 96bd
000001c0: 3897 85bc 8b07 e33c 7b00 85bb 191a 2e3f
000001d0: bdfe 1cbb c676 cf3d da31 d63b 314e 95bd
-0.0068602497 -0.039378215 -0.007246747 -0.021410441 -0.014977245 0.2926296 -0.00669255 -0.024690323
0.060341876 -0.04228063 0.017145697 0.107966304 0.00825101 0.7897785 -0.024962725 0.43326986
-0.024338068 0.28514305 -0.0066156853 0.42462277 0.076344036 -0.057969186 -0.028617706 0.24245454
0.022015762 0.47957358 -0.007507206 0.00023785954 0.029306721 -0.032911237 0.007601188 -0.037398033
0.008005505 -0.054850657 0.0019351279 0.14152502 0.026566938 -0.06712358 0.0061232294 -0.03812792
-0.00725977 -0.005977519 0.010152886 0.18675461 -0.029624952 0.32491544 -0.0015699144 0.06907633
0.013036625 0.5842405 0.010385303 0.5763489 0.016137343 0.51872617 0.020195352 -0.009821577
-0.01942889 0.049166266 -0.0050500627 -0.04544607 -0.013512755 0.41339377 0.0071893707 -0.05810506
-0.015632765 -0.019407652 0.044345886 -0.025838586 -0.0072060456 -0.043110266 -0.021923527 0.072185986
-0.004808279 0.63257825 0.004533246 -0.04968065 -0.01746931 0.0057863863 0.052444566 -0.047428723
-0.032398358 0.4804668 -0.009253386 0.0006337569 -0.006864607 0.8369614 0.03010538 -0.0238466
-0.027960151 0.5952973 0.030969802 0.07776095 -0.0143446075 0.016512722 0.032414593 0.005121412
-0.061232492 0.7203119 0.04413954 -0.018950652 0.008699243 0.5025621 -0.017247934 0.009790838
0.018361108 0.8442053 0.14467563 -0.071863174 -0.011457434 -0.027200537 -0.005642081 -0.07354337
-0.016307458 0.027713558 -0.004058895 0.6800857 -0.0023955547 0.10130076 0.0065367045 -0.072903045

bias f4 [60]
00000000: fc5f aa3c f1f9 853e f8f0 333f 9784 a73c
00000010: dbc0 d0bd 3aa3 8abd 0054 a83e 89a0 84be
00000020: 2c20 273f 389b 14bc 344e b83e 0e44 9b3d
00000030: 30ba ba3e 1551 413c d583 9ebd 4ea5 ce3e
00000040: 86f5 953e d83c 23be ac30 b7bd 2191 ee3e
00000050: db98 683c 021c 363f dc66 14be c310 5b3c
00000060: 8e82 fe3e 9e0c 7fbc 4b8d 423e 5b3d 2b3f
00000070: 7adb 9c3e 7852 b63c bd0a 80bd 69ea 053f
00000080: 5b73 b53e 3f85 e63e 3a99 193d ea46 9d3e
00000090: 9ce9 dcbe 4ac0 1e3d 5681 3f3f b162 8e3e
000000a0: be35 533e f5b1 b23e f818 1c3f ae52 60bd
000000b0: db91 0bbe d9b3 16be d9f2 eb3b cd34 b7be
000000c0: adaa bd3d 3e9e 593d 3b7a 9d3e 1cab b43d
000000d0: 07c3 573f 78c4 3f3f 6987 c23e 6a23 493f
000000e0: 2068 0c3b 30a3 0cbd 8051 813c 37b5 91bd
0.020797722 0.26167253 0.70289564 0.020448966 -0.10193034 -0.06769414 0.32876587 -0.2590373
0.65283465 -0.00907021 0.35997164 0.0758134 0.36470175 0.011799117 -0.07739989 0.40360492
0.29288882 -0.15941179 -0.0894483 0.465951 0.0141966 0.71136487 -0.14492363 0.0133706955
0.4970898 -0.015566973 0.18999211 0.66890496 0.30636197 0.022256121 -0.06252048 0.52310807
0.35439572 0.45023534 0.037499644 0.30718166 -0.4314698 0.0387576 0.74806726 0.2780967
0.2062597 0.34901395 0.609756 -0.05476635 -0.13629858 -0.14717044 0.0072005806 -0.3578247
0.092610694 0.053129427 0.30757317 0.08821699 0.84281963 0.7490916 0.37993935 0.7856966
0.0021424368 -0.034335315 0.015785933 -0.07114642

weight f4 [60, 60]
00000000: d97d eb3c 0cbd 0e3e b171 3bbd 11cc be3d
00000010: 78f8 3fbd f97b dfba 6824 d23b 2db7 16bc
00000020: 9e46 0b3e ff16 b5bd da9c 263c e85c 333d
00000030: ab8d 29bc 07f4 ce3c d6ec b43c 1203 953d
00000040: d3a9 653b 2180 d1bb 7ee6 16bd a515 ac3d
00000050: aa9e e03c 92c2 ac3d 68d0 15bd 8c81 0e3e
00000060: e38d ee3d eb91 993d d002 863d 4abf d63c
00000070: de9c 1f3d 70ad fd3c 3c3a 71bd ae5c cebc
00000080: d0be 793d 9dbf 543d 86f3 e93c 907a 153d
00000090: 208a 99bd 003b ffbb 1124 823d 9816 16bb
000000a0: 4d49 d3bc 5466 c83c bb07 16bd ea95 683d
000000b0: 1962 2ebb 6903 e43d fcd5 763d c57b be3d
000000c0: 97cf 87bc 65fe 75bc 0637 1c3d 5c1f e83c
000000d0: b93a 71bc d072 083d 78c4 d03d fa3a ac3d
000000e0: 9ec5 f03d 8244 79bc 7671 fd3d 6100 ecbc
000000f0: fd1e 263c e293 30bc 9723 febc 427f 3b3c
00000100: 4277 353c 5272 a8bc 1a8e 0fbc 753c 2bbd
00000110: d392 35bd 519e 36bc 6e27 933d bfce 4bbd
00000120: 0f7b 903d 79e5 033e 4709 72bc 965a 453c
00000130: 89e0 7f3d 59e9 8bbb 8e4e 4abc 709b 683d
00000140: ea72 943d c49b febb 6f19 58bc ab14 19bd
00000150: cdfd 8e3c 1d08 ebbb 0a78 1bbc f9a4 c1bb
00000160: 5584 3cbc 44e3 293c 2869 46bc cab3 c33d
00000170: 09c7 ac3c ee07 e53d 3ff7 023e 1384 393c
00000180: dbbf 2db8 aed9 9a3d 0a12 ccbc 79c1 cd3d
00000190: 1616 a6bc 2ac9 b73d 1e4f dd3c 438c 6ebc
000001a0: 4d53 b5bc 2cff b33d c5e7 e83c 8bc3 1d3d
000001b0: 6744 d63c 4f3e 03bc 0084 31bc dfed 533c
000001c0: 5742 d6bb 9d76 b53d 4043 83bc 2df7 cebc
000001d0: 283a a53b 2993 803c 9d04 6a3d be38 b13d
000001e0: d52d d9bb bd8e bc3b d4d0 cf3d c75a 4e3d
000001f0: 3d6b a2bc 22da 9d3d 583c 853d 25b5 71bc
00000200: 5814 cf3c 96ed a3bc 127d 82bb b73a abbc
00000210: 0f08 033e bf8f 083d 8a21 71bc a08d b03d
00000220: 289a ba3c 5d95 873d f80b 22bc 6df5 5a3d
00000230: 0903 fd3c 4b5d f43d 2f40 073d 3848 f93c
00000240: c999 973d 60fd d33b 653d bb3d d003 afb9
00000250: 2a0b 73bc 9516 e73d 9dbc 41bb c271 803c
00000260: d2e8 1f3b df5f d03b 0ee8 57ba d5b4 69bc
00000270: f4b8 fc3d bab2 f03d 3fa5 d5bc d58a ce3c
00000280: 08d9 a93d 7e5c e83b 0b69 a33d 6d6b a93d
00000290: 6d56 1b3d ffbd b83b c50e f9bb b47b 95bc
000002a0: cad9 a1bc 6a3f 05ba e69c bb3b 7c26 983d
000002b0: 6525 033d 8faf 26bb 04a7 2ebc bcd5 4e3d
000002c0: c55b 4abc 690b e53c 60f4 843d 42b1 973b
000002d0: 286c 773c 3424 453b 0f0d c03c a92a 873d
000002e0: 4388 06bd ef40 70bc bbd5 aabc 1a3d b83b
000002f0: 609b ce3c 32dc df3b 586b b03d a6a4 a33d
00000300: 9130 d73d 410e 943b 277e d1bc 4266 053d
00000310: 21db 3c3d 3867 e23c 4110 adbc 9325 bd3d
00000320: 4b6c 513c 3fed 3e3c 3f93 933b 85a4 c93d
00000330: df25 a63d c8f7 b73d 62cf e53c a272 0c3d
00000340: 78b0 ef3b e116 5e3c 82fb 0f3c 6234 bf3d
00000350: 6476 813d b363 c1bc 7876 8b3c 038b 4a3d
00000360: 0204 95bd 0bfb a1ba 9bf7 ebb8 a210 60bc
00000370: efa9 633c 7a08 1cbd c0c2 793c e179 643c
00000380: 8065 0f3d 6564 613d 9813 853c bd3c 1d3c
00000390: 3a1f f23a 986f debc 9968 b0bc 91ad 163e
000003a0: f443 85bc 23ca 34bc 2240 653b d2c3 5abd
000003b0: 33ad 6d3c f7f5 e3bc b8f6 3b3e c177 b03a
000003c0: 996f 473c 15a0 283d 7cc9 5d3d 9e98 263c
000003d0: 3327 bbbb f89f a03c c733 8bbc 5456 3e3d
000003e0: 222f 8ebc b6b2 a8bb 0045 cf3d 630f 0fbd
000003f0: a59f 83bc cc22 043e fad9 66ba 27d3 3ebc
0.028746532 0.13939303 -0.04576272 0.09316266 -0.046867818 -0.0017050497 0.0064130314 -0.009198946
0.13601157 -0.08842277 0.010169232 0.043789774 -0.010348718 0.025262846 0.022085588 0.07275976
0.003504385 -0.006393448 -0.03684091 0.08402566 0.027419407 0.08435549 -0.036575705 0.13916606
0.116481565 0.07498535 0.06543505 0.02621426 0.03896796 0.03096649 -0.058893427 -0.025190677
0.06097299 0.05194055 0.028558504 0.036493838 -0.074970484 -0.007789016 0.06354535 -0.002290165
-0.025791788 0.024462856 -0.036628466 0.056783594 -0.0026608764 0.11133463 0.060262665 0.09300951
-0.016578479 -0.015014266 0.038138412 0.028335266 -0.014723473 0.03331262 0.101937234 0.084096864
0.117564425 -0.015214087 0.123751566 -0.028808774 0.010139224 -0.0107774455 -0.03102283 0.011443915
0.011075797 -0.020562325 -0.008761907 -0.041805703 -0.044329476 -0.011146144 0.07185255 -0.049757715
0.070547216 0.12880506 -0.01477272 0.012045523 0.062469993 -0.0042697606 -0.01234783 0.05678886
0.072484806 -0.0077700336 -0.013189658 -0.037373226 0.017455006 -0.007172598 -0.009489069 -0.005909559
-0.01150616 0.010369126 -0.012110032 0.095557764 0.021091001 0.11183153 0.1278963 0.011322993
-4.1425094e-05 0.0756105 -0.024910945 0.100466676 -0.020274203 0.08973916 0.027015265 -0.014559808
-0.022134447 0.087889045 0.028430829 0.038516562 0.026155664 -0.008010461 -0.010834694 0.012935131
-0.00653867 0.08860514 -0.016023278 -0.025264347 0.005042333 0.015695171 0.057133306 0.08653401
-0.006627778 0.0057543204 0.10147253 0.05037954 -0.019826526 0.07707621 0.0650565 -0.014752661
0.025278255 -0.02001075 -0.0039821947 -0.02090202 0.12796043 0.033340212 -0.014717469 0.08620763
0.022778586 0.06620286 -0.009890549 0.053456713 0.030885236 0.11931857 0.033020195 0.030429944
0.07402379 0.0064694136 0.091425695 -0.00033381442 -0.014834205 0.11283604 -0.0029561885 0.015679244
0.0024400246 0.006359085 -0.0008236178 -0.014264305 0.123399645 0.117528394 -0.026079772 0.025212685
0.082933486 0.007091104 0.0797902 0.08272443 0.03792422 0.0056378837 -0.0076006376 -0.018247463
-0.01975717 -0.0005082997 0.005725491 0.07429215 0.032018084 -0.002543423 -0.010659937 0.0504968
-0.012350981 0.027959542 0.06491923 0.004629285 0.01510147 0.0030081393 0.023443727 0.06599934
-0.032844793 -0.014663919 -0.020853868 0.0056225182 0.025220573 0.0068316692 0.08614224 0.079903886
0.1050731 0.0045183008 -0.02557285 0.032568224 0.046107415 0.02763711 -0.021125915 0.09235682
0.012782167 0.011653244 0.004503637 0.09845833 0.08112692 0.089828074 0.02805299 0.03428901
0.007314738 0.013555259 0.0087879915 0.09336163 0.06321409 -0.02360711 0.017024264 0.04944898
-0.07276155 -0.0012358142 -0.00011251793 -0.013675841 0.013895496 -0.03809402 0.015244186 0.013945074
0.035008907 0.055027384 0.016244695 0.009597001 0.0018472441 -0.027152821 -0.021534251 0.14714648
-0.016267754 -0.011034521 0.0034980853 -0.053409405 0.014506626 -0.027827246 0.18355834 0.0013463424
0.012172603 0.04116829 0.05414723 0.010168223 -0.00571146 0.019607529 -0.016992463 0.046469048
-0.017356459 -0.005148257 0.101205826 -0.034926783 -0.016067335 0.12903899 -0.0008806285 -0.011647022

bias f4 [60]
00000000: 3610 74bc 8e17 fcb7 9ca3 743d 56e9 c13d
00000010: 4f3a 94bc cf9a c53d 2f9b 33bc c9f6 b43d
00000020: ed68 4dbc ff54 ac3d 967d 8d3d 84f6 b33d
00000030: b639 89bc 2282 46ba 5a27 7d3d bf2a 60bc
00000040: 2960 cfbb 7203 b23d 5b3f e7bc 236c cb3d
00000050: c30c 1fbc 9ea5 1539 ca82 843c 612e e83a
00000060: a4aa 623d 13b4 6939 4606 acbc ab29 9dbc
00000070: 8cfc 18bd cad2 053d ec8c 653a 5cac 8e3b
00000080: be99 b0bc a179 6bbc c845 00bb 04f4 123d
00000090: 4b13 b93c 280d 16bc e12b 003c 568b ecbc
000000a0: 62b7 aebc 2c90 09bc 36b1 0d3d 338d 38bc
000000b0: 7851 b0bc 7d19 aabc b772 73bc 3800 e9bc
000000c0: 9a41 99bc 84cf 8d3d c908 c53b 6b4b 8a3d
000000d0: cf77 dd3d cc00 72bc e0a4 253d 1153 923d
000000e0: 50c5 373d d9b7 0f3d d20b 7f3c 16d7 ef3d
-0.014896443 -3.005171e-05 0.059726343 0.094683334 -0.01809421 0.09648668 -0.010962292 0.08836133
-0.012537223 0.08414649 0.06908719 0.087872535 -0.016751152 -0.0007572492 0.061805107 -0.013682066
-0.006328602 0.086920634 -0.028228452 0.09932735 -0.0097076325 0.00014271445 0.016175646 0.0017714017
0.055338517 0.00022287694 -0.020999085 -0.019184908 -0.037350222 0.032671727 0.0008756656 0.004354043
-0.021557685 -0.01437226 -0.0019572843 0.035877243 0.022592207 -0.00915841 0.007822962 -0.028875034
-0.021327678 -0.00839619 0.03459283 -0.011264133 -0.021523222 -0.020764107 -0.014858893 -0.028442487
-0.01870804 0.06924346 0.00601301 0.06752666 0.10813867 -0.014770698 0.04044044 0.0714475
0.044865906 0.03508744 0.015566783 0.11710946

weight f4 [60, 60]
00000000: b846 3dbd c2de 1e3e 9f3a a63d 6a15 39bc
00000010: 2e4c 333d 94a9 b9bc 27f0 ff3d 6770 113d
00000020: e51b 933c 8f59 8d3d d175 8f3c aa64 7abd
00000030: a87f e43d 9553 8a3d b52f f6b9 80fa 84bc
00000040: 46c8 b83c 56fb c93d dbac e53d 67a7 173e
00000050: 244d 4b3d 4649 1d3e afbe 053e 84f5 2c3d
00000060: cddd d83c f920 d6ba fccc 3db9 fe19 273d
00000070: 0370 ef3d 57a5 8e3d 7dfc 643d 1fd9 213b
00000080: 88b1 32bc 26c8 c13d a0f1 693c 114b f03c
00000090: 5229 563c edcb 3dbc bc87 173c 2366 f43d
000000a0: b8b9 a53b e9e0 0a3e 7a90 ca3c 6d9e 063e
000000b0: 262d aa3b 9c10 2fbb 2237 d0ba e194 c03b
000000c0: b8ff 183d 9248 063d e072 273c e4f2 da3d
000000d0: 0e65 d73c 3df8 f33c 5ab6 c63d ea0a 1e3e
000000e0: adb7 863d 8192 a1bc 8837 a53d 96a7 9e3c
000000f0: 9ed0 223c 5074 2dbd f6fc 24bb 4261 9cbb
00000100: 4d24 8c3c 53ff 293d e338 a2bc ffed cc3b
00000110: 3a5e 8e3d a03a f03d 490b 013e 4916 153e
00000120: 097e a6bc 97c3 013e 2e6a a63d 4ba3 ed3d
00000130: 0c16 9a3b bd15 283d e6b1 ad3d 1b0c dc3c
00000140: 5f90 cc3c f2f0 d93d 8fe5 2c38 7f76 973d
00000150: bc3c b1bc 6fc6 8b3d 11a4 bf3d 1bfd ecbc
00000160: 5ebc 033d 01cb e5bc 15ba 213d bfaa 05bc
00000170: 3c35 50bc ff12 f63d 03fa dfbc 66ac 56bb
00000180: a725 f43c f18a 2c3d 58bb 493d ea99 9d3d
00000190: 9b47 efbc 8106 b83c 949e 483d bacf c2bc
000001a0: cb08 11bd 8306 95bc 09e2 e63d 9015 b4bc
000001b0: 7ebc f93d 938f b6bc f8ad d1bc 66fe 7d3b
000001c0: fc77 62ba 034d 683d 50d3 c53c 1b72 96bb
000001d0: 96c4 01bc e611 22bb d296 b83d 8a43 523b
000001e0: c902 37bd f5f5 263c b28b 3bbc 612a d73b
000001f0: eef3 a4bc fc18 f4bb 7005 383c 9c86 3bbd
00000200: 16d0 49bd 7bc1 05bd 7fbf cfbc d4c8 53bc
00000210: a60e 773b 94f4 4abc 3037 7abc ac08 983d
00000220: d081 0cbd 6fdc efbc c891 2fbd b972 84bc
00000230: 47b5 0f3d a5c3 1abd 6a4e fcbc ea01 cbbc
00000240: 5de9 b33d dc7e 83bc 38e2 1bba 54e4 2c3d
00000250: 13c8 4d3d 86fc 95bd c2f5 333d cbbf ca3b
00000260: 09e8 37bd 5f92 683d 9d4d d0ba 4e64 d63c
00000270: 804b 5bbd 7514 c53c c256 abbc 83e2 2fbc
00000280: 6010 2c3d 0bd9 9bba fbc3 4fbd fa08 08bd
00000290: 900b cf3d 20ea dd3d e717 fdbc 99a3 d3bd
000002a0: 0457 a43d 07a4 5e3d 0790 cd3c 20e2 7a3d
000002b0: 1d30 03bd ec7b 1bbd 711c 0bbc 29d8 f2bc
000002c0: 452e 7fbc 0e78 a83d 2883 55bc 8324 923d
000002d0: c8f3 f9bc d17b 163e 097a dd3d 17a1 9a3d
000002e0: a5f7 babc fbe3 c9ba 98d4 8bbc 81aa 913d
000002f0: 85a4 10bd ba8b 04bd 5fb5 a93d 093d 433d
00000300: 55e0 0fbe 5c66 ac3b 3bdc e33c c490 8c3d
00000310: 486b 12bc 10f2 97bc 755c 64bd 72e4 90bc
00000320: affb 8fb9 84af 18bc 4e75 e1bc c069 28bd
00000330: dba9 7fbc 0937 13bc 3c6d 873d 6bac f4bc
00000340: 5086 e7bc ca26 e6bd 529d 2ebd f0b9 1ebb
00000350: f04d afbc 7dc3 f6bc f6f2 afbc af84 91bc
00000360: 8eab 69bd 1336 003d 54a2 b93c a1d1 4bbc
00000370: f5a2 0c3b 82d8 49bc 6775 00bd 2548 4f3d
00000380: 5cd5 523b d5e0 ee3d fbab d5bc 8660 1abd
00000390: 4394 eb3b 27fa f83c 03b8 a83c 21d4 eb3c
000003a0: ee57 383d 120e 1abd 9c18 d13d 6a12 55bd
000003b0: d8b6 93bd 94f0 39bc 3086 05bd 0a94 d0bb
000003c0: 78c5 f7bc c090 1c3d c333 80bc e361 713b
000003d0: 9ea5 f03d 0cdd 873d a13d a73d 5fa0 97bc
000003e0: af20 3cbd d4ee 06bd 11e7 cf3c d737 82bd
000003f0: 5f43 10bc 9c35 933d dff6 2b3d 2e78 77bc
-0.04621002 0.15514663 0.0811665 -0.011296609 0.043773822 -0.022663869 0.12496977 0.035507586
0.017957637 0.069018476 0.017512234 -0.061131157 0.11157161 0.06754223 -0.0004695632 -0.016232729
0.022556435 0.09862392 0.1121461 0.14809953 0.049634114 0.15359983 0.13061021 0.04222633
0.02647295 -0.0016336731 -0.00018100807 0.040796272 0.116912864 0.0696513 0.055904854 0.0024696065
-0.010906585 0.094620034 0.014278799 0.02933267 0.013071375 -0.011584264 0.00924867 0.119335435
0.00505754 0.13562359 0.024727095 0.13146372 0.0051933704 -0.002671278 -0.0015885571 0.0058771227
0.037353247 0.032784052 0.010220259 0.10690859 0.026293304 0.029781455 0.097027496 0.15433851
0.06578002 -0.019723179 0.08067232 0.01936702 0.0099374335 -0.042347252 -0.002517519 -0.004772336
0.017107153 0.04150326 -0.019802516 0.0062539573 0.06951566 0.11729932 0.12601961 0.14559282
-0.02032377 0.12672268 0.08125721 0.11603411 0.004702335 0.041036356 0.08481197 0.026861241
0.024971185 0.1064166 4.122179e-05 0.07395648 -0.021635406 0.068249576 0.09357465 -0.028929284
0.032162063 -0.028050901 0.039484102 -0.008158385 -0.012708005 0.12015342 -0.027340895 -0.0032756566
0.02980311 0.042124692 0.04925093 0.076953724 -0.029208949 0.022464039 0.048979357 -0.023780692
-0.035408776 -0.018191582 0.112735815 -0.021982938 0.12194155 -0.022285258 -0.02559565 0.003875637
-0.0008639095 0.05671407 0.024148613 -0.004591239 -0.007920405 -0.0024729907 0.09013142 0.0032083713
-0.04468039 0.010190477 -0.01144688 0.0065663313 -0.020135846 -0.0074492674 0.011231765 -0.04578267
-0.04927071 -0.03265522 -0.025359867 -0.012926299 0.003769794 -0.0123874135 -0.015271947 0.07423529
-0.034303486 -0.029279916 -0.042863637 -0.016167985 0.03508499 -0.037784237 -0.03079911 -0.024781186
0.08784745 -0.016051702 -0.000594649 0.04220994 0.050239634 -0.07323556 0.043935545 0.0061874143
-0.04489902 0.056780215 -0.0015892271 0.026170876 -0.0535388 0.024057606 -0.020915393 -0.010735157
0.042007804 -0.0011890245 -0.05072401 -0.033211686 0.10109627 0.108356714 -0.030895187 -0.10333938
0.080244094 0.054355647 0.025093092 0.061250806 -0.032028306 -0.037959978 -0.008490668 -0.029644089
-0.015574996 0.082260236 -0.013031758 0.0713587 -0.030511752 0.1469567 0.10814292 0.07550257
-0.022823164 -0.0015403026 -0.017069146 0.07112599 -0.035313148 -0.032359816 0.08286547 0.04766563
-0.1405042 0.0052612256 0.027814975 0.06863549 -0.008936711 -0.018548042 -0.055752236 -0.017687056
-0.00027462604 -0.00931919 -0.027521756 -0.041116476 -0.015604462 -0.008985289 0.06612632 -0.029867372
-0.028262287 -0.11237867 -0.0426305 -0.0024219714 -0.021399468 -0.030122513 -0.021478157 -0.017763464
-0.057048373 0.03130157 0.022660412 -0.012440116 0.0021459435 -0.012319686 -0.031361964 0.05060591
0.003217063 0.11663977 -0.026082983 -0.03768971 0.007189305 0.03039272 0.020595556 0.028787674
0.04500573 -0.037611075 0.10209772 -0.052019514 -0.07212609 -0.011348862 -0.032598674 -0.006365304
-0.030245528 0.03822398 -0.015649682 0.0036832027 0.11750339 0.06633958 0.08166052 -0.018509088
-0.045929607 -0.032942608 0.025378736 -0.06358307 -0.008805125 0.071879596 0.04198348 -0.015104337

bias f4 [60]
00000000: fffb dfbc 31f0 cc3c 7a04 3cbc 145b 5abb
00000010: 3731 a0bc ad24 d3bb 20a0 39bc 2f27 a83c
00000020: 3140 76bc 222a b7bc 119c 003e 86ba d0bc
00000030: 7292 a2bd 8fab 92bd 8334 143c e933 e43d
00000040: ebac 913d 7fff 8f3d 990a 06bd 77d9 e3bb
00000050: a487 053d a9c0 a4bc 9a07 463c 8438 ac38
00000060: eae3 2e3c 5232 833d a48b 06bc 160e 62bd
00000070: 0158 213d 2517 813d 2ed4 56bb 80f6 303c
00000080: 4ea4 943b bda3 98bc d363 56bc b388 11bd
00000090: dd50 923b ecc8 40bc 5fc8 163e 85ff 9a3c
000000a0: e24f 14bd a474 c0bb 5102 52bd 7932 0cbd
000000b0: 077f 0bbd d10c ecbc 2c45 a43c 6d65 543d
000000c0: 6193 80bc b8d2 1a3e 4559 acbd db1d 193d
000000d0: 96cb 243d 5c1b 10bd 84c9 e73c 57ec c23c
000000e0: 3edc 873d 0fbd 163d c58b 07bb 23dc e6bc
-0.02734184 0.025016876 -0.011475677 -0.0033318447 -0.019554717 -0.006443581 -0.011329681 0.020526497
-0.015029953 -0.022358958 0.12559535 -0.025479566 -0.079380885 -0.071616285 0.009045723 0.111427136
0.071130596 0.07031154 -0.03272495 -0.006953414 0.03260006 -0.020111399 0.012086773 8.212126e-05
0.010674456 0.06406082 -0.008212004 -0.055189215 0.039390568 0.063032426 -0.0032780278 0.010800958
0.004536188 -0.018632764 -0.013085323 -0.035530757 0.004465206 -0.0117666535 0.14724873 0.01892067
-0.036208995 -0.0058732796 -0.05127174 -0.034227822 -0.03405669 -0.028814705 0.020052515 0.05185454
-0.015695276 0.15119445 -0.08415464 0.037381988 0.040233217 -0.035182342 0.028294332 0.023794336
0.06633805 0.036801394 -0.0020682674 -0.028181141

weight f4 [5, 60]
00000000: 049f 4cbc 1d94 fb3d 7426 7abc 3e79 dabb
00000010: c9f3 06bd 4d89 a4bc 5321 ee3c 8563 a43d
00000020: 0056 71bc 75a7 d3bc 5f29 8b3d f907 35bd
00000030: 99a2 c0bc 8e4f c8bc c02b fa3d 4ff3 cb3b
00000040: af78 c7bc abb3 f3bc 9a45 a9bc 409f c1bc
00000050: e510 b53d 3693 5b3a bf99 353d 227a d3ba
00000060: fdcb a73d 8107 c63d a8d2 3bbc 7d17 80bc
00000070: b6f2 f4bc 08b8 a13d 2439 c33d ea4e 9cbc
00000080: 7d1a 78be 6b92 a43d 5b8b b0bc 4087 38bb
00000090: 5da3 b13d 7a11 f03d 1908 fc3d f240 e83d
000000a0: 9ed7 a93b c43c a4bc 32e1 d2bc 640f 88bc
000000b0: 7cce 94bc 6c62 e33c 00e5 063e 0375 bfbc
000000c0: 72bc e5bc c610 d43d 912c 68bc d469 6f3d
000000d0: 3a93 b5bc 3046 d83c d352 10bd 10ff 29bd
000000e0: fc92 91bc 0ec0 aa3d 736d c93d e0cf 4f3d
000000f0: 11a2 a7bc 5750 c9bb 861b acbc 3a80 2cbc
00000100: 9556 ecb9 a131 e3bc d723 d0bc 775d 7f3d
00000110: 95f1 0cbc 1462 71bc 3593 b2bc 4869 e03d
00000120: 3542 c0b8 f80e df3d 00e1 eb3c e025 78bd
00000130: 639c 87bd fa4f 20bd 1892 83bc 7eed b13c
00000140: a558 0fbc 5d4e 233e 9d5b 8dbc a800 2fbc
00000150: 3630 c83c f11f 7ebc 727a 4dbc 9214 303d
00000160: fae5 ea3b b537 b23d fbcc b03d 9b76 55bc
00000170: c7d7 ed3d 628f 6a3d 2614 abbc daee 053e
00000180: 9fb8 90bc a40e f83d ef8e d3bc 6692 b03d
00000190: 74d9 9b3d 8de4 cdbc e781 3bbc fddb 7dbc
000001a0: c0e4 7abc 3407 9a3d 7daf 9ebc 4be3 57bd
000001b0: 6842 82bb d36f a0bc 0d40 1abc dc48 ad3c
000001c0: caa5 aebc a44b 2f3e b9aa 14bd d0c0 f2bc
000001d0: 8809 babc c607 7bbc 1b41 a33c 9628 723e
000001e0: 5692 e7bc c7ef 833c 66e5 d1bc 169e 4ebc
000001f0: cad2 94bc 4820 b7bc 169d 1bbd efbc debc
00000200: 61a3 bc3d f508 b5bc 0507 8abc ef75 e0bc
00000210: 2e35 1d3d 29e0 76bb 70aa 81bc 3b8d 87bd
00000220: be2d 58bd 208b fcbc 9829 c0bb 3972 b9bc
00000230: 2c5a b23d 1e51 1fbe 2bbd 93bc e543 eebb
00000240: 123a d8bb 5cad babc 9894 64bc bc3d 6fbc
00000250: 0899 d73d 5ddf 99bc b36b 7b3c 492c 1cbd
00000260: 88e2 4b3d 2ad8 a6bc 8c4a 14bd c7d1 cd3d
00000270: 4d80 e5ba 3187 c63d 0107 c1bc 2f83 063d
00000280: 0259 093e 3985 bbbc 57c9 e93c 108d 96bc
00000290: 0d35 463d 3a58 e73a df1c 94bd 3d8f b2bd
000002a0: 3c5a 9f3d 8b16 cfbc 812d a63d 1e78 38bd
000002b0: af38 ecbb 0a65 a73d 1f6d 18bd d444 7ebc
000002c0: 4af6 babc d9b5 ae3b a947 d33c 0d34 ab3e
000002d0: 9b24 5abc b5a3 91bc f386 303d 030d c63d
000002e0: cf89 673d a1f0 f4bc e7cd 323c f9ec 3fbc
000002f0: b1a5 063e 42b9 b3bd 76c1 26bc f6fc a1bc
00000300: 33ce 0fbd 5495 eebc 16a6 1c3c 099a bf3d
00000310: 6628 d53c db8a 01be 77ee 22bd f447 b03b
00000320: 3b20 bf3d 5105 ff3c f75b a73d 3518 e33d
00000330: e4d3 7cbc dd27 bdbc f512 963d 5fa1 a2be
00000340: fa59 4a3d 3e54 4f3d 1d00 8bbc c84e 69bc
00000350: 788d 41bd 40d7 283f 6f2d 1c3d 8dc0 993e
00000360: 2507 50bb 3816 25bc 9c40 02bc 928f adbb
00000370: 5131 893d 3ed9 d8bc 0573 c0bd e49c 19bc
00000380: ec99 dd3d d138 f03b b28e 00bc bea1 6e3d
00000390: 65b1 31bd 889d 2a3b 54d6 04bd 8814 8f3c
000003a0: 6c73 ebbc 8d68 c53c 59d9 afbd e843 22bd
000003b0: ca6d 863c a745 81bb dfd5 d43c 8502 6f3c
000003c0: c356 19bd 4982 efbc 3633 0f3e b2a8 8d3e
000003d0: 306b 2f3e 9944 4fbd b6a4 0dbd 47a2 47bc
000003e0: fa47 883e 1669 9dbd f0ae 983d 1886 013e
000003f0: 6a45 8cbd 68be 8abc 2ad1 1b3c 37b4 e03a
-0.012489084 0.1228411 -0.015267957 -0.006667285 -0.032947335 -0.020085001 0.029068625 0.08026794
-0.014729977 -0.025836686 0.06795 -0.044197056 -0.023515033 -0.024451997 0.12215376 0.006224073
-0.024349539 -0.029748758 -0.020663071 -0.023635507 0.08841113 0.0008376123 0.044336077 -0.0016134421
0.081932046 0.096694 -0.011463799 -0.0156362 -0.02990089 0.07896429 0.09532383 -0.019080598
-0.24228854 0.080357395 -0.021550825 -0.0028156787 0.08673737 0.117220834 0.12306232 0.11340512
0.0051831743 -0.020048507 -0.025742147 -0.016608901 -0.018164866 0.027756892 0.13173294 -0.023371225
-0.02804396 0.10354762 -0.014170782 0.058450535 -0.02216493 0.026400656 -0.035235237 -0.041503012
-0.017770283 0.08337413 0.09835329 0.050735354 -0.020463021 -0.0061436105 -0.021009218 -0.0105286185
-0.00045077936 -0.027733626 -0.025407715 0.062344994 -0.0086025195 -0.014732856 -0.02179871 0.10957581
-9.1676055e-05 0.10891527 0.028793812 -0.060582995 -0.06621625 -0.03913877 -0.016060874 0.02171969
-0.008749162 0.15947862 -0.017255599 -0.010681309 0.024437051 -0.015510545 -0.0125414 0.042988367
0.0071685286 0.087020315 0.08632847 -0.013028766 0.11613422 0.057265647 -0.020883631 0.13079396
-0.01766616 0.121121675 -0.025824992 0.08621673 0.07609835 -0.025133396 -0.011444545 -0.015494344
-0.015313327 0.07520905 -0.019370789 -0.052706998 -0.0039752014 -0.019584572 -0.009414685 0.021152906
-0.021319289 0.17118698 -0.036295626 -0.029632956 -0.022709623 -0.015321678 0.019928506 0.23648295
-0.02826802 0.016105546 -0.025622081 -0.012610933 -0.018166918 -0.02235426 -0.037991606 -0.0271897
0.092108496 -0.022098998 -0.01684905 -0.027399985 0.038380794 -0.003767023 -0.015828341 -0.066187344
-0.052778 -0.030828059 -0.0058643334 -0.022637473 0.08708605 -0.15558288 -0.018034538 -0.0072712773
-0.0065987194 -0.022787742 -0.013951443 -0.014602121 0.10527235 -0.018783266 0.015345502 -0.03812817
0.049776584 -0.020366747 -0.036203906 0.100497775 -0.001750955 0.096937545 -0.02356291 0.03283995
0.1341286 -0.022890674 0.02853839 -0.01837781 0.048390437 0.0017650195 -0.07232069 -0.08718727
0.07780883 -0.025279304 0.08114148 -0.045036428 -0.0072089056 0.081735685 -0.03721344 -0.01551934
-0.022822518 0.0053317365 0.025791006 0.3343815 -0.0133143915 -0.017778257 0.043097448 0.096704505
0.05652791 -0.029899897 0.010913349 -0.0117142135 0.13149144 -0.087755695 -0.010177961 -0.019773941
-0.035108756 -0.02912394 0.009561082 0.09355552 0.02602024 -0.12650625 -0.0397782 0.005379671
0.09332319 0.031130465 0.08171838 0.110886015 -0.015431378 -0.023090297 0.073278345 -0.3176374
0.049402215 0.05061745 -0.016967827 -0.014239974 -0.047254056 0.65953445 0.038129266 0.30029717
-0.003174254 -0.010076098 -0.007949974 -0.005296656 0.066988595 -0.026470777 -0.09396938 -0.009375785
0.10820374 0.007330992 -0.007846521 0.058259718 -0.043382067 0.0026033837 -0.03243096 0.017465845
-0.02874156 0.024097705 -0.08586378 -0.03961554 0.016409773 -0.003945071 0.025980888 0.014588003
-0.037436258 -0.02923693 0.13984379 0.27667767 0.17130733 -0.05060253 -0.03458091 -0.012184686
0.26617414 -0.07686059 0.07455242 0.12648809 -0.06849177 -0.016936496 0.009510318 0.0017143552

bias f4 [5]
00000000: 7fa2 773b ffce 0abd c3ce 593d 925f eebb
00000010: 96ae 463d
0.0037786064 -0.033888813 0.0531757 -0.0072745765 0.048506342
