digital_twin/pinn_9/model.pt (torch, 28451 bytes, 10 tensors)

weight f4 [40, 2]
0	0xbcaada42	-0.020856027
1	0x3d24487c	0.04010819
2	0xbbaa79cb	-0.005202507
3	0xbd7179c2	-0.058954008
4	0xbcb729ee	-0.02235886
5	0x3eb3500a	0.35022002
6	0xba2696ac	-0.00063548493
7	0x3d5f1306	0.0544615
8	0x3cc8a38b	0.024492046
9	0x3d1f2be9	0.038860235
10	0x3df41274	0.11917582
11	0xbd86f89b	-0.065903865
12	0x3caa400a	0.02078249
13	0x3e674bec	0.22587556
14	0xbc45c226	-0.012070214
15	0x3e742835	0.23843463
16	0xbc8207fc	-0.015872948
17	0x3e8d02a1	0.27541068
18	0xbba4e8e6	-0.0050326465
19	0x3ee891ae	0.45423645
20	0x3c45e38f	0.01207818
21	0xbd4bef74	-0.049788907
22	0xbc98a84e	-0.018634941
23	0x3e4482e2	0.19190553
24	0x3bc2d73d	0.0059460686
25	0x3d51baf3	0.05120368
26	0xbc7b9ca8	-0.015357174
27	0x3abf6580	0.0014602393
28	0x3ba27ee4	0.004958974
29	0xbc6663da	-0.014061892
30	0x3c6af082	0.014339568
31	0xbd2fe327	-0.04294124
32	0x3cdf9e47	0.027297152
33	0xbcd0cb16	-0.025487464
34	0xba6131f0	-0.000859051
35	0x3d9fa881	0.077958114
36	0x3d64e16b	0.055879038
37	0xbd369018	-0.044571012
38	0x3cef7a61	0.02923316
39	0xbb8d3475	-0.004309232
40	0xbbf36970	-0.0074283406
41	0xbcf1bbee	-0.029508557
42	0x3d00d739	0.031455252
43	0x3e0ca40f	0.13734458
44	0xbc36f939	-0.011167818
45	0x3e9e8f6e	0.30968803
46	0xbbdecafc	-0.0067991
47	0xbbf83866	-0.0075750826
48	0x3bee1e81	0.00726682
49	0x3f5f661a	0.8726517
50	0xbb256cd2	-0.0025241864
51	0x3f62270d	0.88340837
52	0x3bc1bf51	0.0059126993
53	0x3ef54ec2	0.4791165
54	0x3cd28368	0.025697425
55	0xbc6164c2	-0.013756933
56	0xbd2c80d7	-0.04211506
57	0x3d8d1239	0.06888241
58	0xbc95d8de	-0.018291887
59	0x392ad287	0.00016290891
60	0xbcd4a2d3	-0.025956547
61	0x3ef86139	0.48511675
62	0x3d048c81	0.032360557
63	0xbd350488	-0.044193774
64	0xbcc6dd26	-0.024275374
65	0xbbb44603	-0.00550151
66	0x3c5bddee	0.013419611
67	0xbd7b73e6	-0.061389826
68	0xbc84fc23	-0.01623351
69	0xb9b7510c	-0.00034964865
70	0xbaf36fcb	-0.0018572746
71	0x3ce3588a	0.02775218
72	0xbc0dcd1f	-0.008654862
73	0x3f529c05	0.82269317
74	0x3d25884d	0.04041319
75	0xbd9a89dd	-0.075458266
76	0xbcd14bf9	-0.025548922
77	0x3d740f1e	0.05958473
78	0x3c5a6ba1	0.013331325
79	0xbd4cb30b	-0.049975436

bias f4 [40]
0	0x3d14a084	0.036285892
1	0x3eb52d76	0.35386246
2	0x3d331f84	0.043731228
3	0xbc1bd3ca	-0.009510944
4	0xbe80e979	-0.25178126
5	0x3f07bc7e	0.5302199
6	0xbe58e1ae	-0.2117984
7	0xbc44186e	-0.011968715
8	0x3cf70168	0.030152038
9	0x3e48a0b7	0.19592558
10	0xbd45ca6a	-0.04828874
11	0x3e5fe88b	0.21866052
12	0xbe089f50	-0.13342023
13	0x3d2ce07c	0.042206272
14	0x3e6dee04	0.23235327
15	0xbdc809d9	-0.09767503
16	0xbdb41ccf	-0.08794557
17	0x3e9d2584	0.30692685
18	0x3eb9da93	0.3629957
19	0x3cb32b72	0.021871302
20	0x3e771367	0.24128495
21	0x3ebaa785	0.36455932
22	0xbd734d6d	-0.05940001
23	0x3d4a11e9	0.049333487
24	0x3f582c97	0.8444304
25	0x3f43f61f	0.76547426
26	0x3e969d7b	0.29417023
27	0xbd889224	-0.06668499
28	0xbd6d85f2	-0.05798907
29	0x3d528914	0.05140026
30	0xbe7451b9	-0.238593
31	0xbdcd2985	-0.10017685
32	0x3d0fb91f	0.035088655
33	0xbdf37209	-0.11886985
34	0x3f3e8f64	0.74437547
35	0x3f36cfb6	0.7141069
36	0x3e8962ad	0.26833096
37	0xbd9bcbc3	-0.07607224
38	0x3ec9968a	0.39372665
39	0xbddd87fe	-0.10816954

weight f4 [40, 40]
0	0x3d15bc60	0.0365566
1	0x3d186387	0.03720429
2	0x3e26379c	0.16232151
3	0x3e08a8e5	0.13345678
4	0xbc8692b1	-0.01642737
5	0xbbcd3d22	-0.006263391
6	0xbd36cbd7	-0.04462799
7	0x3c28493f	0.0102713695
8	0x3dfe6f9d	0.12423632
9	0xbdce9952	-0.10087837
10	0x3d97fba0	0.074210405
11	0x3cbf215f	0.023331342
12	0x3bffa0cf	0.0078011523
13	0x3d2243a0	0.039615273
14	0xbce28803	-0.027652746
15	0x3dc1652c	0.09443125
16	0x3d799082	0.06092883
17	0xbd09b84e	-0.033623032
18	0xbca1271c	-0.01967197
19	0x3dd5626c	0.10419163
20	0x3d03b98d	0.032159377
21	0x3d93a199	0.07208557
22	0xbcbc7bda	-0.023008276
23	0x3cf92cb2	0.03041682
24	0x3d15c325	0.036563057
25	0xbd2a542a	-0.04158417
26	0xbd165632	-0.036703296
27	0x3e0d0992	0.13773182
28	0x3db28cef	0.08718287
29	0x3d10169c	0.035177812
30	0xbda57e74	-0.0808076
31	0x3de4f503	0.11179545
32	0x3de03f55	0.109495796
33	0x3dc96101	0.09832955
34	0x3b34a43f	0.0027563719
35	0x3e291b1c	0.16514248
36	0x3d0a6569	0.03378812
37	0x3c8016d4	0.015635885
38	0x3e1f9c31	0.15586926
39	0x3d9fe024	0.07806423
40	0x3e12b8ca	0.14328304
41	0x3e06c12c	0.13159627
42	0x3cbbf08c	0.02294185
43	0x3cc14700	0.023593426
44	0xbd545299	-0.051836584
45	0xbd0ae0f5	-0.033905942
46	0xbc84b1bb	-0.01619803
47	0xbcec4b40	-0.028844476
48	0x3d301016	0.04298409
49	0x3bc1a963	0.005910085
50	0xbcd6eb34	-0.0262352
51	0xbc8e8681	-0.01739812
52	0x3e07fc48	0.13279831
53	0x3e19f5be	0.1503515
54	0x3d0de8fa	0.034646012
55	0x3de416dd	0.11137173
56	0xbd34c88a	-0.04413656
57	0xbc9268e2	-0.017872278
58	0xbd0d5680	-0.03450632
59	0xbd1718bd	-0.036888827
60	0x3d417a71	0.04723591
61	0x3dde4997	0.1085388
62	0xbd21caa2	-0.039499886
63	0x3dede9e3	0.11616876
64	0xbc886b6a	-0.016652782
65	0xbc86a950	-0.016438156
66	0x3b9121b5	0.004429067
67	0xbd2c05ff	-0.041997906
68	0x3e3f0de3	0.18657641
69	0x3d00f301	0.031481747
70	0xbd9f0cdd	-0.07766125
71	0xbd2b36b5	-0.04180022
72	0x3d018cb5	0.03162833
73	0xbd342cbe	-0.043987982
74	0x3dce714a	0.10080202
75	0x3d85181a	0.06498738
76	0x3cb8b42a	0.022546846
77	0xbd2df439	-0.042469237
78	0x3d218b0e	0.039439254
79	0x3d9d4aab	0.076802574
80	0x3c830eff	0.015998362
81	0x3dfe52ff	0.12418174
82	0xbd31049d	-0.04321729
83	0x3e124929	0.14285721
84	0x3e1ceb01	0.15324022
85	0x3de5f8eb	0.11229118
86	0x3d92563b	0.071453534
87	0x3cedf88d	0.029049182
88	0xbcee4ac7	-0.029088391
89	0xbd912a1f	-0.07088112
90	0x3d1779df	0.03698146
91	0xbc3d8406	-0.011567121
92	0x3cac8c63	0.021063035
93	0x3de0e24e	0.10980664
94	0xbd162e75	-0.0366654
95	0xbce1c1a6	-0.02755816
96	0xbcc75eb5	-0.024337152
97	0x3c3e1595	0.011601825
98	0xbc5a8505	-0.013337378
99	0x3c8bbd3a	0.017058004
100	0x3caf35ff	0.021388052
101	0xbc170f66	-0.00921998
102	0xbd71d09e	-0.059036843
103	0x3e05e5e9	0.13075985
104	0xbc9ad64b	-0.018901011
105	0x3df2f476	0.118630335
106	0x3cab7437	0.020929439
107	0x3e0af00f	0.13568138
108	0x3c60806e	0.013702495
109	0x3c80b321	0.015710415
110	0xbc2eba5e	-0.010664551
111	0xbcb91066	-0.022590827
112	0x3c830f46	0.015998494
113	0x3d549e42	0.05190874
114	0x3dbea55b	0.09308883
115	0xbcf58075	-0.02996848
116	0x3db7bb4f	0.08971273
117	0xbcb2de85	-0.021834621
118	0x3e050107	0.12988673
119	0xbcf8ae9e	-0.030356701
120	0x3cb6800d	0.022277856
121	0xbd5f4e58	-0.054518074
122	0xbcaf83e4	-0.021425195
123	0x3cf0a2e2	0.029374544
124	0x3c9fc4bf	0.019502996
125	0xbd19c583	-0.037541877
126	0xbd53e2e4	-0.05173005
127	0xbc66fd42	-0.014098467
128	0xbca5f986	-0.020260584
129	0xbdd243c5	-0.10266832
130	0x3d9fecac	0.078088135
131	0xbc66805f	-0.014068692
132	0x3d7ddc23	0.061977517
133	0x3e2dc78d	0.16970654
134	0xbc9733e7	-0.018457366
135	0x3d179946	0.037011407
136	0x3dda4e5e	0.106594786
137	0xbd20f19d	-0.03929292
138	0xbcd85ee6	-0.026412439
139	0x3da34858	0.07972783
140	0x3d837c53	0.06420197
141	0xbd116f64	-0.03550662
142	0xbd46d7a9	-0.048545513
143	0x3c70196a	0.014654497
144	0xbc7bf7bc	-0.015378889
145	0xbd4a3256	-0.04936441
146	0xbd36262f	-0.04447001
147	0x3c9205d3	0.017825043
148	0x3c6a93da	0.014317477
149	0x3cae6bef	0.021291701
150	0xbd7d22b5	-0.061800677
151	0x3e10e17c	0.14148515
152	0x3d904972	0.070452586
153	0x3e24eabb	0.16105168
154	0x3df22ef5	0.118253626
155	0x3c1c7a6d	0.009550673
156	0xbd13a865	-0.036049265
157	0x3decfaa8	0.115712464
158	0xbccef3e6	-0.025262784
159	0x3e0b1ff9	0.13586415
160	0x3d5fa404	0.054599777
161	0x3eb47872	0.35248142
162	0x3cca41fc	0.024689667
163	0x3d333f4f	0.043761548
164	0xbdbbe492	-0.09174456
165	0x3df3c00f	0.11901867
166	0x3d3006b3	0.04297514
167	0x3df909ad	0.12160049
168	0x3e1dd6cb	0.15413968
169	0x3c40900d	0.011753094
170	0xbbfee0e9	-0.007778276
171	0xbdc6140a	-0.09671791
172	0xbc398f49	-0.011325666
173	0x3e1dd28d	0.1541235
174	0xbd00a6ec	-0.03140919
175	0xbd327f5f	-0.0435785
176	0xbdd84a1a	-0.10561009
177	0xbc50c808	-0.012743004
178	0x3db9f351	0.09079612
179	0x3cf8d3eb	0.030374488
180	0x3e10a4c4	0.14125353
181	0x3c80665d	0.01567381
182	0x3f8dd8f0	1.1081829
183	0x3e206f08	0.15667355
184	0x3bfc5000	0.0076999664
185	0x3dd5848e	0.104256734
186	0x3da29450	0.079384446
187	0xbdc665ea	-0.09687407
188	0x3e220123	0.15820746
189	0x3d98d33c	0.07462165
190	0xbd1c4d51	-0.038159672
191	0xbddbbfc1	-0.107299335
192	0x3e6574db	0.22407858
193	0x3caa24b1	0.020769449
194	0xbbb27ac8	-0.0054467656
195	0x3e5ee767	0.2176796
196	0x3d2bd90a	0.04195503
197	0xbce2d01b	-0.027687123
198	0x3dd44f87	0.10366731
199	0x3ce41ad7	0.02784483
200	0x3d7a5baf	0.061122593
201	0x3e39df1a	0.18151513
202	0x3d9e1c7c	0.07720277
203	0x3bf2dc10	0.0074114874
204	0x3dc79a7a	0.09746261
205	0xbd199d8b	-0.03750376
206	0x3db3684e	0.08760129
207	0xbcd12a76	-0.025532942
208	0xbce0f3bc	-0.027459972
209	0x3de5bfd0	0.11218226
210	0x3b5fef0e	0.0034169587
211	0x3cdbdd3e	0.026838895
212	0xbd00168f	-0.031271514
213	0x3ca99d1a	0.020704795
214	0xbd4575aa	-0.048207916
215	0xbcdef940	-0.027218461
216	0x3e132340	0.14368916
217	0x3e09388b	0.13400476
218	0xbcaf37e7	-0.021388961
219	0x3d419a8e	0.047266535
220	0x3e23c7fc	0.15994257
221	0x3c121b0c	0.008917581
222	0x3d69b3dd	0.057056297
223	0x3e30c480	0.17262459
224	0x3d2bbfc8	0.041930944
225	0xbcd4e454	-0.025987782
226	0xbcbc116f	-0.022957532
227	0x3b4ca7f2	0.0031228033
228	0x3d0b6dd6	0.034040295
229	0x3c20b41c	0.009808566
230	0xbdcb4ad7	-0.09926384
231	0x3dc6515b	0.09683486
232	0x3d18cd5a	0.037305214
233	0xbce1052e	-0.02746829
234	0x3ce452f5	0.027871588
235	0xbc5fa0cb	-0.013649176
236	0x3c2a6430	0.010399863
237	0x3ca00403	0.019533163
238	0x3c7174bd	0.014737305
239	0xbc64ce50	-0.013965204
240	0x3c699242	0.014256062
241	0xbc88053f	-0.016604064
242	0xbcd01797	-0.025401874
243	0x3d21d91b	0.03951369
244	0xbcf8e8c0	-0.030384421
245	0xbc9ae906	-0.018909942
246	0xbcba32f0	-0.022729367
247	0xbcbcb9cc	-0.023037814
248	0x3ca15ecd	0.019698525
249	0xbbfd88ee	-0.0077372706
250	0x3e04fc29	0.12986816
251	0x3dafc5c5	0.085826434
252	0x3e0c3ae7	0.13694344
253	0x3c57db06	0.013174778
254	0xbc781e06	-0.015143877
255	0x3cdc5639	0.026896583

bias f4 [40]
0	0xbd2d539f	-0.042316075
1	0xbc85dd4c	-0.016340874
2	0xbca75565	-0.020426461
3	0xbce62d62	-0.028097812
4	0x3d44c19c	0.048036203
5	0xbcde8940	-0.027165055
6	0x3dbcf3c0	0.09226179
7	0x3c14dd32	0.00908594
8	0x3e0a3851	0.13498046
9	0xbcea6150	-0.028610855
10	0xbc7d87b0	-0.015474245
11	0xb9ebdec2	-0.0004498866
12	0x3e07662b	0.13222568
13	0x3c3cc4c9	0.011521527
14	0xbd28c0f5	-0.041199643
15	0xbbd01134	-0.006349707
16	0xbcbb25ef	-0.022845237
17	0x3dd8edb1	0.10592211
18	0x3e0a9c4d	0.13536187
19	0x3d9c5a67	0.076344304
20	0xbb8cce8e	-0.004297084
21	0xbc8b335a	-0.01699226
22	0xbc3bf9c5	-0.011473124
23	0x3a9bacab	0.0011877021
24	0x3cbae8ed	0.022816146
25	0x3dd7047e	0.10498904
26	0xbcf9875e	-0.030460056
27	0xbce23b75	-0.027616242
28	0x3cc44d4a	0.023962636
29	0x3df559b3	0.119799994
30	0x3af36aaa	0.0018571217
31	0x3dc41494	0.095742375
32	0x3dc2d143	0.0951257
33	0xbd391e7d	-0.04519509
34	0x3e1beeee	0.15227863
35	0x3da3c8be	0.07997273
36	0x3cc4002f	0.023925869
37	0xbb34e222	-0.0027600606
38	0x3bc9cdc5	0.006158563
39	0xbc9eadd2	-0.019369993

weight f4 [40, 40]
0	0x3d77e177	0.060517754
1	0xbc795bb6	-0.0152196195
2	0xbdaba654	-0.08381334
3	0x3dd6df10	0.104917645
4	0x3d8d31ce	0.06894265
5	0xbe38d41b	-0.18049662
6	0xbc8afa78	-0.016965136
7	0x3c929a9d	0.017895991
8	0xbca05675	-0.019572476
9	0x3e04b84f	0.12960933
10	0xbd7707bd	-0.060310114
11	0x3df81a7e	0.12114428
12	0xbd9a34a9	-0.075295754
13	0xbd10a4ca	-0.035313405
14	0x3c9a6958	0.01884906
15	0x39e280c4	0.00043202017
16	0x3b304660	0.0026897416
17	0xbd00c72e	-0.031439953
18	0xbc5520a9	-0.013008275
19	0x3db381d7	0.08764999
20	0x3d2acc2c	0.04169862
21	0x3bbd8fa4	0.0057849456
22	0x3dae0ee3	0.08498933
23	0x3d7037d7	0.058647003
24	0xbe00a743	-0.12563805
25	0x38b7afc4	8.758859e-05
26	0x3dfc5d89	0.12322528
27	0x3e78c505	0.24293907
28	0xbd965273	-0.07339945
29	0xbc39963a	-0.011327321
30	0xbc11107b	-0.008854027
31	0xbdde17a3	-0.10844352
32	0x3cadf80b	0.02123644
33	0x3e5ff0a9	0.21869148
34	0xbbe41865	-0.006960916
35	0x3dc96fd9	0.09835786
36	0xbcfe7d09	-0.03106548
37	0x3d83782c	0.06419405
38	0x3d08ca7f	0.03339624
39	0x3e10e9c7	0.14151679
40	0x3e16c8ff	0.14725111
41	0xbc7eede4	-0.015559647
42	0x3e0df285	0.13862045
43	0x3c3471a0	0.011013418
44	0xbcfa6ce5	-0.030569503
45	0x3c2b32ea	0.010449151
46	0xbcef7a28	-0.029233053
47	0x3d8eab69	0.06966288
48	0x39133029	0.00014036954
49	0x3d81acca	0.06331785
50	0x3de99152	0.11404671
51	0x3bd4dc23	0.006495969
52	0x3c7a484e	0.015276028
53	0xbd1ce335	-0.03830262
54	0xbabfc283	-0.0014630113
55	0xbc8fc014	-0.017547645
56	0x3df4c6f4	0.1195201
57	0xbb548dbb	-0.003243311
58	0x3d1836d6	0.03716167
59	0xbcc04a95	-0.023473063
60	0x3c84e176	0.01622079
61	0x3c0b2a78	0.008494012
62	0xba1ad589	-0.0005906453
63	0xbcd024e5	-0.025408218
64	0x3e4ca5eb	0.19985168
65	0xbb6f58f2	-0.0036521521
66	0xbae2fdd6	-0.0017318081
67	0x3dbeb3b7	0.09311622
68	0x3dfe2297	0.12408941
69	0x3db067c6	0.08613543
70	0x3de9885a	0.1140296
71	0x3d198594	0.037480906
72	0x3db9d53a	0.09073873
73	0x3bb41fa7	0.0054969373
74	0xbd0b6897	-0.03403529
75	0xbc480aef	-0.012209638
76	0xbca041f4	-0.019562699
77	0xbca76ea9	-0.020438509
78	0xbc745479	-0.014912718
79	0xbbaf1a8c	-0.005343741
80	0x3d93dbd2	0.07219662
81	0x3de3f688	0.111310065
82	0x3e1e53db	0.15461676
83	0x3d8ef940	0.069811344
84	0x3deed93a	0.116625264
85	0x3dacdc64	0.08440474
86	0xbb27d56d	-0.002560939
87	0xbc44e150	-0.012016609
88	0x3cde07b6	0.027103286
89	0xbcd62021	-0.026138367
90	0xbc02814d	-0.007965398
91	0xb890a85a	-6.897813e-05
92	0x3bda4152	0.006660619
93	0xbc7af40a	-0.0153169725
94	0xbc7a886b	-0.015291314
95	0xbb97b438	-0.004629638
96	0x3df656ae	0.120282516
97	0x3d155410	0.03645712
98	0x3d886c2b	0.066612564
99	0x3df88a2f	0.121357314
100	0xbc1830d3	-0.009288984
101	0x3ddda87e	0.10823153
102	0x3e121c79	0.14268674
103	0x3bd27edd	0.0064238147
104	0x3ce6670c	0.028125308
105	0x3da93f35	0.08264009
106	0x3cbfc1ce	0.023407843
107	0xbd8123ec	-0.0630568
108	0xbd0c92a3	-0.03431953
109	0x3e1fc6e3	0.15603213
110	0x3e1309f9	0.14359273
111	0x3cf2b81f	0.029628811
112	0x3d2a38f3	0.041558217
113	0x3df3bc23	0.119011186
114	0x3c410651	0.011781291
115	0xbd628329	-0.055300865
116	0xbc8a4489	-0.016878383
117	0x3ce1205d	0.027481252
118	0xbc8208c3	-0.015873319
119	0x3c242d89	0.010020622
120	0x3dcdbf62	0.10046269
121	0x3e1971e3	0.1498485
122	0x3dd4a9fd	0.10383985
123	0x3cfa87b3	0.030582285
124	0x3da14a48	0.07875496
125	0x3e05c689	0.13064016
126	0xbc0a16ca	-0.008428285
127	0x3e1ce498	0.15321577
128	0x3cddfc86	0.027097952
129	0x3b83770b	0.0040119938
130	0xbad7a403	-0.0016452078
131	0xba6ceca5	-0.00090379483
132	0x3de8bc74	0.113640696
133	0x3a0c2d24	0.00053473026
134	0xbc5da8c4	-0.013529006
135	0x3db35476	0.08756344
136	0xbd043a03	-0.032281887
137	0x3d706f68	0.058699995
138	0x3dc2e4f7	0.09516328
139	0xbaf62e93	-0.0018782191
140	0xbb88d57b	-0.0041758395
141	0x3c1dc862	0.0096302945
142	0x3e1dc2d6	0.15406355
143	0x3cedef23	0.029044693
144	0x3e1ff883	0.15622143
145	0x39392fa7	0.00017660727
146	0x3e18935f	0.14899968
147	0x3d878301	0.06616784
148	0xbc007df5	-0.0078425305
149	0x3ccbad46	0.024862897
150	0x3ddd6a73	0.10811319
151	0x3de235f2	0.110454455
152	0x3d40315b	0.04692207
153	0x3dc6e6b9	0.097119756
154	0x3db920a2	0.09039427
155	0xbd96bbe2	-0.073600546
156	0x3d785a9c	0.060633287
157	0x3cb50bf7	0.022100432
158	0x3c0029c6	0.00782246
159	0x3df6497a	0.12025733
160	0x3d5db1a1	0.05412448
161	0x3de11bcf	0.10991632
162	0xbdbeecc2	-0.09322502
163	0x3e089029	0.13336243
164	0xbd72980a	-0.059227027
165	0x3e0ffb86	0.14060792
166	0xbc41b0d7	-0.011821947
167	0xbc69fa91	-0.014280931
168	0xbc5d40f5	-0.0135042565
169	0xbc55d5a4	-0.013051424
170	0xbca4f70a	-0.020137329
171	0xbc711b59	-0.014715993
172	0x3d2326e2	0.039832003
173	0xbcaaa8d6	-0.02083246
174	0xbc8e8d43	-0.017401343
175	0xbce3140e	-0.027719524
176	0xbc8b1220	-0.016976416
177	0x3c77a01d	0.015113858
178	0x3d0ba05a	0.03408847
179	0xbcd1ce86	-0.025611173
180	0x3dc8f958	0.098131835
181	0xbcac017c	-0.020996802
182	0x3d2b3748	0.041800767
183	0x3dbbd078	0.09170622
184	0x3cea8516	0.028627913
185	0xbc0c0b85	-0.008547668
186	0x3e0bc3bc	0.13648885
187	0xb9f17c11	-0.0004605954
188	0xbd124694	-0.03571184
189	0xbc7c2f80	-0.015392184
190	0x3d9f2790	0.07771218
191	0xbc04ef62	-0.008113714
192	0x3d3cecd2	0.046124287
193	0x3dbab806	0.09117131
194	0x3da40d82	0.08010389
195	0x3d32ee4b	0.043684285
196	0xbcf0f487	-0.029413475
197	0x3d1c678f	0.0381847
198	0xbd132996	-0.03592833
199	0xbc8d265e	-0.017230209
200	0x3e76b88d	0.24093838
201	0xbcd0cf53	-0.025489485
202	0xbd8a3f01	-0.06750298
203	0x3e1118fb	0.14169686
204	0xbd70ecf9	-0.058819745
205	0xbe1628a7	-0.14663945
206	0x3db5d993	0.088793896
207	0x3db7d153	0.08975472
208	0x3c1d3816	0.009595891
209	0xbc95c631	-0.018282982
210	0xbcc650b9	-0.024208413
211	0xbd1acfb5	-0.03779574
212	0xbc1d6187	-0.009605772
213	0xbd4a7734	-0.049430087
214	0x3cc25462	0.023721877
215	0xbcad4dc3	-0.021155244
216	0x3d8c3928	0.06846839
217	0xbced245e	-0.028948005
218	0xbd54ced4	-0.05195506
219	0xbc7d55b7	-0.015462331
220	0x3cbb549e	0.022867497
221	0x3e236a7c	0.1595859
222	0xbc69f6c0	-0.014280021
223	0xbcf3fb78	-0.029782996
224	0x3db5567d	0.08854387
225	0xbc1ccaa1	-0.009569795
226	0x3d4356e5	0.04769029
227	0x3cca033a	0.024659742
228	0x3e2e3b65	0.17014845
229	0xbc204aef	-0.009783491
230	0x3de5ad3d	0.11214683
231	0x3cf25b3f	0.029584525
232	0x3ddfebae	0.10933624
233	0x3e1c775b	0.15279905
234	0xbccc361b	-0.024928143
235	0xba38f5c4	-0.0007055665
236	0x3d351ff0	0.04421991
237	0x3d5780fd	0.052613247
238	0xbcb758da	-0.022381235
239	0xbc48b06f	-0.012249096
240	0x3d27cb43	0.04096533
241	0xbcc29147	-0.023750914
242	0x3e6f9f04	0.23400503
243	0x3dbc132b	0.091833435
244	0x3d7e0de7	0.062024977
245	0x3e18db7b	0.14927475
246	0xbc552310	-0.013008848
247	0x3c33f5f4	0.010983933
248	0x3d7e08ab	0.062019985
249	0xbd00dbef	-0.031459745
250	0x3be4f16f	0.006986789
251	0x3d12288c	0.0356832
252	0x3e26c86a	0.1628739
253	0x3bd237d8	0.0064153485
254	0x3deff12b	0.11715921
255	0xbc90355e	-0.017603572

bias f4 [40]
0	0xbc400be1	-0.011721582
1	0x3d6f88b4	0.05847998
2	0x3cf68bd3	0.03009597
3	0x3d74fd4b	0.05981187
4	0xbc6831fd	-0.014172074
5	0xbd71a39e	-0.058993928
6	0xbca61168	-0.020271972
7	0xbd172df5	-0.036909062
8	0xbd0e8084	-0.03479053
9	0x3e004245	0.1252528
10	0x3bfee695	0.0077789524
11	0x3d2b38d0	0.041802227
12	0x3ca7e969	0.02049704
13	0xbd2eadbd	-0.04264616
14	0x3dbd331a	0.092382625
15	0x3d12205b	0.035675388
16	0xbb803ddc	-0.003913624
17	0x3e0e92d5	0.139232
18	0xbd8571f3	-0.06515875
19	0xbd78abc6	-0.06071069
20	0x3dbb2e26	0.091396615
21	0x3d662a6e	0.056192808
22	0x3db72e84	0.08944419
23	0x3e379b69	0.17930378
24	0x3c6b1016	0.014347097
25	0x3d343c1d	0.04400264
26	0xbcd26e13	-0.025687253
27	0x3dfc4073	0.1231698
28	0xbd6595d7	-0.0560511
29	0xbc8f0002	-0.017456058
30	0x3d9ff4fe	0.078104004
31	0xbc60e81d	-0.013727215
32	0x3cb6634c	0.022264145
33	0xbd559bfd	-0.052150715
34	0xbbb2f7ba	-0.00546166
35	0xbb2a1161	-0.00259503
36	0x3e0a28a1	0.13492061
37	0x3d2c5f3c	0.04208301
38	0x3d0d3b08	0.034480125
39	0x3da0abea	0.0784529

weight f4 [40, 40]
0	0xbb94f555	-0.0045458474
1	0xbc03c475	-0.0080424445
2	0x3d17d4c4	0.037068143
3	0x3d223fa4	0.039611474
4	0x3d9b0515	0.07569329
5	0x3d8b3d19	0.06798763
6	0xbccac7bc	-0.024753444
7	0x3ac3b31f	0.0014930702
8	0x3c5e9050	0.0135842115
9	0x3e0fb137	0.14032446
10	0x3e1f2e02	0.15544894
11	0xbc8177d5	-0.01580421
12	0xbc765a79	-0.015036219
13	0x3deff9bb	0.11717554
14	0x3cb8ad62	0.022543613
15	0xbcef70f9	-0.029228674
16	0xbd91167e	-0.07084368
17	0x3bbad1ff	0.005701303
18	0xbcbd16a5	-0.023082087
19	0x3deeae07	0.11654287
20	0x3c4b0cd9	0.0123932
21	0xbd08c98f	-0.033395346
22	0x3cf860b5	0.030319551
23	0x3db13ae3	0.0865381
24	0x3b447bf7	0.0029981115
25	0x3a1a8ff8	0.0005896087
26	0xbd60cdd6	-0.0548838
27	0x3c4c8107	0.012481934
28	0x3b369901	0.0027862194
29	0x3da4a73b	0.08039709
30	0x3da7d2c3	0.081944965
31	0xbd5f2796	-0.05448111
32	0xbc580b1d	-0.013186243
33	0xbc10cdd3	-0.008838135
34	0x3b0715fd	0.0020612471
35	0x3dd27e78	0.10278028
36	0x3de926d3	0.11384358
37	0xbd0f11fa	-0.034929253
38	0xbd30626a	-0.043062605
39	0x3d77bb39	0.060481284
40	0xbca34976	-0.01993249
41	0xbd2a3edb	-0.04156385
42	0x3dc3ff88	0.09570223
43	0x3d973224	0.073826104
44	0x3c8c05b8	0.01709257
45	0xbe72bb8a	-0.23704353
46	0x3df07b2d	0.11742244
47	0xbd7167e3	-0.058936965
48	0xbd5c559d	-0.053792585
49	0x3ba686d2	0.00508199
50	0xbd883c56	-0.06652133
51	0xbc504250	-0.012711123
52	0x3dc4f0f6	0.09616272
53	0xbdc96354	-0.098333985
54	0xbda2bc77	-0.07946103
55	0xbc99832f	-0.018739311
56	0x3d9dfac3	0.077138446
57	0x3c86e35e	0.016465839
58	0x3d44e8cd	0.04807358
59	0xbe9a0b59	-0.30086783
60	0xbcaf5a9b	-0.021405509
61	0x3c5355dd	0.012898889
62	0x3ceec54f	0.029146818
63	0xbd28fcd7	-0.041256752
64	0x3d07cabb	0.033152323
65	0x3ca32d50	0.019919068
66	0x3ca0fd54	0.019652046
67	0xbd8fab17	-0.07015055
68	0xbdc296df	-0.095014326
69	0xbd8769f9	-0.066120096
70	0xbca91e82	-0.02064443
71	0x3a326aab	0.0006806056
72	0x3d95c4a2	0.07312895
73	0xbd2f6ffb	-0.042831402
74	0xbdeb9189	-0.11502368
75	0x3e1c97b8	0.15292251
76	0xbd831d78	-0.06402105
77	0x3e2bf799	0.1679367
78	0x3cf2045d	0.029543096
79	0xbcf2b2d0	-0.02962628
80	0x3e1d2575	0.1534632
81	0xbcbd8e74	-0.023139216
82	0x3c882603	0.016619688
83	0x3daf41ac	0.08557448
84	0x3df7a918	0.12092799
85	0x3d89624b	0.06708201
86	0x3cb6d92d	0.022320354
87	0xbbf73e6c	-0.007545283
88	0xbd05d56d	-0.03267424
89	0x3e717a9e	0.23581931
90	0xbc96782f	-0.018367855
91	0x3cb74da8	0.022375897
92	0x3e30d99d	0.17270513
93	0x3eca207b	0.39477906
94	0x3d6593ed	0.056049276
95	0x3d0ecde1	0.03486431
96	0x3dc47819	0.09593219
97	0x3d149071	0.036270563
98	0x3d00e740	0.031470537
99	0xbd3a8eb0	-0.045546234
100	0x3da04f7e	0.07827662
101	0x3ccf4a03	0.025303846
102	0x3e641c51	0.22276427
103	0x3d5d2c28	0.05399719
104	0x3d1de6a3	0.03855003
105	0x3e4f1ab8	0.20225036
106	0xbcbfd9cf	-0.023419289
107	0x3dd58dd3	0.104274414
108	0x3c1df1ec	0.009640198
109	0xbc7c6123	-0.015404019
110	0x3ccd26ad	0.025042856
111	0x3c9601b3	0.018311357
112	0x3e207f5c	0.15673584
113	0x3d031405	0.032001514
114	0x3db4a3f1	0.08820332
115	0x3e2b1c98	0.16710126
116	0x3c56d769	0.013112881
117	0x3d9d7c83	0.07689764
118	0x3dd7cf20	0.10537553
119	0xbcab46ba	-0.020907748
120	0x3d923655	0.07139269
121	0xbb139f2b	-0.0022525291
122	0xbd509910	-0.05092722
123	0xbd4d8793	-0.05017812
124	0xbd8a8ba2	-0.06764914
125	0x3d3f084b	0.04663877
126	0xbcd5afa6	-0.026084732
127	0xbb5d6eff	-0.0033788083
128	0xbc9be704	-0.019031055
129	0x3d9f327a	0.077732995
130	0x3cd02f05	0.025413046
131	0xba3b7354	-0.0007150669
132	0x3d2dd2f8	0.042437524
133	0xb91cfb48	-0.00014970929
134	0x3bbaa970	0.005696468
135	0xbb5f0c1d	-0.003403432
136	0xbde7717a	-0.11300941
137	0xbc7eec82	-0.015559318
138	0xbcdf1cc9	-0.027235406
139	0x3e80fa47	0.25190946
140	0x3e1a52e3	0.15070681
141	0xbd037120	-0.032090306
142	0x3bf764c3	0.0075498535
143	0x3e2190e3	0.15777926
144	0x3e4ac406	0.1980134
145	0xbd100101	-0.035157207
146	0xbab2e0dc	-0.0013647336
147	0x3be86ec5	0.007093283
148	0x3dc1c4ff	0.09461402
149	0x3ca09b28	0.019605234
150	0x3c5f4dff	0.013629436
151	0xbd528cd0	-0.05140382
152	0xbd01aad3	-0.03165705
153	0x3d0a761c	0.033804044
154	0x3d106764	0.03525485
155	0xbd09fe6a	-0.033689894
156	0xbc59fd62	-0.01330504
157	0x3c830268	0.015992358
158	0xbd83fdca	-0.06444891
159	0x3d8b8056	0.068115875
160	0x3e6f98e5	0.23398168
161	0xbb7d0274	-0.0038606199
162	0x3df6f52a	0.1205848
163	0x3db84583	0.08997633
164	0xbd790f58	-0.06080565
165	0x3e0c6ec6	0.13714132
166	0xbd96f1cf	-0.0737034
167	0x3df2ea93	0.11861148
168	0x3d7d1d03	0.061795246
169	0x3e3213f3	0.17390423
170	0x3dea9206	0.11453633
171	0xbda00bb2	-0.07814731
172	0xbd2a8f2c	-0.041640446
173	0x3bde112c	0.0067769494
174	0x3d50ad1c	0.05094634
175	0xbdeaee8b	-0.1147128
176	0x3b711ece	0.0036792043
177	0xbca19f1d	-0.019729191
178	0xbd960243	-0.0732465
179	0x3e4e66c5	0.20156391
180	0x3d432cf9	0.04765031
181	0xbd0ba9f3	-0.034097623
182	0xbbd727f4	-0.006566042
183	0x3d3c9f36	0.046050273
184	0x3e36a81e	0.17837569
185	0xbdabfddc	-0.08398029
186	0xbd61433d	-0.054995764
187	0x3e092763	0.13393931
188	0x3cbdedd8	0.023184702
189	0x3e136063	0.14392237
190	0xbbc5a52b	-0.0060316524
191	0x3d21d4ca	0.039509572
192	0xbdb575b5	-0.088603415
193	0xbd380bdd	-0.04493319
194	0x3db71cd4	0.089410454
195	0xbda1ffa6	-0.07910089
196	0x3e1322db	0.14368765
197	0xbdafe209	-0.08588035
198	0x3db9bcff	0.09069251
199	0xbc3d3720	-0.011548787
200	0x3d82880b	0.063736044
201	0xbca6b20a	-0.020348568
202	0x3e231ae3	0.15928225
203	0x3e03fcaf	0.1288936
204	0xbc5afd89	-0.013366112
205	0xbd1321c8	-0.03592089
206	0x3e285d53	0.1644185
207	0x3cf47837	0.02984248
208	0xbce7957f	-0.028269527
209	0x3e1257ac	0.14291257
210	0x3d535322	0.051592954
211	0x3c8c3d55	0.01711909
212	0x3defe3b3	0.11713352
213	0x3e4b127f	0.19831274
214	0x3dd06743	0.101759456
215	0x3e0b7bed	0.13621493
216	0x38dde913	0.00010581515
217	0x3d2eb9a1	0.0426575
218	0x3cc73437	0.02431689
219	0xbd25c2d0	-0.04046899
220	0x3c425957	0.011862121
221	0x3caae68b	0.020861885
222	0x3e295480	0.1653614
223	0x3d23b9d9	0.03997216
224	0x3d16d428	0.03682342
225	0x3e143425	0.14473017
226	0x3d4d9527	0.05019107
227	0x3bd66cdc	0.006543739
228	0x3a1fa75d	0.0006090308
229	0x3d524c39	0.051342223
230	0x3d67a3e7	0.056552794
231	0x3c9b4498	0.018953606
232	0x3d16f361	0.036853198
233	0x3e211507	0.15730678
234	0xbc935ebe	-0.017989513
235	0x3d1d69b1	0.038430873
236	0x3c22c6d1	0.009935097
237	0x3b672a84	0.0035273144
238	0xbbfd460a	-0.0077292966
239	0xbd5289d5	-0.051400978
240	0x3e126542	0.1429644
241	0x3da3bdd3	0.079951905
242	0x3d2282f1	0.039675657
243	0xbd309b51	-0.04311687
244	0xbcd35274	-0.025796153
245	0x3af9d2ba	0.0019059994
246	0xbcdbd11f	-0.026833115
247	0x3b4d9520	0.0031369403
248	0xbc978c8f	-0.01849964
249	0x3e3e7995	0.18601067
250	0x3dcedca1	0.101006754
251	0xbc943efc	-0.01809644
252	0x3d93dfa1	0.07220388
253	0x3cd7d9c8	0.026348963
254	0x3d8a4e1b	0.06753179
255	0x3d84ac49	0.06478173

bias f4 [40]
0	0x3d95291a	0.0728323
1	0xbd430415	-0.047611315
2	0x3d8395fb	0.06425091
3	0xbc478176	-0.012176862
4	0x3ba0b50f	0.0049043964
5	0x3d72cfab	0.05928008
6	0x3df799f3	0.1208991
7	0x3a6abcb3	0.000895451
8	0xbc51a67b	-0.01279604
9	0x3df7aa97	0.12093084
10	0x3d6a7bba	0.0572469
11	0xbd6a6584	-0.05722572
12	0x3db58863	0.08863904
13	0xbd3f6b56	-0.046733223
14	0x3ceb5376	0.02872632
15	0x3c93c289	0.018037098
16	0x3e12f478	0.1435107
17	0x3d93c103	0.072145484
18	0xbcf62be6	-0.03005023
19	0xbd46a13a	-0.0484936
20	0x3c9e0bb4	0.01929269
21	0x3dc03261	0.09384609
22	0xbc964553	-0.018343603
23	0x3db6b673	0.08921518
24	0xbcf5c1c1	-0.029999616
25	0x3de53a35	0.11192743
26	0x3d23e81a	0.04001627
27	0x3e4bd88f	0.1990683
28	0xbd00edd5	-0.031476814
29	0xbd1230ec	-0.035691187
30	0xbca1115c	-0.019661598
31	0xbd0e6c8c	-0.034771487
32	0x3deb3f4d	0.11486683
33	0xbd17bbdb	-0.037044387
34	0xbca44f63	-0.020057386
35	0x3d140864	0.036140814
36	0x3c5874a0	0.013211399
37	0x3cee0b91	0.02905825
38	0x3df9dea2	0.12200667
39	0x3dc0750e	0.093973264

weight f4 [5, 40]
0	0x3e14d23e	0.14533326
1	0xbc84d16c	-0.016213141
2	0x3e1da8f0	0.15396476
3	0x3d8d16ba	0.068891004
4	0x3cc593e3	0.02411837
5	0x3e19273b	0.14956371
6	0x3e27b4b1	0.16377522
7	0xbc927652	-0.017878685
8	0x3d3f87d7	0.046760406
9	0x3b7bbe67	0.003841305
10	0x3eb2be3a	0.34910756
11	0x3d0245fb	0.03180502
12	0x3c1e074e	0.009645296
13	0xbd6af16f	-0.057359155
14	0x3c4c071e	0.012452869
15	0xbc4f1f82	-0.012641789
16	0x3e1ca549	0.15297426
17	0x3cecbebd	0.028899545
18	0xbc7f3356	-0.015576204
19	0xbc5e2930	-0.013559625
20	0xbd9d4601	-0.07679368
21	0xbccca124	-0.024979182
22	0x3b96c451	0.0046010395
23	0x3e051b68	0.12998736
24	0x3d25e076	0.040497266
25	0x3dce4466	0.1007164
26	0x3dfe9a64	0.124317914
27	0xbba7403c	-0.005104093
28	0x3d84e84d	0.0648962
29	0xbc88b587	-0.016688121
30	0xbc9e10b2	-0.01929507
31	0xbc3f2eea	-0.0116689
32	0x3c676dcb	0.014125298
33	0x3c5f43b5	0.013626982
34	0xbd03a485	-0.03213932
35	0xbc89fa26	-0.016842913
36	0x3e0abc6b	0.13548438
37	0x3d98f487	0.07468515
38	0x3c33193d	0.01093131
39	0x3d88cd85	0.06679825
40	0xbc66556e	-0.014058454
41	0xbd0aa692	-0.03385026
42	0xbced6708	-0.028979793
43	0xbc499afc	-0.012305018
44	0x3d02c9ca	0.031930722
45	0xbc817495	-0.015802661
46	0xbcf93fc1	-0.030425908
47	0xbccf4228	-0.0253001
48	0x3ca2589b	0.019817641
49	0xbc191384	-0.009343032
50	0xbe70bdf7	-0.23509966
51	0x3e90eff6	0.28308076
52	0xbc8254ea	-0.01590963
53	0x3e8a17ff	0.26971433
54	0x3d762bba	0.060100295
55	0x3d190cf0	0.037365854
56	0xbcf61055	-0.030037085
57	0x3d481c5f	0.04885518
58	0x3e198f46	0.1499606
59	0xbce7a95a	-0.028278995
60	0xbda45222	-0.08023478
61	0x3bf948dc	0.0076075625
62	0xbbc99096	-0.006151269
63	0x3d555c30	0.05208987
64	0x3dddcb23	0.10829761
65	0xbcc33aca	-0.023831744
66	0x3b9c30fe	0.0047665825
67	0xbd921531	-0.07132948
68	0x3e1867e5	0.14883383
69	0x3dc80f40	0.09768534
70	0xbcb1002a	-0.021606524
71	0x3df6a0dd	0.12042401
72	0xbcadb59f	-0.021204768
73	0x3de9c944	0.114153415
74	0x3bab09d9	0.00521968
75	0xbd20c2b6	-0.03924819
76	0xbc4bae19	-0.012431645
77	0x3d49d80c	0.049278304
78	0x3d2eb68f	0.04265457
79	0xbda2e919	-0.07954616
80	0xbca98bc2	-0.020696525
81	0xbca4e218	-0.020127341
82	0xbd168adc	-0.03675352
83	0x3e16f45d	0.14741655
84	0xbd12b057	-0.035812702
85	0xbccf5392	-0.025308404
86	0xbd0d8b13	-0.03455646
87	0xbccc1be7	-0.024915649
88	0xbd3702cb	-0.044680398
89	0x3dc0c40a	0.094123915
90	0x3d30cc4b	0.04316358
91	0x3e160976	0.14652047
92	0x3e0ca0c8	0.13733208
93	0x3e0a02b9	0.13477601
94	0xbc421cff	-0.0118477335
95	0x3db9eba8	0.09078151
96	0xbcd0e98a	-0.025501985
97	0x3bc815f8	0.0061061345
98	0xbcaa8f4a	-0.020820279
99	0xbcd0023c	-0.02539169
100	0x3daccc7a	0.08437438
101	0xbd363ff3	-0.04449458
102	0x3ad91eaa	0.0016564925
103	0x3baaeabc	0.005215971
104	0x3c934a88	0.017979875
105	0xbc96faf9	-0.01843022
106	0xbd38bdbf	-0.04510283
107	0xbd9e6ef8	-0.07736009
108	0x3e41adf9	0.18914022
109	0x3bfade25	0.007655876
110	0xbc14522e	-0.009052796
111	0xbc750bdd	-0.014956442
112	0xbd03a685	-0.032141227
113	0x3d86e388	0.06586367
114	0x3e430a99	0.19047011
115	0x3c5b6377	0.0133904135
116	0x3dc1f353	0.094702385
117	0xbce8506f	-0.028358666
118	0xbc897f08	-0.016784206
119	0x3d437d7d	0.047727097
120	0x3d9c83d4	0.07642332
121	0x3e0c40d2	0.13696602
122	0xbcc1513c	-0.023598306
123	0x3ec26e94	0.3797499
124	0x3e3d6b18	0.18497884
125	0xbd18137d	-0.03712796
126	0x3d4e5346	0.050372384
127	0x3d525ef2	0.05136008
128	0x3c9308ab	0.01794847
129	0x3e4c3dd4	0.1994546
130	0x3c84b256	0.016198318
131	0xbdb8a41d	-0.09015677
132	0x3e26ccf5	0.16289122
133	0xbe7c4b45	-0.24638088
134	0x3eaabb70	0.33346128
135	0x3ccab813	0.024745977
136	0x3e4a53d1	0.19758536
137	0xbd58636b	-0.052829187
138	0x3d10e48c	0.03537421
139	0x3d68a8aa	0.056801476
140	0xbd579350	-0.052630723
141	0x3d32db6a	0.04366628
142	0xbd1d61dc	-0.038423404
143	0xbcdf4140	-0.027252793
144	0xbcc22d44	-0.023703225
145	0x3e38dc5c	0.1805281
146	0x3ca9c7b8	0.020725116
147	0xbd2a95aa	-0.041646637
148	0xbd74ece9	-0.059796248
149	0x3e59a1ae	0.21253082
150	0xbd27b585	-0.040944595
151	0x3cea1519	0.028574513
152	0xbd8232c8	-0.06357342
153	0xbd003153	-0.03129704
154	0xbe357acf	-0.17722629
155	0x3c7979b6	0.015226772
156	0x3e2ff039	0.17181481
157	0x3d757953	0.059930157
158	0x3b5548c7	0.00325446
159	0x3d54ca67	0.05195084
160	0x3e53a92c	0.20670003
161	0xbe824a67	-0.2544739
162	0xbd3b567d	-0.04573678
163	0x3f06546d	0.52472574
164	0x3ea15600	0.31510925
165	0xbd165914	-0.036706045
166	0x3e566e44	0.209405
167	0xbe02835b	-0.1274542
168	0xbd3619fc	-0.044458374
169	0x3e81cb93	0.25350627
170	0x3e1adbe3	0.15122943
171	0xbdcc2ebf	-0.099698536
172	0x3dcaef3d	0.09908912
173	0xbf0436fe	-0.5164641
174	0x3e2e972e	0.17049858
175	0x3c0d1471	0.008610831
176	0x3dc47ecf	0.09594499
177	0xbcf6d482	-0.030130628
178	0x3e8dc436	0.2768876
179	0xbd84c6b9	-0.06483216
180	0x3d105d1f	0.035245057
181	0xbc852631	-0.016253563
182	0xbe03284b	-0.1280834
183	0xbc104620	-0.008805782
184	0xbcc9e209	-0.024643915
185	0x3e385b5a	0.18003598
186	0xbcadec81	-0.021230938
187	0xbd458836	-0.048225604
188	0xbc9c4b5c	-0.019078903
189	0x3e45aa79	0.19303311
190	0xbe95953d	-0.29215422
191	0x3e8947d6	0.2681262
192	0xbd7d42e9	-0.06183139
193	0xbc862cf4	-0.016378857
194	0x3cd6d75b	0.026225736
195	0xbeafb9fd	-0.34321585
196	0x3e3ae431	0.1825111
197	0x3ce9bd19	0.028532552
198	0x3d1c1fd9	0.03811631
199	0x3db61b87	0.08891969

bias f4 [5]
0	0x3d288b0b	0.041148227
1	0xbd076c3f	-0.033062216
2	0xbd2532f4	-0.040331796
3	0xbce3c238	-0.027802572
4	0x3e34f9ce	0.17673418
