t-C/pinn_0/model.pt (torch, 7849 bytes, 8 tensors)

weight f4 [10, 1]
000000 f7 47 55 bc 3a ae 23 bd de ce f6 bc fa c5 90 bc
       -0.013017646 -0.039961077 -0.030127939 -0.017672528
000010 b7 17 0a bc b6 76 a1 3c e3 cd 14 bc 84 9e c3 bc
       -0.008428506 0.019709926 -0.00908229 -0.023879297
000020 5a 23 2f 3d 4d 11 e0 bc
       0.042758323 -0.027352

bias f4 [10]
000000 ae 81 51 3f 85 86 85 3e 64 24 92 3f 52 8a 7d 3f
       0.818385 0.26079193 1.1417356 0.99039185
000010 6d a4 b7 3d 7c 76 09 3e 2f cb ba 3d b6 55 39 3f
       0.089669086 0.13424104 0.091207854 0.7239641
000020 ee d8 87 3d e6 de 87 3f
       0.06633173 1.0614898

weight f4 [10, 10]
000000 5f 37 a1 3b cb e9 29 be 7d 41 c3 bd 95 d2 91 3e
       0.004919931 -0.16593091 -0.09533975 0.28480974
000010 ba bc fe 3e 69 12 10 3e fe c0 17 be 6d 55 17 3e
       0.49753362 0.14069523 -0.14819714 0.14778681
000020 c2 47 a0 3d 5d 67 00 3e ab c8 da 3d 8e 69 11 bd
       0.07826187 0.1253943 0.10682806 -0.035501055
000030 e5 cd 15 3e 0e e3 e5 bd 1d 28 1d be 49 8c 2b 3d
       0.14629324 -0.11224948 -0.15347333 0.041881833
000040 06 f6 c6 3d f0 a9 c7 bd 4f 67 93 3e 6b 74 e3 bd
       0.09714894 -0.0974921 0.28789756 -0.11106189
000050 55 7d 9c 3d f4 06 cd 3c 72 b2 5a bc ab 2b 9b 3d
       0.07641093 0.02502773 -0.013348209 0.075766884
000060 06 e3 20 3e 41 6f 3e 3d c5 fd 74 3e 9f de 65 bd
       0.15711603 0.04649282 0.2392493 -0.05612051
000070 32 37 81 3b 68 dc 01 3e ba c9 68 3e e2 7d 82 3e
       0.0039433474 0.12681735 0.22733203 0.25486666
000080 55 3e 88 3e 56 6d 60 3e aa 5e fa 3e 1a 90 16 3d
       0.26610056 0.21916708 0.48900348 0.03675852
000090 d5 cb 8b 3e 76 84 76 3d 85 de 1c bd 87 a8 02 3e
       0.2730395 0.06018492 -0.03829815 0.127596
0000a0 d4 fb 08 3d 86 92 d8 3d b1 c0 99 3d ea f5 18 be
       0.033443287 0.10574822 0.07507456 -0.14937559
0000b0 19 66 ca bd 26 1f c3 bc 31 8b b4 3e 23 b6 ff bd
       -0.09882755 -0.023818564 0.35262445 -0.12485912
0000c0 6a 6a d3 3d de d9 e2 bd c2 bd f9 3c ea 06 c5 bd
       0.10323031 -0.11076711 0.030485991 -0.096204594
0000d0 4c 78 81 bd 55 7d 93 3e 0e 4b 99 3e 5a 2b 8a bc
       -0.06321773 0.28806558 0.29940075 -0.016866375
0000e0 59 49 47 3d fb 0a 0c bd 64 ee 8b 3d 10 cc 07 bd
       0.048653934 -0.03419016 0.06832579 -0.033153594
0000f0 9c c6 2a 3e 3e 00 4d 3e 7a 0f 70 3d e6 21 36 bd
       0.16677326 0.20019624 0.05860851 -0.04446592
000100 b4 8e 15 3d d5 1d a2 3e ee e7 ca 3e 7a 3f 24 bd
       0.036513045 0.31663385 0.39630073 -0.0400996
000110 dc 6f 93 bd a4 0c c6 3d 50 a6 d9 bd 1a 8f f9 bd
       -0.0719907 0.0967038 -0.10627425 -0.121854976
000120 7c e8 e9 bd ab 1e c3 bd 07 a0 db 3d 56 7b 19 bd
       -0.11421296 -0.09527334 0.10723882 -0.037471138
000130 84 0b b2 be 0b 3f 32 3d ea 38 b3 3e 85 9e c7 bd
       -0.3477441 0.043517154 0.3500436 -0.09747032
000140 eb 51 10 3e 97 26 93 3d 76 58 33 bd 5f 93 54 bd
       0.14093749 0.07185095 -0.043785535 -0.051898357
000150 59 8f f9 3d 40 b9 85 3e 6d 02 b5 bc 58 95 75 bd
       0.121855445 0.26117897 -0.022095883 -0.05995688
000160 bb 7a 3e bd 12 5c 84 bd ee f5 a4 3d 9b 58 0f be
       -0.046503764 -0.064628735 0.0805472 -0.13998644
000170 5d 8f 96 bd 4c 2b 70 3e 04 68 cd 3e e6 a8 a0 3e
       -0.07351563 0.23454016 0.4011842 0.3137886
000180 fa 8d ff bd 34 eb 26 3e 29 a8 84 3d 31 8d 34 3e
       -0.12478252 0.1630066 0.064773865 0.17631985

bias f4 [10]
000000 b3 5c af 3c 19 e2 82 3d 29 39 87 3e e9 2c 04 3d
       0.021406507 0.06390781 0.26410797 0.032269392
000010 aa 76 7f bd e1 1e 2f 3d 2d a6 2e 3d d7 fe 8a bd
       -0.062369026 0.042754058 0.042638946 -0.06786888
000020 1e b6 75 3e 91 a1 8e 3d
       0.23995253 0.0696441

weight f4 [10, 10]
000000 a7 83 d4 3e a4 ac d8 bd eb ef 2d 3e 08 2b 2a bd
       0.41506693 -0.105798036 0.16986053 -0.041544944
000010 f4 24 08 bf ca ca c6 3e b1 61 38 3c d6 81 7a bd
       -0.53181386 0.3882659 0.01125376 -0.061158977
000020 ed a5 8e 3d 1d 7c e8 3e 42 89 3b be dd 7d 25 3e
       0.069652416 0.4540719 -0.18314078 0.16161294
000030 60 ed e7 bd aa f8 29 be bf 0f e6 bd 7f d1 07 be
       -0.113245726 -0.16598764 -0.11233472 -0.1326351
000040 ee e0 44 be 7a 5e 26 3f 88 5f 41 3d c0 aa 93 be
       -0.19226429 0.6498791 0.047210246 -0.2884121
000050 3b dd 65 b9 44 df 58 3e 26 21 ca 3d 16 75 68 3e
       -0.00021921557 0.21178919 0.09869604 0.22700915
000060 f3 e7 8a bd 72 81 a1 3d 6c af c2 3c d2 45 0a bd
       -0.06782522 0.07886018 0.023765288 -0.033757992
000070 ac 55 89 3e 5a f0 35 3e 1a 86 a6 3d a9 2d cb 3d
       0.26823175 0.17767468 0.081310466 0.09920818
000080 9c bc 25 3c 4e bc 39 bd bf a1 cf be 6c f3 c5 bd
       0.010115769 -0.045345597 -0.4055309 -0.0966557
000090 37 44 f5 bd 56 c4 8d 3d 2a a5 bf 3d 8f 30 a8 bd
       -0.119759016 0.06922214 0.093576744 -0.08212387
0000a0 34 72 6f be 7e 57 d3 bd ce f0 3d 3e 1e aa a0 3e
       -0.23383409 -0.10319422 0.18548891 0.3137979
0000b0 94 9a b1 3e 15 02 70 3e 9c 8b 29 3d 83 36 5c be
       0.34688246 0.23438294 0.041392908 -0.2150517
0000c0 12 7c 6d bd 80 a5 95 be 93 e6 85 be d3 1c a3 3e
       -0.05797965 -0.2922783 -0.26152477 0.3185793
0000d0 c1 3f 1d bd ab 64 48 3e 07 b4 0c be 38 ec 30 be
       -0.03839088 0.19569652 -0.1374055 -0.1727761
0000e0 61 0f 64 bc c4 e8 8a bd b8 cd bb 3e 9b c3 64 be
       -0.013919682 -0.06782678 0.36680388 -0.22340243
0000f0 df 6c 8a 3d ec d6 b5 bd 0c a9 b7 bd 05 6e 32 3d
       0.06759047 -0.08878884 -0.0896779 0.043561954
000100 0e 81 e0 be 10 93 51 3e cc d3 01 be 1c 30 d7 3c
       -0.4384846 0.20466256 -0.1267845 0.026268058
000110 5a 6f b3 3c 06 10 bf 3d e3 f5 85 bd b4 f4 72 3e
       0.021903683 0.09329228 -0.0654104 0.2372616
000120 94 4e 4e bc 3a d1 7c 3e 1a 9b fd 3e dc 4c 2d 3e
       -0.012591977 0.24689189 0.49532396 0.16923851
000130 f2 e1 50 3e 22 88 91 3c 36 47 3a bc de 23 4e 3d
       0.20398691 0.017765108 -0.011369517 0.050327174
000140 01 67 ec be f7 24 4e 3e e2 59 ae bc 05 42 b8 3e
       -0.46172336 0.20131288 -0.021283094 0.3598787
000150 78 f8 d2 bd d3 45 50 be 72 bf 1d 3e ed 89 6d be
       -0.10301298 -0.20339136 0.15405062 -0.23197146
000160 31 09 14 3e 40 0a cf be 92 56 11 bd 83 2d f0 bc
       0.14456631 -0.40437508 -0.03548295 -0.029318577
000170 c4 8f a8 bc 5e c0 1f 3e 0e 45 ae 3d 42 10 77 3e
       -0.020576365 0.15600726 0.08509265 0.24127296
000180 b9 d1 77 3c 11 94 bf 3e b0 48 5a bd 5d ef 41 bd
       0.015125685 0.37417653 -0.053291976 -0.047347415

bias f4 [10]
000000 e1 70 6a 3e a0 00 3c bd 6d 15 1f bd ae fc 04 3e
       0.22894622 -0.045899034 -0.038838793 0.12987015
000010 2b f2 8a 3d 4c f8 be 3d b6 85 ba 3e 1b 0b 74 bd
       0.06784471 0.093247026 0.36430138 -0.059580904
000020 e9 6c b9 3e da 21 9e bd
       0.36215904 -0.077213004

weight f4 [5, 10]
000000 b6 0a 20 3e 68 30 2a be 99 dc e5 3d a9 c5 84 3d
       0.15629086 -0.16620028 0.11223716 0.06483013
000010 eb c9 1c 3e 0d 99 34 3e e6 84 0c 3e 9a 83 a7 3d
       0.153114 0.17636509 0.13722572 0.08179398
000020 50 c8 3f 3e b7 e7 d7 bd 52 6e d2 3d c3 5c 95 3c
       0.18728757 -0.10542243 0.10274948 0.018232709
000030 df 18 0a 3e 2c 59 8c 3e 8e 45 84 bd 6f 5d ae bd
       0.1348605 0.27411783 -0.06458579 -0.08513915
000040 6e ff 15 3e f0 d5 c7 bd b6 8d ce bd 40 f4 83 3e
       0.1464822 -0.09757602 -0.10085623 0.25772285
000050 b5 c1 cb 3d db 65 40 bd 91 aa a2 be 0d db e8 3c
       0.09949056 -0.046972137 -0.31770757 0.028424764
000060 dc 01 b0 bc 90 ed 8a be 17 99 90 3d ab a1 45 be
       -0.021485262 -0.2713437 0.070604496 -0.19299953
000070 1a b5 02 be f8 b7 71 bd 7f 17 53 be 70 a2 9a 3e
       -0.12764397 -0.059013337 -0.20614432 0.30202055
000080 b8 6f 50 bc ad c3 84 3e 1e fa 69 3e ac a5 2a 3e
       -0.012721948 0.2593054 0.22849318 0.16664761
000090 e8 bb 2d bd 8b 1b 15 3e 8f d1 0c 3e 48 ac df 3b
       -0.04241553 0.14561288 0.13751815 0.0068259574
0000a0 ce cd d2 bd ed 56 5a 3f e5 44 14 be 6b 1f 3b 3e
       -0.102931604 0.8528889 -0.14479406 0.18273704
0000b0 74 f9 24 be 0a fe f0 3e 4c 53 86 3e 96 64 91 be
       -0.16110784 0.47068816 0.26235425 -0.28397053
0000c0 f1 d0 c0 3e a4 0e 5b be
       0.3765941 -0.21392304

bias f4 [5]
000000 ed 62 07 3e 6c 08 7b bd 98 de 9b 3d c5 2c 41 3e
       0.13221331 -0.06128733 0.07610816 0.18864734
000010 ca 07 a8 3e
       0.32818443
