digital_twin/beluga/pinn_1-3/model.pt (torch, 42045 bytes, 8 tensors)

weight f4 [64, 2]
0	0xbc9b4791	-0.018955024
1	0xbc481e2c	-0.012214225
2	0xbc6b0e72	-0.014346706
3	0x3c07d0a5	0.008289491
4	0xbcaf4487	-0.021394981
5	0x3e943690	0.28947878
6	0xbc0b790b	-0.008512746
7	0xbb94fbdd	-0.004546626
8	0x3c0dc41f	0.008652716
9	0xbd8d20c6	-0.06891017
10	0x3d12d093	0.035843443
11	0x3d4b205e	0.049591415
12	0x3dbbd580	0.09171581
13	0x3f97cd72	1.1859572
14	0xbc19a758	-0.009378277
15	0x3e7bbd22	0.24583867
16	0xbc7df3db	-0.015500034
17	0x3e79198d	0.24326153
18	0xbb041685	-0.0020155024
19	0x3eca8b2a	0.395593
20	0x3b9e0312	0.0048221434
21	0xbb88323f	-0.0041563804
22	0xbc06a9ad	-0.008219165
23	0x3e62ac01	0.22135927
24	0x3d3ec031	0.046570007
25	0x3ed93c85	0.42428985
26	0xbce7bf24	-0.028289385
27	0xbd75305e	-0.05986058
28	0x3cec73d2	0.028863821
29	0xbd4da042	-0.050201662
30	0x3d31de6e	0.043425016
31	0xbd3631dc	-0.044481143
32	0x3c597fe7	0.013275123
33	0xbd2d6970	-0.04233688
34	0x3d158ed7	0.036513176
35	0x3d965b11	0.07341588
36	0x3c580c07	0.013186461
37	0xbd4677ce	-0.0484541
38	0x3c351255	0.011051734
39	0x3c40e616	0.011773607
40	0xbbad102d	-0.0052814693
41	0xbcbee0c1	-0.02330053
42	0x3d12613d	0.035737265
43	0x3d76bad5	0.06023677
44	0xbc0a3665	-0.00843582
45	0x3ead321a	0.33827287
46	0xbc916c8f	-0.01775196
47	0x3c5a328f	0.013317718
48	0xba9cd86c	-0.0011966354
49	0x3e94b7e2	0.2904654
50	0xba8c55a2	-0.0010706673
51	0x3f11bbe8	0.5692735
52	0x3cb0006a	0.021484572
53	0x3e900c8a	0.28134567
54	0x3d66a695	0.05631121
55	0xbdac5fea	-0.08416732
56	0xbc88c067	-0.016693307
57	0x3c9ed010	0.019386321
58	0xbc3b4be3	-0.011431667
59	0xbc5bc3af	-0.013413354
60	0xbb9b936c	-0.0047477987
61	0x3f043e13	0.5165722
62	0x3a8eb373	0.001088722
63	0x3b3b6106	0.0028591766
64	0xbb689007	-0.0035486238
65	0xbddb3591	-0.10703576
66	0x3c882b51	0.016622217
67	0x3c6d716d	0.014492375
68	0xbb9ab484	-0.004721226
69	0xbd58a706	-0.05289366
70	0xbc03f4a7	-0.008053935
71	0xbc13a069	-0.009010413
72	0xbb1aead7	-0.002363851
73	0x3eea0658	0.45707965
74	0x3bdc3469	0.006720115
75	0xbc482521	-0.0122158835
76	0xbc804894	-0.015659608
77	0x3d1def67	0.03855839
78	0x3c3db2a8	0.0115782395
79	0x3b728eeb	0.0037011455
80	0xbd3827a3	-0.044959676
81	0x3f0ebb4c	0.5575454
82	0xbbe30af8	-0.006928798
83	0xbd1ef2f6	-0.038805924
84	0xbae76d75	-0.0017656522
85	0x3f211eda	0.629377
86	0x3d00c110	0.03143412
87	0x3c3e91e7	0.0116314655
88	0xbd369310	-0.044573843
89	0x3eb87b67	0.3603165
90	0x3d927c52	0.071526185
91	0x3eb32952	0.34992462
92	0xbbaf9ebf	-0.0053595
93	0x3c685bb6	0.014182022
94	0x3d21f285	0.039537925
95	0xbcdeab27	-0.027181221
96	0xbcabc394	-0.020967282
97	0x3ec8f525	0.3924953
98	0x3c22b76c	0.0099314265
99	0xbc83e4b2	-0.016100261
100	0x3a856252	0.0010176396
101	0x3eefddd5	0.46848932
102	0xbba78af0	-0.005112998
103	0xbd33922b	-0.04384057
104	0x3b936ba8	0.0044989176
105	0x3f57f425	0.8435691
106	0x3b8b9829	0.0042600823
107	0xbbe97752	-0.00712482
108	0xbad0b36d	-0.0015922614
109	0x3d142ccf	0.036175545
110	0xbbb8d076	-0.005640085
111	0xbd34d13a	-0.044144846
112	0xbc79b0bd	-0.015239892
113	0x3cd2446e	0.025667395
114	0x3d0ae51d	0.033909906
115	0x3ee2d302	0.4430161
116	0xbc3ca8da	-0.011514867
117	0x3c8fd7ce	0.017558958
118	0x3b9e9104	0.0048390646
119	0x3bcab865	0.0061865323
120	0xbcd08d56	-0.02545802
121	0x3e6bc95f	0.23026036
122	0x3dbf1f67	0.093321614
123	0xbd23b2e6	-0.039965533
124	0xbc9d21a8	-0.019181088
125	0x3e2b7bd3	0.16746454
126	0xbc3809f0	-0.011232838
127	0xbce0c7e2	-0.027439062

bias f4 [64]
0	0x3f11470a	0.5674902
1	0xbbad1ec1	-0.005283207
2	0x3ec507a8	0.38482404
3	0x3db1e87f	0.08686923
4	0x3dd97091	0.106171735
5	0xbe577567	-0.21040879
6	0x3f0f1917	0.5589766
7	0x3ef2e6bc	0.4744166
8	0x3ec3889a	0.38190156
9	0xbd4f8fc7	-0.050674226
10	0x3d25181b	0.040306192
11	0x3f0ce398	0.5503478
12	0x3e99bdad	0.30027524
13	0x3f09a45c	0.5376642
14	0xbdb3301a	-0.08749409
15	0xbe569c55	-0.20958073
16	0x3e968dfa	0.29405195
17	0xbda63a3f	-0.08116578
18	0xbd8fb557	-0.0701701
19	0x3f26d621	0.65170485
20	0x3e80bf8d	0.25146142
21	0xbe8b6741	-0.27227214
22	0xbd9138ae	-0.07090889
23	0x3f28713d	0.6579779
24	0x3d50d7d5	0.050987083
25	0x3ee068f1	0.43830064
26	0x3e0bbb62	0.136457
27	0x3e3c0f57	0.18365227
28	0x3e11c913	0.1423686
29	0x3e0dc828	0.13845885
30	0x3f657975	0.89638454
31	0x3eb20ad9	0.347739
32	0x3f0ccdb8	0.550014
33	0x3e8d5d13	0.27610072
34	0x3ebfbb95	0.374478
35	0xbbefdfa4	-0.007320361
36	0xbe9b9cbd	-0.3039302
37	0xbd7527a4	-0.059852257
38	0xbcc7881f	-0.0243569
39	0xbd4c1fe5	-0.049835104
40	0x3e07ed4a	0.13274112
41	0x3e6eee4d	0.23333092
42	0xbd1769ea	-0.036966242
43	0xbe5db135	-0.2164963
44	0x3f588384	0.84575677
45	0x3f652421	0.89508253
46	0x3ecc57db	0.39910778
47	0x3f29f160	0.66383934
48	0xbd8d93e4	-0.069129735
49	0xbd8d1770	-0.06889236
50	0x3ee629d9	0.44953802
51	0xbcaf22a2	-0.021378819
52	0x3e2332cf	0.1593735
53	0x3f019907	0.50624126
54	0x3c278832	0.010225343
55	0x3eb513d2	0.35366684
56	0xbc692d87	-0.014232046
57	0xbe78593b	-0.24252789
58	0x3e0ba120	0.13635683
59	0xbd452e49	-0.048139844
60	0x3f37659c	0.7163942
61	0x3eeff197	0.46864006
62	0x3e4e929d	0.20173116
63	0x3c1bb9cb	0.009504746

weight f4 [64, 64]
0	0xbc94d58b	-0.018168231
1	0x3cdacfe7	0.026710464
2	0x3cff6278	0.031174883
3	0x3dea0476	0.11426632
4	0x3b9c55ac	0.004770955
5	0xbc3c92f3	-0.011509645
6	0xbcd6ac67	-0.026205255
7	0x3d55900f	0.052139338
8	0xbcf5979d	-0.029979521
9	0x3df2d66f	0.11857306
10	0xbd08c0d3	-0.033387017
11	0x3da6441a	0.08118458
12	0x3dc8cca9	0.09804661
13	0x3d463f91	0.048400465
14	0x3d54fbd6	0.051997982
15	0x3d52b087	0.05143788
16	0xbcdf6325	-0.027268955
17	0xbc9ca69c	-0.019122414
18	0x3c87acc1	0.016561868
19	0xbcdd5499	-0.027017878
20	0x3cfd27b9	0.03090273
21	0x3d730104	0.05932714
22	0x3cfb0dca	0.030646224
23	0xbc9162d3	-0.017747318
24	0xbcd72b73	-0.026265835
25	0xbc11e36f	-0.008904322
26	0xbcee54bb	-0.029093137
27	0x3cad1ba3	0.021131342
28	0x3cc3ec33	0.02391634
29	0x3ccbb6eb	0.024867496
30	0xbc5137a0	-0.01276961
31	0x3d6fc166	0.05853405
32	0xbcbc0f05	-0.02295638
33	0x3da67211	0.08127225
34	0x3d1a44c6	0.037663244
35	0x3e1a4f48	0.15069306
36	0xbc49d528	-0.012318887
37	0xbc628884	-0.013826493
38	0x3d88cbf2	0.066795245
39	0xbd01b9c6	-0.031671308
40	0x3d2a3015	0.04154976
41	0x3d9c1376	0.076208994
42	0x3d1a601d	0.037689317
43	0xbc22b05a	-0.009929741
44	0x3d36f5c5	0.044667978
45	0xbcd71147	-0.026253356
46	0x3dcf0923	0.101091646
47	0xbcc8fd82	-0.024534944
48	0x3ced3956	0.028958004
49	0xbcdd1d66	-0.026991557
50	0xbcd48e60	-0.025946796
51	0x3cc2c47a	0.023775328
52	0xbcd3da1f	-0.025860844
53	0xbce40685	-0.02783514
54	0x3bcdd36f	0.0062813084
55	0x3d9402f0	0.07227123
56	0x3d20cf5f	0.039260264
57	0xbcddc2c8	-0.027070418
58	0x3dad97cc	0.084762186
59	0xbd032294	-0.0320154
60	0x3d91ce05	0.07119373
61	0x3df42530	0.119211555
62	0xbd050392	-0.032474108
63	0x3d32435c	0.04352127
64	0x3d65f450	0.056141198
65	0x3cdb0339	0.026734935
66	0xbd493377	-0.049121346
67	0x3dacfded	0.0844687
68	0x3d194ea2	0.037428506
69	0xbc9bba39	-0.019009696
70	0xbc741bed	-0.014899236
71	0xbc1e24d6	-0.009652337
72	0xbccb6eac	-0.024833046
73	0x3a04bc12	0.0005063425
74	0xbadebb89	-0.0016993146
75	0xbca74e69	-0.020423131
76	0xbc76cd54	-0.0150636025
77	0xbc02a75a	-0.00797447
78	0xbd059908	-0.032616645
79	0x3da6cc9a	0.081444934
80	0x3c4d4de5	0.012530779
81	0x3dc81293	0.09769168
82	0x3da5c7ea	0.08094771
83	0x3b25cf3b	0.002530052
84	0x3be4b6d0	0.0069798008
85	0x3d807a93	0.06273379
86	0xbd8726e5	-0.065992154
87	0x3daed06f	0.08535849
88	0xbc6263ce	-0.013817741
89	0x3dc2027e	0.094731316
90	0x3afc4d26	0.0019249066
91	0xbc8cf9c3	-0.01720894
92	0x3c7a91ad	0.015293521
93	0x3df77faf	0.120849006
94	0xbd133629	-0.035940323
95	0x3cc299eb	0.023755034
96	0x3d3089ee	0.04310029
97	0xbccf7b7f	-0.025327442
98	0x3bba43dd	0.0056843595
99	0x3cd4461c	0.025912337
100	0xbc36faab	-0.011168162
101	0x3d4b8c6c	0.049694464
102	0x3c847065	0.016166875
103	0xbd25c3af	-0.04046982
104	0xbcd87dc0	-0.02642715
105	0x3d0aa554	0.033849075
106	0x3dad2721	0.08454729
107	0x3d80abca	0.06282766
108	0xbcc21159	-0.023689913
109	0x3aeb1bb0	0.0017937329
110	0x3ded4a18	0.11586398
111	0x3d2aed23	0.041730057
112	0x38ca8c2d	9.6582204e-05
113	0x3d4013d0	0.046893895
114	0x3d2c4929	0.04206196
115	0x3cdc174f	0.026866583
116	0x3d145816	0.036216818
117	0xbc1f1fb4	-0.009712148
118	0x3bb86308	0.00562704
119	0xbb91cce4	-0.0044494737
120	0x3e147cbe	0.1450071
121	0x3cbb7a9b	0.022885611
122	0x3ce68798	0.028140828
123	0x3d2370ed	0.039902616
124	0xbc987bdf	-0.018613754
125	0x3d3c09ec	0.0459079
126	0xbd2d7b1a	-0.042353727
127	0x3da0c8ed	0.078508236
128	0x3c4723b0	0.012154505
129	0x3deea345	0.11652235
130	0x3d263d94	0.04058607
131	0x3b48692e	0.003058027
132	0x3d201f16	0.039092146
133	0xbccfdf2c	-0.025374971
134	0x3d94be0a	0.072628096
135	0x3da6580c	0.08122262
136	0xbd0ee135	-0.034882743
137	0x3d82200a	0.06353767
138	0x3d06c166	0.032899283
139	0x3de7d1c1	0.11319304
140	0xba1a2a8e	-0.0005880975
141	0x3c0f29db	0.008738006
142	0xbce9a694	-0.028521813
143	0xbda6d09c	-0.08145258
144	0x3dce72e8	0.100805104
145	0x3dd4d32c	0.1039184
146	0xbd0a8d3c	-0.033826098
147	0x3c8ce88d	0.017200733
148	0x3dce5798	0.10075301
149	0x3bc69f53	0.0060614734
150	0xbddeb0b6	-0.10873549
151	0x3d9d8ee4	0.0769327
152	0x3d2cbb7c	0.042170987
153	0xbb9b6393	-0.004742095
154	0xbc47bf3b	-0.012191589
155	0xbd331eea	-0.043730654
156	0xbc3161ad	-0.01082651
157	0x3b95764a	0.0045612203
158	0xbbd4c6e8	-0.006493438
159	0x3d7cb50d	0.0616961
160	0x3cc993e0	0.024606645
161	0xbca6dd38	-0.020369157
162	0xbbc02591	-0.0058638533
163	0x3d3a591e	0.045495145
164	0xbd22344c	-0.039600655
165	0xbc7e8d4f	-0.01553662
166	0x3be89e32	0.0070989365
167	0xbc86b803	-0.016445166
168	0xbd7d2a7f	-0.061808106
169	0x3b2098f1	0.0024505223
170	0xbc84fdb5	-0.016234258
171	0x3bc6b4e4	0.0060640443
172	0x3cebe049	0.028793471
173	0xbc0b9529	-0.008519449
174	0xbcbc5604	-0.022990234
175	0xbc474809	-0.012163171
176	0x3b91f7de	0.004454597
177	0x3c2b1241	0.010441364
178	0x3dc7c1a6	0.097537324
179	0x3dc000cb	0.09375151
180	0x3de4c92e	0.111711845
181	0xbc78f92a	-0.015196124
182	0x3d6af7df	0.057365295
183	0xbe1c6329	-0.15272202
184	0x3d805c8d	0.06267653
185	0x3d3c22b2	0.045931526
186	0x3b7a126f	0.003815796
187	0x3d8dfd26	0.0693305
188	0xbd3986e5	-0.04529466
189	0xbc733f15	-0.014846583
190	0xbd2fe964	-0.042947188
191	0x3b475a24	0.0030418718
192	0x3d82a984	0.06379989
193	0x3df6690f	0.12031757
194	0x3ca80141	0.02050841
195	0x3d7ed6dd	0.06221663
196	0xbc67774a	-0.014127562
197	0x3aa13883	0.0012300167
198	0x3b25663d	0.002523794
199	0x3d57c945	0.05268218
200	0x3d034c0c	0.032054946
201	0xbdaa2efc	-0.08309743
202	0xbc62a2dc	-0.013832774
203	0x3bbd6572	0.0057799155
204	0xbc95a4b0	-0.018267006
205	0xbd405097	-0.046951856
206	0xbc4625f8	-0.012094013
207	0x3d1fd28e	0.03901916
208	0x3c51c7ef	0.012804016
209	0xbc4c349a	-0.012463713
210	0x3c5a34d5	0.01331826
211	0x3c44b700	0.012006521
212	0x3ccdb5bb	0.02511107
213	0x3da4669a	0.08027382
214	0x3c80cafb	0.015721789
215	0x3901b0c3	0.00012368248
216	0xbc9c1d49	-0.019056933
217	0xbd2f02bc	-0.042727217
218	0xbccd7d3a	-0.025084127
219	0x3dfcd43f	0.1234517
220	0x3c0ef6c3	0.008725825
221	0xbbb62dcc	-0.0055596586
222	0x3c992d96	0.018698495
223	0xbc985558	-0.018595383
224	0xbd55b42e	-0.052173786
225	0xbc7c07ce	-0.01538272
226	0x3cd51a10	0.026013404
227	0x3c5e1d37	0.01355677
228	0xbd0400a3	-0.03222717
229	0x3d4b3416	0.04961022
230	0x3d9ee3aa	0.07758267
231	0x3b049843	0.0020232357
232	0xbd2c4f21	-0.04206765
233	0x3b883465	0.0041566365
234	0xbd197e2f	-0.037473854
235	0x3daedba7	0.08537989
236	0xbd435855	-0.047691662
237	0xbccc4f23	-0.02494008
238	0x3da53e75	0.08068553
239	0xbce0be7b	-0.027434578
240	0xbc427675	-0.011869063
241	0x3dde23d4	0.108466774
242	0xbc97dc9a	-0.018537808
243	0x3c258fd3	0.010105091
244	0x3db3c82d	0.08778415
245	0xbcb76231	-0.022385688
246	0x3da3e00b	0.08001717
247	0x3d3e02db	0.046389442
248	0x3d220934	0.039559558
249	0xbd05d14b	-0.0326703
250	0x3b3a138c	0.0028392999
251	0x3b0e7dd9	0.0021742492
252	0xbca950c5	-0.020668397
253	0x3cbf126e	0.023324218
254	0xbb3a3e95	-0.002841865
255	0x3c2718a9	0.0101987505

bias f4 [64]
0	0xbcd55967	-0.026043607
1	0xbc6b0535	-0.014344503
2	0x3d795474	0.060871556
3	0xbd0a348a	-0.03374151
4	0x3cb9fca5	0.022703478
5	0x3b9cb692	0.0047825063
6	0xbc0540b8	-0.008133106
7	0xbce2d7e7	-0.02769084
8	0x3c27ad54	0.010234196
9	0x3d0a8215	0.033815462
10	0xbc09c45f	-0.008408635
11	0xbca13b17	-0.019681497
12	0xbc7aa570	-0.015298232
13	0x3dd15b64	0.102225095
14	0x3c18f9b8	0.009336881
15	0xbc8700c1	-0.016479852
16	0x3b7517e9	0.0037398285
17	0xbd0d8ca1	-0.034557942
18	0x3cae3321	0.021264615
19	0xbcb16a57	-0.021657152
20	0x3cbec9af	0.02328953
21	0x3cd00103	0.025391107
22	0xbca02ede	-0.019553598
23	0x3d4d080f	0.050056513
24	0x3d23c07a	0.03997848
25	0x3da203c7	0.07910877
26	0x3d7cb0af	0.061691936
27	0xbd071f72	-0.032988973
28	0xbc74ea2e	-0.014948411
29	0xbbe9c2ae	-0.0071338033
30	0x3d007ade	0.031367175
31	0x3d063753	0.032767605
32	0xbcd96038	-0.026535138
33	0x3ce79ba0	0.02827245
34	0x3dbeb590	0.09311974
35	0x3dc5c915	0.09657494
36	0xbb805125	-0.003915923
37	0xbcc4670a	-0.023974914
38	0x3c7b220d	0.015327943
39	0x3c7b51d8	0.015339337
40	0xbcb70c08	-0.022344604
41	0xbc715839	-0.014730507
42	0x3da73a65	0.08165435
43	0xbcc1a46b	-0.02363797
44	0xbc843300	-0.0161376
45	0x3b6aa290	0.0035802461
46	0x3d22e0c4	0.039765134
47	0x3d40e594	0.047093943
48	0xbc1e2b70	-0.009653911
49	0x3d9efb1f	0.07762741
50	0xbc81ee34	-0.015860654
51	0xbcab00cf	-0.020874409
52	0xbd0e0529	-0.03467289
53	0x3d5fc91d	0.054635156
54	0x3aebe759	0.0017998024
55	0xbd180e6f	-0.03712314
56	0xbb323a04	-0.0027195225
57	0xbcc8b190	-0.02449873
58	0x3d35d256	0.044390045
59	0xbc271897	-0.010198734
60	0xbd0f24fc	-0.03494738
61	0xbc4b5b18	-0.012411855
62	0xbca474dd	-0.020075256
63	0xbd0d0e61	-0.03443754

weight f4 [64, 64]
0	0xbc67b6a0	-0.014142662
1	0x3d273e29	0.040830765
2	0xbca4b461	-0.020105543
3	0xbba80ea9	-0.0051287008
4	0xbcd1f89f	-0.025631247
5	0x3bc9f8b3	0.0061636805
6	0xbd031058	-0.03199801
7	0x3d80da2e	0.062916145
8	0xbd2224a4	-0.039585724
9	0xbc99996d	-0.018749917
10	0xbcea5d03	-0.028608805
11	0x3c320b3a	0.010866934
12	0x3b48ee27	0.0030659528
13	0xbd32c909	-0.043648753
14	0x3cfbfe30	0.030760854
15	0x3dcefd77	0.10106938
16	0x3b922b01	0.004460693
17	0x3d497da2	0.04919208
18	0x3d4dc2fc	0.05023478
19	0x3cd62ed5	0.026145378
20	0xbb42b3ce	-0.0029709223
21	0x3b74f4e5	0.0037377414
22	0x3d1a9dab	0.03774802
23	0x3d8d56ae	0.069012985
24	0xbce33bff	-0.02773857
25	0x3d68aae7	0.05680361
26	0xbd13f448	-0.036121637
27	0x3ce0e87a	0.027454603
28	0x3da63afa	0.08116718
29	0xbcebc321	-0.028779568
30	0xbd02d321	-0.03193963
31	0x3d0af45c	0.033924446
32	0xbc0ae5d7	-0.00847765
33	0xbd197252	-0.03746254
34	0xbc067c61	-0.008208365
35	0x3d9d5118	0.07681483
36	0x3c8d288f	0.017231254
37	0x3c97279a	0.0184515
38	0xbd1fd9a7	-0.03902593
39	0xbd2f078c	-0.042731807
40	0x3d957e49	0.072994776
41	0x3d656eb1	0.056013767
42	0xbce6716f	-0.028130261
43	0xbc0fd263	-0.008778187
44	0x3d2855cf	0.04109746
45	0xbcf6d82c	-0.030132376
46	0x3dd6b3c6	0.10483508
47	0xbcbc011d	-0.02294975
48	0x3dbec1bf	0.09314298
49	0x3d473f52	0.04864437
50	0xbd0e43b0	-0.03473252
51	0x3ce554cb	0.027994534
52	0xbca3b116	-0.019981902
53	0xbc592729	-0.013253965
54	0xbca51aa2	-0.020154301
55	0xbc8136cb	-0.015773198
56	0xbc8c4815	-0.017124215
57	0xbc7f5ab3	-0.015585589
58	0xbd56199f	-0.052270528
59	0xbc94793a	-0.018124212
60	0xbb81b1fe	-0.003957986
61	0xbcbd2a77	-0.023091538
62	0xbd03769c	-0.032095537
63	0xbcea8d67	-0.028631879
64	0xbd00441e	-0.03131496
65	0xbd1382a2	-0.036013253
66	0xbcbe1189	-0.02320172
67	0xbceb908b	-0.028755447
68	0xbcaf29e5	-0.021382282
69	0xbccf46d9	-0.025302337
70	0xbcc64f26	-0.024207663
71	0x3be0ecb4	0.0068641547
72	0xbcc18efd	-0.023627752
73	0xbc579293	-0.013157505
74	0xbcdb806e	-0.026794638
75	0xbd036df1	-0.03208727
76	0xbcb060d6	-0.02153055
77	0xbce02c95	-0.027365008
78	0x3c224c46	0.00990588
79	0xbce0448c	-0.027376436
80	0x3d0bc2d6	0.034121357
81	0x3ce9024f	0.028443484
82	0x3d85e8d5	0.0653855
83	0xbc9e9c28	-0.01936157
84	0xbd8f4ca8	-0.06997043
85	0xbc1624d5	-0.009164055
86	0x3d3985ce	0.04529362
87	0xbcc7254e	-0.02430978
88	0xbd536099	-0.051605795
89	0xbcb1d4ac	-0.021707855
90	0x3d367e31	0.04455394
91	0xbd7eb437	-0.062183585
92	0x3d82f993	0.06395259
93	0xbbe5884e	-0.007004774
94	0xbd2a3391	-0.041553084
95	0xbc95f30d	-0.018304372
96	0x3dac38b5	0.084092535
97	0x3ba2cc75	0.004968221
98	0xbc8432b0	-0.016137451
99	0xbd626b60	-0.055278182
100	0xbcd247e4	-0.025669046
101	0xbd741009	-0.059585605
102	0xbc8276aa	-0.015925724
103	0xbdcc5f45	-0.09979109
104	0xbc2bbafc	-0.010481592
105	0xbc88e023	-0.01670844
106	0xbe250802	-0.16116336
107	0xbc4980b4	-0.012298752
108	0xbcaf0877	-0.021366341
109	0xbc52b2dc	-0.012860026
110	0xbac4e435	-0.0015021624
111	0x3e144340	0.14478779
112	0xbd443dd5	-0.04791053
113	0x3d54cccd	0.051953126
114	0x3e15b671	0.14620377
115	0xbd24991b	-0.040185075
116	0xbca157e6	-0.019695234
117	0x3d6c121b	0.057634454
118	0x3d4f334a	0.050586022
119	0x3d5fb99a	0.054620363
120	0xbb9ccca6	-0.004785138
121	0xbcd7b1c0	-0.026329875
122	0x3c8f530d	0.017495656
123	0xbc6b43ea	-0.014359454
124	0xbcf5b2af	-0.02999243
125	0xbc45573b	-0.012044723
126	0x3d96e4e8	0.07367879
127	0xbd9bf52f	-0.076151244
128	0xbcd01898	-0.025402352
129	0x3c3c7af4	0.011503924
130	0xbcda0e43	-0.026618129
131	0x3d5e7f5a	0.05432067
132	0x3d6495fa	0.05580709
133	0xbcdc030a	-0.026856918
134	0x3d1669f7	0.03672215
135	0x3cdb86a2	0.026797596
136	0xbd34bdc9	-0.044126306
137	0x3dd69adc	0.10478756
138	0xbd113a56	-0.035456024
139	0x3d0ee0a2	0.034882195
140	0xbcb0e729	-0.0215946
141	0xbd2e0f1c	-0.04249488
142	0x3b89fc01	0.0042109494
143	0xbc973e2f	-0.018462269
144	0x3d4d06f6	0.050055467
145	0x3c432cf0	0.011912569
146	0x3c96352d	0.018335903
147	0xbce891bc	-0.028389804
148	0xbc0d93c4	-0.008641187
149	0x3d8d850c	0.06910142
150	0xb903bf39	-0.0001256437
151	0x3bc5b5b8	0.0060336255
152	0x3d6c5c85	0.05770542
153	0xbcf35fdd	-0.029708797
154	0xbd157f95	-0.036498625
155	0xbcca9c9d	-0.024732882
156	0x3b33fdb3	0.002746445
157	0xbd086e07	-0.033308055
158	0xbd21370e	-0.039359145
159	0xbccaa940	-0.024738908
160	0x3ddc3428	0.107521355
161	0xbd197957	-0.037469234
162	0x3ba5a39a	0.005054903
163	0x3d3235bd	0.04350828
164	0x3d9262b8	0.07147735
165	0xbd11bb7a	-0.035579182
166	0xbc79bc1b	-0.015242602
167	0xbdcd4bb5	-0.100242056
168	0xbcde9949	-0.027172701
169	0x3cb7c393	0.022432124
170	0x3c940a40	0.018071294
171	0x3d98c1d4	0.07458845
172	0xbc9d45b6	-0.01919828
173	0xbd3a3bb6	-0.0454671
174	0x3c14f41a	0.0090914015
175	0x3af495bc	0.0018660347
176	0xbc9b823b	-0.018982997
177	0x3d6f779f	0.05846369
178	0xbc2d8cb2	-0.010592626
179	0x3cb0ccd3	0.021582043
180	0xbcded7a4	-0.027202435
181	0xbbb77dc2	-0.0055997083
182	0xbd08a5d5	-0.033361275
183	0xbcd46973	-0.025929188
184	0xbcdd05d6	-0.026980322
185	0x3d39a898	0.0453268
186	0xbd4ea3f3	-0.050449323
187	0x3daa7aea	0.08324225
188	0xbcfd44ac	-0.030916534
189	0xbcb75b5a	-0.022382427
190	0x3c2be7a6	0.010492241
191	0xbc559ac7	-0.01303739
192	0x3dd2abf6	0.10286705
193	0x3ef60c85	0.48056427
194	0x3d885cbf	0.06658315
195	0x3e18f01b	0.14935343
196	0x3e648c42	0.22319129
197	0x3de00978	0.10939306
198	0x3e20a68b	0.15688531
199	0x3ea59600	0.32341003
200	0x3ddbafc8	0.10726887
201	0x3e5ee85f	0.2176833
202	0x3d8b1bed	0.06792436
203	0x3d37092e	0.04468649
204	0x3e8f0185	0.27930847
205	0x3dbc4797	0.09193342
206	0x3de9d79a	0.11418076
207	0x3ecf30a2	0.4046679
208	0xbe1d4b30	-0.15360713
209	0x3d252815	0.04032143
210	0x3e966e94	0.2938124
211	0x3d9de930	0.077104926
212	0x3f114414	0.56744504
213	0x3e94b575	0.2904469
214	0xbde89b34	-0.11357728
215	0x3dbaee67	0.09127503
216	0x3f0b7867	0.54480594
217	0x3db20965	0.08693198
218	0x3e8828de	0.2659368
219	0x3da62087	0.08111673
220	0x3e610163	0.21973185
221	0x3e21e5db	0.15810339
222	0x3d86f44f	0.06589567
223	0x3cf3ea1c	0.029774718
224	0x3d9aefd8	0.07565278
225	0x3e1727c8	0.14761269
226	0x3b1679b7	0.0022960731
227	0x3e876822	0.26446635
228	0x3e47f0a7	0.19525395
229	0x3eb04e00	0.3443451
230	0x3e32a60c	0.17446154
231	0x3e19741d	0.149857
232	0x3dc695d1	0.09696544
233	0x3d6a2119	0.05716047
234	0x3e93ca9d	0.2886552
235	0x3f2b4268	0.668982
236	0x3e7d8e53	0.24761324
237	0x3e08d176	0.13361153
238	0x3da4ba5b	0.08043357
239	0x3ec95c42	0.393282
240	0x3dc421dd	0.095767714
241	0x3eaac888	0.33356118
242	0x3e4f31e7	0.2023388
243	0xbc08994c	-0.00833733
244	0x3ce24ec6	0.027625453
245	0x3d205a08	0.03914836
246	0x3d663831	0.056205932
247	0xbc98e6dd	-0.018664772
248	0x3d0fa9fc	0.03507422
249	0x3de8cd87	0.11367326
250	0x3df13611	0.117778905
251	0x3d1168c9	0.03550032
252	0xbd9bc768	-0.07606393
253	0x3ddac120	0.10681367
254	0x3daeff31	0.08544768
255	0x3ee61873	0.44940528

bias f4 [64]
0	0xbd16906c	-0.036758825
1	0xba023778	-0.0004967372
2	0xbd121094	-0.03566034
3	0x3d529247	0.051409032
4	0xbc6b645a	-0.014367187
5	0xbbd93110	-0.006628163
6	0xbcab26b4	-0.020892479
7	0xbcc414e4	-0.023935743
8	0x3d03b517	0.032155123
9	0xbd2d6258	-0.042330116
10	0x3dbd122f	0.09231984
11	0xbd1f3f29	-0.038878594
12	0x3bd72cd9	0.0065666256
13	0xbcc678ca	-0.024227519
14	0xbbaa9a4b	-0.0052063814
15	0x3d1e580f	0.038658198
16	0x3b9ad643	0.004725249
17	0xbb90c810	-0.0044183806
18	0xbd86c165	-0.06579856
19	0xbbc354bc	-0.005961029
20	0xbd0b785b	-0.034050327
21	0xbce25a71	-0.027631016
22	0x3d37b03d	0.04484581
23	0x3c01b131	0.007915781
24	0xbd46a183	-0.048493873
25	0x3d76e8e3	0.06028069
26	0x3e0b86c7	0.13625632
27	0xbcae7599	-0.02129631
28	0x3d0abc7f	0.03387117
29	0xbd45eac5	-0.048319597
30	0xbd1385c4	-0.03601624
31	0xbd6ec393	-0.058291983
32	0xbbc0f8af	-0.0058890204
33	0x3daba357	0.08380764
34	0xbd14fc34	-0.036373332
35	0x3d8f1648	0.06986672
36	0x3c98a9e4	0.018635698
37	0x3dafa449	0.08576257
38	0xbd2b1aa8	-0.04177347
39	0x3ddc925c	0.10770103
40	0xbb31ae2d	-0.0027111873
41	0x3d2680f6	0.04065033
42	0x3e1382cd	0.14405365
43	0x3d4b5d6d	0.049649645
44	0x3d8a70a6	0.06759767
45	0xbc2b7a48	-0.010466166
46	0xbd2f0542	-0.042729624
47	0xbd596c1e	-0.053081624
48	0xbcce20c9	-0.025162118
49	0x3cf67cdb	0.030088833
50	0x3d2fd7e6	0.042930506
51	0x3d41a95e	0.04728066
52	0xbce1b75c	-0.027553253
53	0x3cc4a879	0.024006115
54	0xbcefaf5b	-0.02925842
55	0xbcbc3484	-0.02297426
56	0x3d5eaa21	0.054361466
57	0xbc053031	-0.0081291655
58	0x3bcc77a0	0.0062398463
59	0x3c0324a6	0.008004343
60	0x3dc45878	0.095871866
61	0xbc1f373d	-0.00971776
62	0xbd25c745	-0.04047324
63	0xbc1d57b1	-0.009603427

weight f4 [5, 64]
0	0xbbe95323	-0.0071205064
1	0x3d775f7a	0.060393788
2	0xbbc311a1	-0.0059530293
3	0x3d7065d2	0.058690853
4	0xbc1b0913	-0.009462613
5	0x3da01f20	0.078184366
6	0xbd20b88e	-0.039238505
7	0x3dca4bce	0.0987774
8	0xbcb92500	-0.02260065
9	0xbcfec7d5	-0.031101147
10	0xbbc8dd3d	-0.0061298893
11	0xbe00a2f6	-0.12562165
12	0x3df3110e	0.11868487
13	0xbd3f1158	-0.0466474
14	0x3d1aebf2	0.03782267
15	0xbc8840b2	-0.016632412
16	0x3d93bfe0	0.072143316
17	0xbc24ec38	-0.010066085
18	0xbce81dc8	-0.028334513
19	0xbc51c4c7	-0.012803263
20	0xbae84b0a	-0.0017722559
21	0xbccfcaad	-0.025365198
22	0x3ded7076	0.11593716
23	0x3c91eb50	0.017812401
24	0x3bc9646c	0.0061460044
25	0x3d9dea19	0.07710666
26	0x3daecd67	0.08535271
27	0xbd11ae97	-0.035566892
28	0x3d7e2077	0.06204268
29	0xbc4050c5	-0.011738007
30	0xbca2ea92	-0.019887242
31	0xbc979b98	-0.01850681
32	0x3d3f4ad3	0.046702217
33	0xbbfc069f	-0.007691219
34	0xbca1740e	-0.01970866
35	0x3e84fe18	0.25975108
36	0xbcf5aacb	-0.029988667
37	0x3e0b143b	0.13581936
38	0xbc481d58	-0.012214027
39	0x3dae3c93	0.08507647
40	0x3dce5b7d	0.10076044
41	0xbd0f7fb5	-0.0350339
42	0xbc365dfd	-0.011130807
43	0xbc8c0de0	-0.01709646
44	0xb92acbf7	-0.00016288446
45	0x3cfe6f5d	0.031058962
46	0xbc82e394	-0.015977658
47	0x3e07a879	0.13247861
48	0xbdfdf61f	-0.124004595
49	0x3d515576	0.051106893
50	0x3dc3de0f	0.09563839
51	0xbc8db780	-0.017299414
52	0xbc715d50	-0.01473172
53	0x3df2f3fd	0.11862943
54	0xbd5483e9	-0.05188361
55	0xbc823da8	-0.01589854
56	0xbb986021	-0.0046501313
57	0x3dc403f4	0.095710665
58	0x3e9553e2	0.2916556
59	0x3e04cdad	0.12969084
60	0xbd105db4	-0.035245612
61	0xbd44f37d	-0.04808377
62	0xbc92a847	-0.017902507
63	0x3d20ea6d	0.039286066
64	0x3cf2ecf5	0.029654006
65	0x3d0d2340	0.034457445
66	0x3de80150	0.11328375
67	0x3c2e5432	0.010640191
68	0x3bc7d454	0.0060983095
69	0xbd112c72	-0.035442777
70	0xbb78da0e	-0.0037971768
71	0x3d55b40e	0.052173667
72	0xbc5219ca	-0.012823531
73	0x3d9bc345	0.07605604
74	0xbc962c92	-0.0183318
75	0x3e2b6802	0.16738895
76	0x3df5b39c	0.119971484
77	0xbc739f25	-0.014869486
78	0xbc8c2d76	-0.017111521
79	0x3cb7703e	0.022392388
80	0xbc243c8e	-0.010024203
81	0xbc7f96bc	-0.015599903
82	0xbca11bf6	-0.019666653
83	0x3b195325	0.0023395505
84	0x3d1b54c9	0.037922654
85	0xbca3385d	-0.019924337
86	0xb9b16d4d	-0.00033841506
87	0xbc4ebd39	-0.012618356
88	0xbb912df1	-0.0044305255
89	0x3e140856	0.14456305
90	0xbca691ef	-0.020333258
91	0xbca86444	-0.020555623
92	0x3dc6029b	0.09668466
93	0x3d57cfd3	0.05268843
94	0xbd262dfd	-0.0405712
95	0x3d187a84	0.037226215
96	0x3cc3a4b0	0.02388224
97	0xbca1d20f	-0.019753484
98	0xbc41f770	-0.011838779
99	0x3e501fdf	0.20324658
100	0xbc9c6699	-0.019091891
101	0x3d42c8be	0.047554724
102	0x3cf4995c	0.029858284
103	0xbb0beb45	-0.0021349948
104	0x3de62226	0.11236982
105	0x3cc5ac1b	0.024129918
106	0xbd3b143e	-0.0456736
107	0xbc98ac48	-0.018636838
108	0x3dcba1ab	0.09942945
109	0x3df9216d	0.121645786
110	0xbc902448	-0.017595425
111	0x3e4aaa04	0.19791418
112	0xbcd6fca7	-0.02624352
113	0xbca36da3	-0.01994974
114	0xba63947a	-0.00086814875
115	0x3c812a2d	0.015767181
116	0x3dc27998	0.094958484
117	0xbc0b5ad0	-0.008505538
118	0x3c759f69	0.01499162
119	0xbc9b7f12	-0.01898149
120	0xbcadc0cc	-0.021210097
121	0x3c2e83d4	0.010651547
122	0x3c42dbed	0.011893255
123	0x3e3b1b0c	0.18272036
124	0xbdb59aef	-0.08867442
125	0x3e10f8c8	0.14157403
126	0x3e3da6ca	0.18520656
127	0xbc6589a1	-0.014009864
128	0xbb03caf7	-0.002010999
129	0x3d345f72	0.044036336
130	0x3db39e4a	0.087704256
131	0xbc2e96ae	-0.010656042
132	0xbcd147c1	-0.02554691
133	0x3e0348aa	0.12820688
134	0x3d19131c	0.03737174
135	0x3da7b3ee	0.08188616
136	0xbbdd9c6d	-0.006763032
137	0x3de3e32a	0.111273125
138	0xbc1f3920	-0.0097182095
139	0x3e0fd25f	0.14045094
140	0xbc197e61	-0.00936851
141	0xbcbcbe61	-0.023039998
142	0xbca7b317	-0.020471139
143	0xbd0c1fb6	-0.03420993
144	0x3d94bb7e	0.07262324
145	0x3d78af0c	0.060713813
146	0x3901b49d	0.00012369682
147	0x3dd4a899	0.1038372
148	0x3d82e95a	0.063921645
149	0xbc8e6941	-0.017384173
150	0x3d8c6458	0.068550766
151	0x3ca14582	0.019686464
152	0x3ddabea9	0.10680897
153	0x3ce435ee	0.027857747
154	0xbca8e73a	-0.02061807
155	0x3cf1bd10	0.029509097
156	0xbc5d58bb	-0.0135099245
157	0xbc87b6e0	-0.016566694
158	0x3d66a9db	0.05631433
159	0x3d8b0582	0.0678816
160	0xbcd3203e	-0.02577221
161	0xbcb0330c	-0.021508716
162	0xbbc9c484	-0.0061574597
163	0x3e644406	0.22291574
164	0x3dcc7a43	0.09984257
165	0x3d9d2115	0.076723255
166	0xbcc792fd	-0.024362082
167	0xbb8de89a	-0.004330707
168	0x3c1141cd	0.008865786
169	0xbc6385bd	-0.013886866
170	0xbd434f48	-0.04768303
171	0x3d6a62dc	0.057223186
172	0xbca00492	-0.01953343
173	0xbc90dc2c	-0.017683111
174	0x3aa059ed	0.0012233831
175	0x3e9e6a82	0.30940634
176	0x3dac6350	0.0841738
177	0xbcaf53b6	-0.021402221
178	0xbc994314	-0.018708743
179	0x3de951ec	0.113925785
180	0x3bf78a80	0.0075543523
181	0x3cdeeb2f	0.027211754
182	0x3d4bc41a	0.049747564
183	0xbc9f15b8	-0.019419536
184	0xbd01d19b	-0.031694036
185	0x3dff6dbe	0.124721035
186	0x3df8efa0	0.1215508
187	0x3de18935	0.11012498
188	0xbdf5f436	-0.1200947
189	0x3d124a19	0.035715196
190	0xbbdcb085	-0.00673491
191	0x3d309413	0.043109965
192	0x3c6f8fc5	0.01462168
193	0x3e334fef	0.17510961
194	0x3c58191a	0.013189578
195	0x3cc7b253	0.024377024
196	0xbd1e18f5	-0.03859802
197	0x3e5c5436	0.21516499
198	0x3e03b78a	0.12862983
199	0xbd8433b5	-0.06455175
200	0x3d65892b	0.056039017
201	0xbd2a34e6	-0.041554354
202	0x3bdc0dbf	0.006715506
203	0xbdc831ab	-0.097750984
204	0x3de41085	0.11135963
205	0x3db0de29	0.08636124
206	0x3e0d4696	0.13796458
207	0x3d8404aa	0.06446202
208	0x3ce9e06d	0.028549397
209	0xbd2d00ee	-0.042237215
210	0xbb3c8175	-0.0028763686
211	0x3d4ff12c	0.05076711
212	0xbd904f85	-0.07046417
213	0x3d4b5c29	0.049648438
214	0xbccb6715	-0.024829427
215	0xbbcf66a1	-0.006329373
216	0xbd4b4c3e	-0.049633257
217	0x3e1ffd0c	0.15623873
218	0xbc2690ba	-0.010166341
219	0x3e14894f	0.14505504
220	0x3ce15187	0.027504696
221	0xbd7f499d	-0.062326062
222	0xbe7f9d82	-0.24962428
223	0xbc25e5ac	-0.010125559
224	0x3d231a4b	0.039819997
225	0xbcba1384	-0.022714384
226	0x3dc7ec9f	0.09761929
227	0x3e2dc1f8	0.16968524
228	0xbd3252f2	-0.043536134
229	0xbd45a660	-0.04825437
230	0xbd481bc5	-0.048854608
231	0xbbf6a5ab	-0.0075270734
232	0x3e1bd466	0.15217742
233	0xbd47c9a6	-0.04877629
234	0xbce988d1	-0.028507622
235	0x3d6a0d12	0.05714137
236	0xbd617c3a	-0.055050112
237	0x3da6ce6e	0.08144842
238	0xbd252ab1	-0.040323917
239	0xbd9fd405	-0.078041114
240	0xbe2da05f	-0.16955708
241	0x3cfc672a	0.030810911
242	0x3c2d1d94	0.010566134
243	0x3dd11c57	0.102104835
244	0xbc062962	-0.008188577
245	0x3df7f504	0.1210728
246	0xbcf6b1be	-0.030114051
247	0xbb07ca27	-0.0020719857
248	0xbb5e88e6	-0.003395611
249	0xbd41be85	-0.047300834
250	0x3deefcb6	0.116692945
251	0xbd564021	-0.05230725
252	0xbcff72e5	-0.031182716
253	0x3d944eed	0.072416164
254	0x3e8f8dd3	0.2803789
255	0x3d6ecd40	0.05830121

bias f4 [5]
0	0x3d0c13fb	0.034198742
1	0xbcd5f1cc	-0.026116274
2	0x3ca4de28	0.020125464
3	0x3d0daba2	0.03458751
4	0x3e0ac4f8	0.135517
