digital_twin/beluga/pinn_1-1/model.pt (torch, 42045 bytes, 8 tensors)

weight f4 [64, 2]
-0.019401966 -0.015236265 -0.018185066 -0.01727669 -0.026307834 0.26117885 -0.016859379 -0.0022298924
0.020642119 -0.035568945 0.023866042 0.023290673 0.058910333 0.91786313 -0.009084099 0.23549744
-0.021480715 0.21706992 -0.004171279 0.37496844 0.006073054 0.009753206 -0.008211992 0.1975743
0.052276865 0.5398141 -0.018207528 -0.054737013 0.022145607 -0.031240642 0.06983443 -0.09375593
0.0190349 -0.022186507 0.053106844 0.15276124 0.021802362 -0.026149988 0.0049030515 0.010512948
-0.017463973 -0.019859523 0.059722204 0.0973206 -0.010284783 0.37653822 -0.01838331 -0.015024257
0.15905878 0.470014 -0.0017326549 0.57026416 0.048274692 0.23925954 0.06618314 -0.04568784
-0.01816058 -0.006474097 -0.010155365 -0.016840784 -0.007548111 0.52737933 0.004067278 0.0030262016
-0.013840039 -0.061695326 0.005279422 0.011310734 -0.0077730203 -0.050327033 -0.01782564 -0.0131839
0.0012491591 0.49948657 0.029955214 -0.02851253 -0.01576202 0.026979003 0.005554083 0.008000425
-0.05113984 0.65632296 -0.016517207 -0.021724962 -0.0020270038 0.6741781 0.021068 0.004090712
-0.032837406 0.28774595 0.045254007 0.17795405 -0.012641115 -0.0064531052 0.014808735 -0.015225756
-0.019337071 0.38146102 0.019322023 0.0042633717 0.049251284 0.5023615 -0.015634893 -0.04369235
0.050018154 0.87311095 0.004916376 0.009589961 -0.0014358677 0.016369473 -0.0018983491 -0.04339407
-0.016429847 0.0039445087 0.063755184 1.0816941 -0.018061182 -0.014537223 0.0056015854 0.014540081
-0.024619952 0.20095545 0.13384944 0.02237333 -0.017026583 0.1617279 -0.008222919 -0.022970343
00000000: dff0 9ebc 87a1 79bc d9f8 94bc d887 8dbc
00000010: 8783 d7bc 3cb9 853e ae1c 8abc 6323 12bb
00000020: a919 a93c beb0 11bd b882 c33c 15cc be3c
00000030: f64b 713d 14f9 6a3f 79d5 14bc 3e26 713e
00000040: 53f8 afbc 9447 5e3e 39af 88bb ddfb bf3e
00000050: 7800 c73b e9cb 1f3c 978b 06bc eb50 4a3e
00000060: 4420 563d 4231 0a3f f427 95bc eb33 60bd
00000070: b46a b53c 60ec ffbc 5b05 8f3d 1c03 c0bd
00000080: 14ef 9b3c 7ac0 b5bc 9086 593d 716d 1c3e
00000090: de9a b23c 8038 d6bc c7a9 a03b 803e 2c3c
000000a0: 9b10 8fbc 70b0 a2bc 459f 743d 0650 c73d
000000b0: 8281 28bc 9ec9 c03e 9898 96bc 4d28 76bc
000000c0: 4ee0 223e ada5 f03e 401a e3ba d5fc 113f
000000d0: afbb 453d 7400 753e 078b 873d 2c23 3bbd
000000e0: 7fc5 94bc a924 d4bb b062 26bc aff5 89bc
000000f0: 2556 f7bb 5502 073f cd46 853b 3d53 463b
00000100: 55c1 62bc 3db4 7cbd 00ff ac3b a850 393c
00000110: d2b4 febb b823 4ebd 1407 92bc 4901 58bc
00000120: d3ba a33a b4bc ff3e a364 f53c 1c93 e9bc
00000130: 5a1f 81bc 1203 dd3c 06ff b53b 3714 033c
00000140: 0278 51bd c804 283f 184f 87bc 8cf8 b1bc
00000150: 7bd7 04bb f096 2c3f cc96 ac3c 610b 863b
00000160: 8480 06bd 7053 933e 445c 393d 9639 363e
00000170: ae1c 4fbc 9274 d3bb 56a0 723c 7375 79bc
00000180: c768 9ebc dc4e c33e 3849 9e3c c1b3 8b3b
00000190: b7bb 493d c39a 003f bf14 80bc c0f6 32bd
000001a0: d6df 4c3d 3384 5f3f 8d19 a13b 361f 1d3c
000001b0: ba33 bcba 4619 863c 07d2 f8ba fbbd 31bd
000001c0: e397 86bc f040 813b 1492 823d f474 8a3f
000001d0: 0bf5 93bc 882d 6ebc 818d b73b 8539 6e3c
000001e0: c8af c9bc 44c7 4d3e d40f 093e 4648 b73c
000001f0: 557b 8bbc 009c 253e 6cb9 06bc 4d2c bcbc

bias f4 [64]
0.51289904 -0.036794417 0.35948485 0.047281366 0.1286834 -0.061956443 0.35821387 0.46549508
0.33982566 -0.039902605 0.044372357 0.5546858 0.3977722 0.42363444 -0.07230789 -0.089935064
0.2952524 -0.030109156 -0.06068204 0.6425211 0.22661673 -0.10352795 -0.020873474 0.5550319
0.312953 0.45603207 -0.0020200866 0.15638511 0.097582616 0.11622618 0.8828151 0.35043797
0.49631715 0.2654717 0.3123667 -0.030223843 -0.19052622 -0.043851778 -0.033201687 -0.046736043
0.40420303 0.19834577 0.034504667 -0.05438801 0.75132006 0.62182623 0.32841212 0.6949207
-0.021290127 -0.062045895 0.5285865 -0.03834083 0.16478187 0.51637995 0.006085935 0.35441187
-0.02323314 0.2313798 0.06444686 -0.04338793 0.6980506 -0.129422 0.18987802 -0.023364855
00000000: 5a4d 033f beb5 16bd 660e b83e 1baa 413d
00000010: 95c5 033e 0ac6 7dbd cf67 b73e 5f55 ee3e
00000020: a1fd ad3e ea70 23bd cabf 353d e3ff 0d3f
00000030: cca8 cb3e 9de6 d83e 2916 94bd e02f b8bd
00000040: 532b 973e 7aa7 f6bc bb8d 78bd 437c 243f
00000050: 370e 683e 7606 d4bd d9fe aabc 9216 0e3f
00000060: 603b a03e 097d e93e 6e63 04bb 6b23 203e
00000070: 65d9 c73d fe07 ee3d 2c00 623f 9b6c b33e
00000080: 481d fe3e e8eb 873e 87ee 9f3e fe97 f7bc
00000090: 4e19 43be ec9d 33bd 7efe 07bd 4b6e 3fbd
000000a0: b3f3 ce3e 271b 4b3e c454 0d3d f6c5 5ebd
000000b0: 8356 403f 0130 1f3f a225 a83e 53e6 313f
000000c0: a268 aebc d623 7ebd 7251 073f 460b 1dbd
000000d0: 94bc 283e 7a31 043f 866c c73b 7975 b53e
000000e0: 6d53 bebc d4ee 6c3e b7fc 833d 8bb7 31bd
000000f0: 72b3 323f 3387 04be 626f 423e a767 bfbc

weight f4 [64, 64]
-0.016391024 0.02507746 0.008554329 0.11018761 0.008087288 -0.021757198 -0.026395163 0.07564547
-0.039996337 0.10221724 -0.029230889 0.06827678 0.098967284 0.06500454 0.052997906 0.045981362
-0.023450367 -0.022358667 0.024879992 -0.026042495 0.029111667 0.051044375 0.028138105 -0.019375145
-0.0264382 -0.009479152 -0.02578953 0.0106643215 0.022085955 0.018798355 -0.011285727 0.05736851
-0.02315988 0.08293288 0.031620774 0.149553 -0.025479307 -0.017520737 0.06095483 -0.025857577
0.058845427 0.07380038 0.034882493 -0.017468276 0.04827647 -0.02532693 0.0904194 -0.026523914
0.009228636 -0.022105504 -0.025224732 0.02341167 -0.026411908 -0.026703546 0.02369567 0.056369603
0.03431723 -0.026410367 0.08464212 -0.026975667 0.042313382 0.11247789 -0.04255276 0.040058807
0.055758107 0.026253272 -0.049562715 0.08415273 0.036275294 -0.020623084 -0.013897902 -0.021843877
-0.022591135 0.009135425 -0.0004324647 -0.03697886 -0.013947275 -0.0063046752 -0.0320746 0.078009665
0.01318793 0.09820299 0.08171528 0.0035919128 0.0069047543 0.0622793 -0.06977623 0.08490229
-0.013577684 0.0976864 0.00372649 -0.020212894 0.014652091 0.11938065 -0.03545342 0.023324348
0.04347441 -0.0237719 0.0034779925 0.025901074 -0.014036443 0.047905903 0.014965166 -0.03836806
-0.018547323 0.033800904 0.085785404 0.06203978 -0.024793867 0.0029889052 0.113235675 0.04190427
-0.00518838 0.04716864 0.043176513 0.026370473 0.037184983 -0.009067277 0.012694168 -0.011605493
0.14407277 0.02403671 0.028001662 0.0416297 -0.01729636 0.04494129 -0.043520603 0.07690561
0.009645338 0.1155637 0.06429795 0.0027368735 0.03976806 -0.021685075 0.07295468 0.07753024
-0.022305261 0.06725657 0.03007403 0.11807847 -0.00031896424 0.0006570171 -0.029584186 -0.07277935
0.10021331 0.10623521 -0.03545025 0.016807377 0.099751934 0.0113667315 -0.10111576 0.07460637
0.04310901 -0.013850096 -0.012122342 -0.037137497 -0.011048646 0.004724056 -0.011759113 0.0633646
0.017333746 -0.021591071 -0.00500655 0.044248134 -0.022373 -0.011890622 0.009296659 -0.019038469
-0.08659781 0.00018744954 -0.016653577 0.00913351 0.03495451 -0.0081142 -0.014907078 -0.011154038
0.0070248204 0.011311593 0.09811675 0.09110249 0.113409415 -0.015717909 0.0152551215 -0.14406355
0.06335147 0.046330765 0.0022023714 0.06628783 -0.024917027 -0.01677277 -0.028655143 0.0036105933
0.06552546 0.122661136 0.011949794 0.06406757 -0.01484003 -0.003663577 -0.000106791864 0.061864123
0.022926513 -0.07399047 -0.018064309 -0.001386916 -0.019609995 -0.040511414 -0.009981939 0.02662868
0.011022831 -0.010944674 0.014450033 0.0088582095 0.028077887 0.07639821 0.022419007 0.0023638427
-0.021406429 -0.035924356 -0.023093749 0.108248435 0.009996424 -0.0029018393 -0.0023252026 -0.022373363
-0.045620635 -0.018469669 0.030979192 0.016179519 -0.03619965 0.04171194 0.07725868 -0.0013246031
-0.017384388 0.0071009854 -0.036010355 0.08292953 -0.042952526 -0.025235523 0.08172432 -0.03135036
-0.028733987 0.106781 -0.01995254 0.01353183 0.085205264 -0.025996791 0.090087816 0.04771422
0.040733367 -0.035466764 0.0051952475 -0.0017701816 -0.026097737 0.015403551 -0.010724723 0.0134350415
00000000: 7846 86bc 3f6f cd3c 7527 0c3c 0baa e13d
00000010: 8b80 043c 273c b2bc ab3a d8bc 03ec 9a3d
00000020: 33d3 23bd 4657 d13d 9e75 efbc b2d4 8b3d
00000030: 5caf ca3d 1a21 853d 5514 593d f456 3c3d
00000040: fc1a c0bc 8629 b7bc 20d1 cb3c 1257 d5bc
00000050: 977b ee3c e813 513d e281 e63c a0b8 9ebc
00000060: ed94 d8bc 724e 1bbc 9044 d3bc 68b9 2e3c
00000070: 9bed b43c 02ff 993c c5e7 38bc 3efb 6a3d
00000080: cab9 bdbc b7d8 a93d c984 013d 6c24 193e
00000090: fbb9 d0bc a687 8fbc c6ab 793d 45d3 d3bc
000000a0: e707 713d a724 973d f2e0 0e3d a119 8fbc
000000b0: 8cbd 453d 6c7a cfbc ce2d b93d ae48 d9bc
000000c0: b433 173c 9a16 b5bc 19a4 cebc d5c9 bf3c
000000d0: c95d d8bc 65c1 dabc 6c1d c23c d0e3 663d
000000e0: 3990 0c3d 8e5a d8bc d958 ad3d 13fc dcbc
000000f0: cc50 2d3d cf5a e63d ce4b 2ebd b414 243d
00000100: 9d62 643d 1a11 d73c 4602 4bbd 4458 ac3d
00000110: 6795 143d bef1 a8bc 07b4 63bc eef1 b2bc
00000120: 0b11 b9bc c0ac 153c 6ebc e2b9 2577 17bd
00000130: 1c83 64bc 7397 cebb a860 03bd 88c3 9f3d
00000140: 3012 583c a61e c93d 575a a73d 4c66 6b3b
00000150: 4741 e23b 9418 7f3d d7e6 8ebd 40e1 ad3d
00000160: ef74 5ebc cf0f c83d 2138 743b 8395 a5bc
00000170: 530f 703c d87d f43d 9b37 11bd b412 bf3c
00000180: 3912 323d 4abd c2bc 08ef 633b 7d2e d43c
00000190: 1cf9 65bc fb38 443d 7530 753c d427 1dbd
000001a0: 8ef0 97bc d172 0a3d 42b0 af3d 6d1d 7e3d
000001b0: 821c cbbc 82e1 433b 1be8 e73d d0a3 2b3d
000001c0: 4903 aabb e733 413d dbd9 303d e406 d83c
000001d0: 484f 183d eb8e 14bc 33fb 4f3c f724 3ebc
000001e0: d087 133e a2e8 c43c be63 e53c e883 2a3d
000001f0: 19b1 8dbc 5c14 383d a942 32bd b080 9d3d
00000200: 7b07 1e3c a9ac ec3d a5ae 833d 1e5d 333b
00000210: d5e3 223d e6a4 b1bc 4369 953d 2dc8 9e3d
00000220: 86b9 b6bc d0bd 893d d05d f63c 20d3 f13d
00000230: a83a a7b9 ac3b 2c3a 895a f2bc 570d 95bd
00000240: a33c cd3d d991 d93d 4834 11bd a0af 893c
00000250: be4a cc3d 873b 3a3c c815 cfbd 39cb 983d
00000260: 1393 303d 83eb 62bc ca9c 46bc 7d1d 18bd
00000270: 6105 35bc 41cc 9a3b 4ba9 40bc 4dc5 813d
00000280: 80ff 8d3c c2df b0bc fc0d a4bb 883d 353d
00000290: 9547 b7bc e2d0 42bc 0451 183c 90f6 9bbc
000002a0: 315a b1bd 1a8e 4439 156d 88bc b8a4 153c
000002b0: 762c 0f3d 6cf1 04bc d13c 74bc 6dbf 36bc
000002c0: 7730 e63b 4354 393c 6ff1 c83d f193 ba3d
000002d0: 3243 e83d d8c2 80bc 9ef0 793c 6585 13be
000002e0: 6abe 813d 54c5 3d3d a955 103b eac1 873d
000002f0: cb1e ccbc 0c67 89bc 31be eabc b49f 6c3b
00000300: 3632 863d c335 fb3d 12c9 433c dc35 833d
00000310: 9923 73bc 9f18 70bb 72f5 dfb8 3c65 7d3d
00000320: 62d0 bb3c 5188 97bd 9afb 93bc 2ec9 b5ba
00000330: 24a5 a0bc 4cef 25bd 498b 23bc 6424 da3c
00000340: 1b99 343c 4a51 33bc d5bf 6c3c 0622 113c
00000350: 9903 e63c aa76 9c3d 11a8 b73c b3ea 1a3b
00000360: 895c afbc 6b25 13bd 1a2f bdbc 5bb1 dd3d
00000370: 0bc8 233c c92c 3ebb 6d62 18bb 5848 b7bc
00000380: b4dc 3abd b44d 97bc 13c8 fd3c e98a 843c
00000390: 1646 14bd 24da 2a3d cc39 9e3d 4e9e adba
000003a0: b469 8ebc 62af e83b 987f 13bd f5d6 a93d
000003b0: fdee 2fbd baba cebc 155f a73d 3c69 00bd
000003c0: 8a63 ebbc ffaf da3d 8273 a3bc 9cb4 5d3c
000003d0: 1980 ae3d 39f7 d4bc f67f b83d fc6f 433d
000003e0: 08d8 263d 9945 11bd e53c aa3b 7005 e8ba
000003f0: ecca d5bc 2d5f 7c3c c0b6 2fbc a61e 5c3c

bias f4 [64]
-0.02635837 -0.013366097 0.061167702 -0.036540654 0.02154226 0.010855351 -0.01327996 -0.026073331
0.0021612956 0.031290457 -0.012299679 -0.020815045 -0.015354606 0.101279795 0.0098329475 -0.015940817
0.0056242365 -0.03495641 0.022688767 -0.022096995 0.024426768 0.026252272 -0.019682338 0.051751524
0.04228556 0.0770081 0.059732463 -0.03278727 -0.0157998 -0.008054454 0.019501388 0.03311714
-0.027697355 0.026087306 0.09015358 0.09588702 -0.009950156 -0.029933926 0.015424028 0.017481115
-0.023805412 -0.016847067 0.08372463 -0.022062588 -0.01695936 0.0041784337 0.036247786 0.04717652
-0.009357909 0.07665376 -0.019200893 -0.020122834 -0.034485877 0.054287195 0.0013852512 -0.035951316
-0.0020737073 -0.024868567 0.044078283 -0.0147228325 -0.037534673 -0.016701996 -0.021997232 -0.02964616
00000000: 82ed d7bc 79fd 5abc fc8a 7a3d a7ab 15bd
00000010: 6579 b03c a4da 313c 3094 59bc bd97 d5bc
00000020: 86a4 0d3b 6c2a 003d 9884 49bc 5084 aabc
00000030: e391 7bbc c86b cf3d 5f1a 213c 5196 82bc
00000040: 844b b83b 742e 0fbd cbdd b93c c204 b5bc
00000050: a51a c83c 010f d73c db3c a1bc 68f9 533d
00000060: a033 2d3d 6cb6 9d3d 07aa 743d f24b 06bd
00000070: 956e 81bc d4f6 03bc 60c1 9f3c d7a5 073d
00000080: 90e5 e2bc 0cb5 d53c 71a2 b83d 6a60 c43d
00000090: fb05 23bc fe37 f5bc 10b5 7c3c 8e34 8f3c
000000a0: 9103 c3bc dc02 8abc d277 ab3d 9abc b4bc
000000b0: 5bee 8abc 3eeb 883b 8f78 143d 2b3c 413d
000000c0: ea51 19bc a6fc 9c3d 314b 9dbc a4d8 a4bc
000000d0: 1041 0dbd 405c 5e3d 5191 b53a b041 13bd
000000e0: 09e7 07bb 2ab9 cbbc 6e8b 343d 0938 71bc
000000f0: f5bd 19bd a0d2 88bc 8a33 b4bc 81dc f2bc

weight f4 [64, 64]
-0.013974827 0.06545938 -0.024738047 -0.013122884 -0.027913582 0.008894698 -0.034059502 0.09261871
-0.03837179 -0.026945936 -0.028773628 0.015292315 0.0024486957 -0.04299512 0.03372084 0.11402529
0.00039097056 0.046026494 0.04742275 0.030883944 -0.0022097211 -0.0036505642 0.0148386825 0.06369243
-0.012125593 0.059255596 -0.035031527 0.01286769 0.06850749 -0.029275125 -0.031063218 0.03345715
-0.0051328647 -0.03686022 -0.0103500895 0.07587778 0.01805143 0.014883213 -0.032401968 -0.03146103
0.07098723 0.041316833 -0.022526538 -0.010978879 0.039991204 -0.034069195 0.102834105 -0.024176184
0.10225469 0.04274443 -0.046709586 0.024640758 -0.016537381 -0.019643951 -0.020151393 -0.008840893
-0.01812649 -0.016812166 -0.043406453 -0.010850264 0.0002687485 -0.023294704 -0.025368085 -0.021253195
-0.028170148 -0.012808787 -0.022506475 -0.023445906 -0.009373438 -0.022529488 -0.018753387 -0.046016734
-0.024478223 -0.009609726 -0.02484519 -0.026031194 -0.019443303 -0.01957105 0.040233385 0.010347917
0.020099392 0.034208767 0.10446496 -0.023918932 -0.023532659 -0.0008745069 0.020135352 -0.0046469364
-0.024252964 -0.025496947 0.05240655 -0.032694094 0.040951844 -0.004178761 -0.025975581 -0.020038705
0.07471565 0.015352416 -0.022552539 -0.020270571 -0.024004733 -0.027462106 -0.012611517 -0.06462254
-0.010266444 -0.023713466 -0.0304852 -0.0034043808 -0.017003132 -0.0034562536 -0.004698564 0.08185652
-0.018895252 0.05565743 0.100044034 -0.0345943 -0.015915368 0.047749735 0.054088872 0.048161972
-0.003924441 -0.01899051 0.046652984 -0.02120076 -0.02653079 -0.010165942 0.0852746 -0.017515035
-0.023255574 0.031678326 -0.032498688 0.0526807 0.057216134 -0.022893202 0.03701856 0.055182304
-0.04122604 0.09693572 -0.03263568 0.04166207 -0.020186096 -0.03837361 0.006881782 -0.002635452
0.051881153 0.012459518 0.0326568 -0.024316793 -0.0013338891 0.06797476 -0.010936663 0.0053523984
0.07867601 -0.030913113 -0.033302553 -0.0048967022 -0.009679087 -0.03156005 -0.034283612 -0.027247343
0.10381191 -0.032241892 0.0017904678 0.04778016 0.07328465 -0.027433384 -0.010408542 -0.079827726
-0.02740482 0.019981673 0.082596965 0.071484335 -0.015014906 -0.044401746 0.011664476 -0.004580367
-0.0127341645 0.055352215 -0.03057338 0.026143273 -0.019776728 -0.011162064 -0.030478053 -0.021121547
-0.025234364 0.047729906 -0.046203595 0.08082305 -0.012666248 -0.020136746 0.010166924 -0.02129175
0.08796326 0.24158603 0.060448565 0.14333887 0.068145454 0.09470196 0.117320396 0.1809584
0.10707193 0.1717297 0.061245494 -0.005049663 0.21377207 0.06321269 0.018606447 0.18673937
-0.10911298 0.043616164 0.09606663 0.05006184 0.17595217 0.16944034 -0.046516154 0.086726904
0.23108071 0.07485534 0.22453856 0.0168058 0.055807766 0.11169861 0.024889141 0.024781803
0.08105225 0.10078845 -0.0024721632 0.065879464 0.17453833 0.100011915 0.06815016 0.04935833
0.08017552 0.009045983 -0.031288464 0.34092382 0.21085243 0.092265815 0.04344463 0.16663866
0.046827633 0.22154576 0.18203172 -0.10928014 0.0074588517 0.030265538 0.046811257 -0.02523798
0.016984278 0.11332787 0.083232835 0.020987408 -0.063602485 0.07930748 0.053842492 0.1112738
00000000: acf6 64bc 910f 863d 72a7 cabc 5d01 57bc
00000010: 06ab e4bc 11bb 113c fa81 0bbd e1ae bd3d
00000020: bd2b 1dbd b9bd dcbc acb6 ebbc 9e8c 7a3c
00000030: 4c7a 203b a71b 30bd dd1e 0a3d 1786 e93d
00000040: 2efb cc39 4786 3c3d 5c3e 423d 5300 fd3c
00000050: f8d0 10bb 4e3e 6fbb f21d 733c 2d71 823d
00000060: 6caa 46bc ffb5 723d 387d 0fbd 01d3 523c
00000070: a84d 8c3d 63d2 efbc 4a78 febc 5d0a 093d
00000080: 9731 a8bb befa 16bd 6c93 29bc cf65 9b3d
00000090: 98e0 933c b8d8 733c edb7 04bd 48dd 00bd
000000a0: c161 913d d73b 293d 9389 b8bc c2e0 33bc
000000b0: d1cd 233d 248c 0bbd b09a d23d 220d c6bc
000000c0: e86a d13d c914 2f3d 8d52 3fbd 6adb c93c
000000d0: 6779 87bc 5aec a0bc 8914 a5bc 65d9 10bc
000000e0: 017e 94bc abb9 89bc f7ca 31bd 4ec5 31bc
000000f0: d0e6 8c39 89d4 bebc bbd0 cfbc 2e1b aebc
00000100: 15c5 e6bc f2db 51bc 805f b8bc a111 c0bc
00000110: 0c93 19bc c38f b8bc b4a0 99bc 0b7c 3cbd
00000120: 8e86 c8bc 1d72 1dbc 2488 cbbc 5f3f d5bc
00000130: 9047 9fbc 7753 a0bc c3cb 243d 4f8a 293c
00000140: 7ba7 a43c 7e1e 0c3d baf1 d53d a3f1 c3bc
00000150: 90c7 c0bc 2a3f 65ba e5f2 a43c 5445 98bb
00000160: 27ae c6bc f9de d0bc 40a8 563d 3eea 05bd
00000170: 1fbd 273d fded 88bb beca d4bc 3628 a4bc
00000180: 8504 993d b388 7b3c 1ac0 b8bc 780e a6bc
00000190: 93a5 c4bc 36f8 e0bc 89a0 4ebc d258 84bd
000001a0: 9634 28bc be42 c2bc 19bc f9bc 081c 5fbb
000001b0: 274a 8bbc 5082 62bb 69f6 99bb 64a4 a73d
000001c0: 37ca 9abc 0cf9 633d e3e3 cc3d c1b2 0dbd
000001d0: f260 82bc 3a95 433d 4b8c 5d3d 7d45 453d
000001e0: 9998 80bb fc91 9bbc 3317 3f3d 37ad adbc
000001f0: 1957 d9bc 0d8f 26bc 73a4 ae3d b17b 8fbc
00000200: 7982 bebc 22c1 013d 581d 05bd b8c7 573d
00000210: 775b 6a3d 868a bbbc c6a0 173d d706 623d
00000220: a3dc 28bd 3c86 c63d feac 05bd d9a5 2a3d
00000230: 505d a5bc a52d 1dbd 9280 e13b 8cb7 2cbb
00000240: 5581 543d 0223 4c3c 23c3 053d 0334 c7bc
00000250: e4d5 aeba 5a36 8b3d b02f 33bc 2c63 af3b
00000260: e320 a13d 7f3d fdbc 4268 08bd 8474 a0bb
00000270: 0995 1ebc 1c45 01bd f96c 0cbd d235 dfbc
00000280: 579b d43d 1310 04bd 21ae ea3a 21b5 433d
00000290: 4316 963d fabb e0bc 9788 2abc b87c a3bd
000002a0: 1380 e0bc 9bb0 a33c 9928 a93d 6166 923d
000002b0: 1501 76bc 9bde 35bd 5c1c 3f3c e716 96bb
000002c0: f5a2 50bc 01b9 623d 0675 fabc 6b2a d63c
000002d0: ce02 a2bc 17e1 36bc 1cad f9bc 1807 adbc
000002e0: 4cb8 cebc 6f80 433d fb3f 3dbd 8e86 a53d
000002f0: 1886 4fbc d1f5 a4bc 2c93 263c 096c aebc
00000300: 1526 b43d 5462 773e ea98 773d 6dc7 123e
00000310: d88f 8b3d 1af3 c13d ad45 f03d 294d 393e
00000320: 8748 db3d e9d9 2f3e 8edc 7a3d a577 a5bb
00000330: 11e7 5a3e a875 813d 8c6c 983c 9b38 3f3e
00000340: a076 dfbd dda6 323d 95be c43d a50d 4d3d
00000350: ce2c 343e c581 2d3e b987 3ebd e09d b13d
00000360: 6ca0 6c3e c24d 993d 70ed 653e 51ac 893c
00000370: af96 643d 3ec2 e43d 50e4 cb3c 3503 cb3c
00000380: b9fe a53d 2d6a ce3d 0404 22bb d0eb 863d
00000390: 2dba 323e 0cd3 cc3d 5092 8b3d f62b 4a3d
000003a0: 1033 a43d 9a35 143c 5528 00bd 918d ae3e
000003b0: b3e9 573e dcf5 bc3d fff2 313d 53a3 2a3e
000003c0: 55ce 3f3d e4dc 623e 8666 3a3e 44ce dfbd
000003d0: 6269 f43b 6fef f73c 29bd 3f3d e1bf cebc
000003e0: 9d22 8b3c 7118 e83d fa75 aa3d c9ed ab3c
000003f0: 0542 82bd f66b a23d f289 5c3d 85e3 e33d

bias f4 [64]
-0.035217453 -0.0040329196 -0.03549011 0.049388528 -0.01599546 -0.008672127 -0.02167757 -0.025105238
0.034749847 -0.041186392 0.091185026 -0.036552448 0.00237241 -0.024447849 -0.008048541 0.038101826
0.0036012048 -0.005600128 -0.061307766 -0.0042147003 -0.029405659 -0.028926225 0.044670817 0.0060859467
-0.046502855 0.058816753 0.13173504 -0.023270173 0.03194993 -0.047695663 -0.03011819 -0.05661799
-0.007928716 0.07910143 -0.03633484 0.067853175 0.021948105 0.08584484 -0.04018426 0.106927216
-0.007054058 0.041151237 0.14391737 0.051643886 0.068549104 -0.0116163315 -0.041450407 -0.054080114
-0.022020757 0.035922654 0.044208746 0.05156064 -0.027714536 0.021735432 -0.028492324 -0.024213292
0.05925431 -0.0085400855 0.0049726255 0.0068273228 0.09720072 -0.009475203 -0.041519 -0.012446543
00000000: 2d40 10bd 9526 84bb 145e 11bd a04b 4a3d
00000010: e908 83bc 8915 0ebc 2995 b1bc 80a9 cdbc
00000020: db55 0e3d 10b3 28bd 37bf ba3d 05b8 15bd
00000030: 6f7a 1b3b db46 c8bc 07de 03bc a910 1c3d
00000040: 3102 6c3b 4781 b7bb da1d 7bbd 781b 8abb
00000050: 23e4 f0bc b1f6 ecbc bff8 363d 9f6c c73b
00000060: c779 3ebd d6e9 703d 8de5 063e 17a1 bebc
00000070: eedd 023d 875c 43bd 6cba f6bc 44e8 67bd
00000080: 72e7 01bc eeff a13d d7d3 14bd 9bf6 8a3d
00000090: 83cc b33c 6bcf af3d 4098 24bd a8fc da3d
000000a0: ba25 e7bb 338e 283d 135f 133e 8a88 533d
000000b0: 7963 8c3d 6d52 3ebc e7c7 29bd 1c83 5dbd
000000c0: e064 b4bc a223 133d 3b14 353d 4031 533d
000000d0: 9809 e3bc 810e b23c bc68 e9bc f45a c6bc
000000e0: a6b4 723d b7eb 0bbc 68f1 a23b bcb7 df3b
000000f0: 2c11 c73d e23d 1bbc d40f 2abd 96ec 4bbc

weight f4 [5, 64]
-0.006057787 0.06503506 -0.0030797655 0.034376483 -0.010762906 0.10296726 -0.030637933 0.108362295
-0.02207943 -0.030168869 -0.002133231 -0.11902039 0.122892 -0.046736024 0.04030256 -0.016495371
0.08135263 -0.00892114 -0.028281558 -0.0051787286 -0.0014326648 -0.024720108 0.124218665 0.019683272
0.0046266145 0.08600117 0.08453824 -0.03342518 0.06297661 -0.0114914505 -0.017018154 -0.016042786
0.052832086 -0.007329026 -0.020130979 0.26825213 -0.028372077 0.13630775 -0.012756678 0.08925719
0.11366583 -0.07561476 -0.017206065 -0.016501574 0.0040013115 0.03560113 -0.015918206 0.16443066
-0.10908295 0.03935784 0.0819405 -0.0011761446 -0.012688611 0.12682442 -0.028492771 -0.015276981
-0.005080666 0.10187157 0.31240407 0.13192627 -0.043815322 0.033559404 -0.015575394 0.040509015
0.033461727 0.031202441 0.11199714 -0.02373359 0.0051009767 -0.06099687 0.00019674325 0.050703276
-0.010399053 0.082137644 -0.018890958 0.17582412 0.11542754 -0.012901233 -0.021923374 0.02374584
-0.0098216515 -0.016443567 -0.018427758 -0.004581198 0.04216155 -0.018179242 -0.0041572195 -0.013841172
-0.004150696 0.15108028 -0.021991218 -0.018419936 0.09893743 0.054296557 -0.009938767 0.038807534
0.0053826887 -0.018691912 -0.010584073 0.18987028 -0.01567963 0.04932242 0.030529775 -0.024354303
0.118710235 0.044108044 -0.045539845 -0.018515704 0.10301975 0.12565951 -0.018050883 0.20677213
-0.022607828 -0.022586258 -0.016209159 0.017862627 0.09302654 -0.015649967 0.0056763 -0.019141205
-0.02431615 0.013641956 -0.018693974 0.17037427 -0.08748168 0.13733111 0.18529533 -0.016451985
-0.0044500967 0.04467676 0.08649745 -0.029765714 -0.025026424 0.117976874 0.035802238 0.08878604
-0.005571805 0.10882514 -0.009899291 0.13625164 -0.009135462 -0.025805062 -0.020464255 -0.03213568
0.07263104 0.058745857 0.0010648564 0.10762216 0.063728236 -0.018951882 0.06691371 0.018932257
0.10665559 0.01892389 -0.020879127 0.029940885 -0.014366951 -0.01507858 0.041297324 0.067985125
-0.024422485 -0.021079447 -0.0059404476 0.22998841 0.09977873 0.07834856 -0.022890104 0.019419303
0.009438507 -0.012754152 -0.047127236 0.05953859 -0.015687384 -0.016761262 0.0028787327 0.25557363
0.059866793 -0.02513364 -0.02132138 0.11500856 0.0063660173 0.027531741 0.062386315 -0.020139273
-0.03032254 0.12157015 0.13125186 0.115156025 -0.11542988 0.01608677 -0.004912481 0.04298979
-0.010841867 0.10047878 -0.008424231 0.009158564 -0.020011881 0.07688027 0.08563079 -0.012524233
0.06591525 -0.026423715 -0.026136665 0.028886182 0.008896887 0.060670685 0.089262545 0.040323976
-0.022234738 -0.056909036 0.0022470714 0.0100779375 -0.037631072 0.036182404 -0.023760362 -0.023642907
-0.027266046 0.07397738 -0.024688095 0.079196304 0.011125904 -0.030600004 -0.012667538 0.00624958
-0.014291225 -0.029731521 0.09377914 0.052384727 -0.001051098 -0.026491981 -0.025309876 -0.02609329
0.0003493283 0.029157199 0.010489323 0.070404045 -0.02169861 0.070955835 -0.022115638 -0.06745229
-0.02072058 0.00024867547 -0.012675383 0.03587625 -0.02409302 0.043612503 -0.025191167 -0.012150612
-0.002380699 -0.023441603 0.057057578 -0.014973181 0.00852965 -0.004172122 0.09892859 0.03172581
00000000: 6780 c6bb 1a31 853d e4d5 49bb 5bce 0c3d
00000010: e656 30bc 80e0 d23d 67fc fabc 0ded dd3d
00000020: ecdf b4bc b424 f7bc adcd 0bbb f6c0 f3bd
00000030: cdae fb3d 466e 3fbd 4c14 253d 4d21 87bc
00000040: 359c a63d f929 12bc baae e7bc 53b2 a9bb
00000050: 41c8 bbba d381 cabc 5b66 fe3d d03e a13c
00000060: db9a 973b 6221 b03d 6322 ad3d d7e8 08bd
00000070: e2f9 803d a346 3cbc a869 8bbc 296c 83bc
00000080: 7566 583d 5328 f0bb b9e9 a4bc 5858 893e
00000090: 8f6c e8bc 4294 0b3e 6301 51bc 79cc b63d
000000a0: a1c9 e83d e9db 9abd bcf3 8cbc 4f2e 87bc
000000b0: 6f1d 833b 7ed2 113d e666 82bc 8360 283e
000000c0: e266 dfbd b035 213d 6cd0 a73d dd28 9aba
000000d0: e4e3 4fbc 43de 013e ac69 e9bc 4d4c 7abc
000000e0: b77b a6bb 0ba2 d03d 6df3 9f3e ae17 073e
000000f0: b277 33bd 9675 093d f02f 7fbc c8ec 253d
00000100: 2a0f 093d 439c ff3c c25e e53d f26c c2bc
00000110: 1826 a73b dbd7 79bd dd4c 4e39 3dae 4f3d
00000120: ca60 2abc c837 a83d 36c1 9abc 3d0b 343e
00000130: 4665 ec3d b15f 53bc a698 b3bc a386 c23c
00000140: feea 20bc a9b4 86bc cff5 96bc e01d 96bb
00000150: 97b1 2c3d a2ec 94bc 4939 88bb 15c6 62bc
00000160: 9002 88bb cab4 1a3e ed26 b4bc 68e5 96bc
00000170: b59f ca3d 1166 5e3d 36d6 22bc a6f4 1e3d
00000180: 4461 b03b c81f 99bc d268 2dbc 5b6d 423e
00000190: 9172 80bc 4e06 4a3d 9419 fa3c ad82 c7bc
000001a0: 5a1e f33d a3aa 343d fd87 3abd 3fae 97bc
000001b0: 05fc d23d e3ac 003e 72df 93bc 13bc 533e
000001c0: 0d34 b9bc d106 b9bc 12c9 84bc a554 923c
000001d0: b384 be3d 5c34 80bc 4100 ba3b 04ce 9cbc
000001e0: aa32 c7bc 8382 5f3c 1b24 99bc 9876 2e3e
000001f0: 9829 b3bd 87a0 0c3e 0fbe 3d3e 50c6 86bc
00000200: 1ed2 91bb fafe 363d 9325 b13d 3ad7 f3bc
00000210: 3704 cdbc dc9d f13d 5ea5 123d 75d5 b53d
00000220: b093 b6bb b7df de3d a330 22bc 8d85 0b3e
00000230: e8ac 15bc 2365 d3bc a7a4 a7bc b4a0 03bd
00000240: 95bf 943d 7f9f 703d a792 8b3a 0269 dc3d
00000250: f383 823d fa40 9bbc 0e0a 893d d217 9b3c
00000260: 3f6e da3d 4606 9b3c b40a abbc 9646 f53c
00000270: 5c63 6bbc 260c 77bc 6227 293d c93b 8b3d
00000280: aa11 c8bc ceae acbc 16a8 c2bb 1582 6b3e
00000290: ca58 cc3d 3675 a03d 0784 bbbc 3b15 9f3c
000002a0: f8a3 1a3c caf6 50bc 7d08 41bd bdde 733d
000002b0: d482 80bc ea4e 89bc 1fa9 3c3b 8cda 823e
000002c0: e236 753d 10e5 cdbc 2daa aebc 9c89 eb3d
000002d0: 069a d03b 3f8a e13c cb88 7f3d 1efb a4bc
000002e0: fa66 f8bc c5f9 f83d e366 063e ecd6 eb3d
000002f0: 8066 ecbd 67c8 833c e1f8 a0bb 1016 303d
00000300: 16a2 31bc d2c7 cd3d c905 0abc cd0d 163c
00000310: f5ef a3bc 6773 9d3d 325f af3d 7132 4dbc
00000320: 93fe 863d 8c76 d8bc 8f1c d6bc b7a2 ec3c
00000330: 40c4 113c d381 783d 48cf b63d c12a 253d
00000340: a025 b6bc 7319 69bd 9a43 133b ef1d 253c
00000350: 0a23 1abd 0034 143d 17a5 c2bc c5ae c1bc
00000360: 0b5d dfbc 7481 973d b03e cabc ac31 a23d
00000370: 6c49 363c dcac fabc 818b 4fbc 47c9 cc3b
00000380: be25 6abc 858f f3bc 470f c03d 5e91 563d
00000390: ffc4 89ba b605 d9bc a856 cfbc 98c1 d5bc
000003a0: 0d26 b739 14db ee3c 69db 2b3c ff2f 903d
000003b0: 49c1 b1bc 4b51 913d db2b b5bc 6d24 8abd
000003c0: 35be a9bc a860 8239 69ac 4fbc faf2 123d
000003d0: ba5e c5bc 06a3 323d b55d cebc 5c13 47bc
000003e0: 8005 1cbb 9b08 c0bc 35b5 693d 1352 75bc
000003f0: f2bf 0b3c 4cb6 88bb 139b ca3d ecf2 013d

bias f4 [5]
0.032027222 -0.026059024 0.020486683 0.026326919 0.11196932
00000000: fa2e 033d bc79 d5bc b0d3 a73c 8dab d73c
00000010: 2c50 e53d
