digital_twin/pinn_8/model.pt (torch, 48681 bytes, 8 tensors)

weight f4 [70, 2]
-0.011151271 -0.009274708 -0.031175556 -0.03018564 -0.006470514 0.31656942 -0.011877717 0.009597142
0.018144114 -0.014316308 0.019008711 0.053705893 0.0003139624 0.37913394 -0.028552242 0.23238711
-0.017711286 0.2602657 -0.03718284 0.524822 0.039025187 -0.030044261 -0.01899679 0.19593193
0.009074103 0.5312323 -0.0047220583 -0.10447777 0.027913626 -0.033919793 0.015457653 -0.050388493
0.03877472 -0.02479368 0.08057714 -0.019308347 0.014446131 0.0408122 0.24143285 -0.105905525
-0.028756918 -0.022936758 0.012749444 0.15325785 -0.031232398 0.4447462 -0.012392643 0.013976352
0.008436779 0.65113956 0.088423364 0.5956803 0.16134511 0.798523 0.039497368 -0.012401603
-0.005896809 -0.03642667 -0.0029239892 -0.03570576 -0.022451254 0.4553954 0.023586355 -0.004186187
-0.01789998 -0.016504433 0.013590458 -0.09588475 -0.0063461266 -0.039370116 -0.0025239894 0.059482247
-0.005609081 0.64975995 0.048383825 -0.06353317 -0.012841224 0.020509211 0.049556058 -0.053136546
-0.03555214 0.381098 -0.022554941 -0.011452952 -0.004692785 0.86547464 0.012477383 -0.09737858
-0.010218909 0.2869442 0.017716864 0.173198 -0.0038147075 -0.013346376 0.11170889 -0.064846076
-0.0105978055 0.32829344 0.023345105 0.049204543 0.11271462 0.38722092 -0.011300476 0.0114655215
0.16065381 0.65114087 0.04599676 -0.030482594 -0.011250466 0.006602504 -0.0026943434 0.05638465
-0.0043938104 -0.015122918 0.009424639 0.54158276 -0.009036186 0.0028311834 0.011221354 -0.08434908
-0.015200425 0.25836363 0.0139522245 -0.03810225 -0.010855591 0.19318138 -0.028253665 0.032725558
0.012553331 0.011423452 0.0039633857 0.025395384 0.010830244 -0.039738122 -0.01030503 0.5038005
0.029869976 -0.0013621579 -0.004190909 0.60255903
00000000: d2b3 36bc f2f4 17bc e163 ffbc e047 f7bc
00000010: 9b06 d4bb 6315 a23e c29a 42bc 553d 1d3c
00000020: f7a2 943c f38e 6abc 28b8 9b3c b6fa 5b3d
00000030: 529b a439 d81d c23e 64e6 e9bc e3f6 6d3e
00000040: 4217 91bc 8c41 853e 094d 18bd bc5a 063f
00000050: e0d8 1f3d 621f f6bc 289f 9bbc 61a2 483e
00000060: 8cab 143c d7fe 073f 7fbb 9abb 71f8 d5bd
00000070: 1eab e43c 7bef 0abd 1942 7d3c 2a64 4ebd
00000080: 3ed2 1e3d 1e1c cbbc a105 a53d 8a2c 9ebc
00000090: 77af 6c3c b22a 273d 2c3a 773e ffe4 d8bd
000000a0: a193 ebbc dee5 bbbc 0be3 503c a0ef 1c3e
000000b0: 16db ffbc c6b5 e33e 830a 4bbc 12fd 643c
000000c0: 6a3a 0a3c 15b1 263f 4f17 b53d 817e 183f
000000d0: a737 253e 016c 4c3f fec7 213d 1830 4bbc
000000e0: 053a c1bb 2234 15bd 66a0 3fbb 3440 12bd
000000f0: b1eb b7bc 9629 e93e 2c38 c13c 482c 89bb
00000100: fba2 92bc 4e34 87bc 83aa 5e3c 395f c4bd
00000110: 2bf3 cfbb 8f42 21bd 8469 25bb a8a3 733d
00000120: 62cc b7bb ab56 263f 1e2e 463d ae1d 82bd
00000130: ff63 52bc ef02 a83c 4bfb 4a3d b5a5 59bd
00000140: 1f9f 11bd 471f c33e 24c5 b8bc 2aa5 3bbc
00000150: efc5 99bb bf8f 5d3f f06d 4c3c 6c6e c7bd
00000160: 366d 27bc 5aea 923e f522 913c d15a 313e
00000170: 2c00 7abb c2aa 5abc a1c7 e43d 05ce 84bd
00000180: 6ba2 2dbc 1416 a83e 3c3e bf3c b48a 493d
00000190: ecd6 e63d d241 c63e a225 39bc e2d9 3b3c
000001a0: 6f82 243e 2bb1 263f 1967 3c3d a2b6 f9bc
000001b0: e053 38bc d159 d83b 9593 30bb 97f3 663d
000001c0: f4f9 8fbb 1ec6 77bc cd69 1a3c 2ba5 0a3f
000001d0: 830c 14bc 608b 393b c5d9 373c 36bf acbd
000001e0: 340b 79bc 3d48 843e df97 643c 1b11 1cbd
000001f0: a6db 31bc 57d1 453e 3b74 e7bc 3c0b 063d
00000200: 7dac 4d3c 6e29 3b3c 4adf 813b fb09 d03c
00000210: 5671 313c 71c4 22bd 6ed6 28bc 12f9 003f
00000220: e1b1 f43c 6f8a b2ba e553 89bb 4f41 1a3f

bias f4 [70]
-0.014785 0.5350372 -0.010002134 -0.0079869125 0.3254747 -0.06796874 -0.2499621 0.7173465
0.24609293 -0.18831006 -0.08524986 0.57100385 0.45097834 0.47221145 -0.07102002 0.16774091
-0.078735866 0.05744426 0.64180076 0.85326123 0.5112943 0.39718643 0.1846273 -0.00983038
0.16681439 0.07020681 0.41058165 -0.08479862 0.3717776 0.22065218 -0.122382596 -0.14123082
0.75473595 0.46741006 0.36747238 0.7351814 -0.49730507 -0.12138751 -0.008538983 0.008044497
-0.055194166 0.63478285 0.30064446 0.28838724 0.023048047 -0.08529627 0.09541762 0.0095690265
0.7383084 -0.2419172 0.39977315 -0.006972874 -0.1768234 -0.09453187 0.31346497 0.48862422
0.17935848 -0.17129196 -0.0031048486 0.504178 -0.011600566 0.5029286 -0.019368628 0.6917874
0.71063143 0.4322035 0.36607867 -0.34704244 -0.15559804 0.05173418
00000000: c93c 72bc 33f8 083f fedf 23bc 8adb 02bc
00000010: 9fa4 a63e 3233 8bbd 11f6 7fbe 05a4 373f
00000020: c9ff 7b3e 5ad4 40be 7b97 aebd 4f2d 123f
00000030: a2e6 e63e b3c5 f13e f272 91bd 46c4 2b3e
00000040: 4540 a1bd ac4a 6b3d 0e4d 243f 546f 5a3f
00000050: 2fe4 023f 055c cb3e f00e 3d3e 9a0f 21bc
00000060: 64d1 2a3e 97c8 8f3d c237 d23e e6aa adbd
00000070: a259 be3e a5f2 613e baa3 fabd d09e 10be
00000080: 6036 413f 5f50 ef3e 5725 bc3e d934 3c3f
00000090: c59e febe 049a f8bd 17e7 0bbc 11cd 033c
000000a0: 4713 62bd 2181 223f 12ee 993e 7ea7 933e
000000b0: 42cf bc3c d0af aebd 506a c33d 68c7 1c3c
000000c0: c801 3d3f 24b9 77be 11af cc3e b57c e4bb
000000d0: 3211 35be ed99 c1bd 7b7e a03e f42c fa3e
000000e0: c0a9 373e 2967 2fbe b77a 4bbb cf11 013f
000000f0: 4d10 3ebc eebf 003f f5aa 9ebc fb18 313f
00000100: f1eb 353f c749 dd3e aa6e bb3e 8caf b1be
00000110: 1855 1fbe 38e7 533d

weight f4 [70, 70]
0.052221045 -0.022804983 0.0074210297 0.07914931 -0.01874603 -0.031592477 -0.020287652 -0.021457868
-0.02701651 -0.028847424 -0.023586983 -0.038589332 -0.0025816762 0.108867645 -0.020627186 0.08794876
0.004234231 0.09332184 -0.018552786 -0.028063139 0.0114810085 -0.020626679 -0.048653435 0.06941294
0.039747413 -0.017784817 0.067903556 -0.023882635 0.065696314 0.016467132 -0.068046466 -0.021021793
-0.042505324 -0.013484724 -0.02466601 -0.026417257 -0.060200818 -0.024849525 0.009803729 -0.019437736
0.039372724 -0.030393062 0.047176074 0.09470223 -0.006646392 -0.0060285595 0.06496487 -0.022580149
-0.0008139092 0.021567345 0.03990597 0.008320225 -0.017989904 -0.023983201 0.0025167956 -0.018915996
-0.0073825545 -0.019508071 0.006358906 -0.012968795 -0.0099825915 0.07581363 0.00977626 0.07225835
0.091766275 -0.0020688681 -0.01727589 0.0063098585 -0.022968737 0.06322654 0.024087608 0.17391334
0.069723725 0.022305632 -0.018526228 0.049940437 0.02779473 -0.07084864 0.03221456 0.05146129
-0.06281427 -0.050490733 -0.010110969 0.03887685 -0.07614521 -0.0150583275 -0.053132147 0.005188072
0.08094526 0.06528391 0.05097496 -0.0077034263 0.290469 0.07474691 -0.0089896275 0.06610166
0.044783458 -0.040123727 0.091014266 0.019556906 0.14220382 -0.06880767 0.124011986 0.026356194
0.040822033 0.13367632 0.039489683 0.025762832 0.025731476 0.008430009 -0.01456806 0.16357929
0.04916917 -0.00963589 0.09569946 -0.038917456 0.10709821 -0.05473682 0.037680168 0.06534044
0.011438675 0.038170066 0.0076631554 -0.054652546 0.042209163 0.04420834 0.15083839 0.10543469
0.022107162 0.018491304 0.10369332 0.012837044 0.07037319 0.12690672 0.037644953 -0.013161059
-0.013350176 0.038886808 -0.06414114 0.005628075 0.023137199 0.048656046 -0.022944175 0.018025665
-0.02051629 0.025573935 -0.024422018 0.009588561 -0.010236161 -0.027007971 -0.011286317 -0.01293536
-0.022889595 0.0118885515 -0.010472166 -0.016784495 -0.01618285 -0.02453176 0.010986936 0.006049062
0.07931355 0.057281617 0.09081475 0.01817022 -0.023142295 0.013443443 0.035412997 0.032792345
-0.0058766454 0.098239906 -0.040783327 0.02215663 -0.019775173 -0.02398878 0.08921708 0.06900695
0.03023369 0.039203186 0.013835946 -0.024040926 -0.012789892 0.07510849 0.019251803 -0.02105517
-0.03988155 0.018762719 0.01607081 -0.01368529 -0.03298302 0.0011041934 0.008776071 0.018718986
-0.0009258694 0.020786647 0.0394289 0.042788196 0.01041296 0.016963085 0.033742454 -0.024316166
-0.030321423 0.09362599 -0.02549024 -0.025447238 -0.022258125 -0.02268897 -0.021437515 -0.026072204
0.05163765 -0.02162374 0.0005903369 0.020607006 0.03778034 0.0246866 -0.021045921 0.017417977
-0.016748749 0.066641554 -0.022841355 -0.029565077 0.098025 -0.017329775 -0.023309357 0.07340905
-0.014344999 -0.02478721 0.10144823 -0.0065551247 0.034461346 0.06309472 -0.00070357724 -0.018256493
-0.031061526 0.025689442 -0.0241028 -0.025826951 -0.009179029 0.0024191206 -0.015206914 -0.008150494
-0.024497673 0.0049340245 0.0084431525 0.089902826 -0.012952257 0.016519045 -0.016015643 -0.008933217
0.012057437 0.012542246 0.0025192078 -0.0053173616 0.0013024597 -0.012978222 -0.034468137 -0.014612088
00000000: bce5 553d 84d1 babc 1c2c f33b 0919 a23d
00000010: 4691 99bc 1d67 01bd 4a32 a6bc 69c8 afbc
00000020: ba51 ddbc 6f51 ecbc 7d39 c1bc d90f 1ebd
00000030: 5731 29bb 00f6 de3d 58fa a8bc 7b1e b43d
00000040: 4ebf 8a3b 851f bf3d 03fc 97bc abe4 e5bc
00000050: d71a 3c3c 48f9 a8bc d348 47bd 5f28 8e3d
00000060: 2fce 223d 77b1 91bc 0511 8b3d 84a5 c3bc
00000070: ca8b 863d 14e6 863c f25b 8bbd e535 acbc
00000080: 101a 2ebd 08ef 5cbc 5f10 cabc 0169 d8bc
00000090: 2295 76bd 3b91 cbbc d29f 203c e33b 9fbc
000000a0: 4b45 213d dffa f8bc b33b 413d 3ef3 c13d
000000b0: fac9 d9bb 398b c5bb 4d0c 853d 01fa b8bc
000000c0: 865c 55ba 00ae b03c 7174 233d 8e51 083c
000000d0: 905f 93bc 6b78 c4bc d3f0 243b b8f5 9abc
000000e0: 5be9 f1bb 64cf 9fbc 5f5e d03b 127b 54bc
000000f0: 068e 23bc 2d44 9b3d 9b2c 203c 30fc 933d
00000100: f5ef bb3d d995 07bb 2b86 8dbc eec2 ce3b
00000110: ef28 bcbc eb7c 813d 6053 c53c 5716 323e
00000120: 50cb 8e3d 4dba b63c 51c4 97bc 588e 4c3d
00000130: c6b1 e33c 1719 91bd 6af3 033d 13c9 523d
00000140: c5a4 80bd 5fcf 4ebd 7aa8 25bc 553d 1f3d
00000150: 05f2 9bbd 34b7 76bc 18a1 59bd b400 aa3b
00000160: a1c6 a53d 92b3 853d 1fcb 503d 066d fcbb
00000170: 5ab8 943e e814 993d 3b49 13bc 4f60 873d
00000180: dc6e 373d c758 24bd b065 ba3d ce35 a03c
00000190: e19d 113e 09eb 8cbd fff9 fd3d f2e8 d73c
000001a0: 0135 273d 72e2 083e efbf 213d 930c d33c
000001b0: d1ca d23c 051e 0a3c dfae 6ebc 5481 273e
000001c0: 9d65 493d dadf 1dbc 14fe c33d e967 1fbd
000001d0: 4e56 db3d b733 60bd 8556 1a3d 35d1 853d
000001e0: 4869 3b3c 3758 1c3d 351b fb3b 59db 5fbd
000001f0: 84e3 2c3d ce13 353d 6175 1a3e 25ee d73d
00000200: 141a b53c 137b 973c 2a5d d43d 7752 523c
00000210: d21f 903d d6f3 013e 9831 1a3d 7ba1 57bc
00000220: b2ba 5abc c647 1f3d 6e5c 83bd b76b b83b
00000230: 398a bd3c 904b 473d 6cf5 bbbc 8faa 933c
00000240: c711 a8bc 6e80 d13c af10 c8bc 5719 1d3c
00000250: 92b5 27bc d23f ddbc 3fea 38bc d5ee 53bc
00000260: f682 bbbc 33c8 423c 7393 2bbc a37f 89bc
00000270: e591 84bc d4f6 c8bc 8d02 343c 3637 c63b
00000280: 246f a23d 21a0 6a3d 15fd b93d b7d9 943c
00000290: e994 bdbc e341 5c3c 380d 113d 4451 063d
000002a0: e090 c0bb 0132 c93d 6b0c 27bd d281 b53c
000002b0: 8bff a1bc 1e84 c4bc 72b7 b63d 8453 8d3d
000002c0: a5ac f73c 8593 203d 2ab0 623c 7af1 c4bc
000002d0: b28c 51bc 7bd2 993d f5b5 9d3c e47b acbc
000002e0: d65a 23bd 46b4 993c eea6 833c 4438 60bc
000002f0: 3419 07bd 95ba 903a 82c9 0f3c 8f58 993c
00000300: 0bb6 72ba c248 aa3c 3380 213d ad42 2f3d
00000310: 1f9b 2a3c 2bf6 8a3c 8735 0a3d b232 c7bc
00000320: a264 f8bc fcbe bf3d e8d0 d0bc ba76 d0bc
00000330: ac56 b6bc 38de b9bc ba9d afbc 6095 d5bc
00000340: 0082 533d 4524 b1bc d7c0 1a3a 06d0 a83c
00000350: 8fbf 1a3d 8d3b ca3c 7f68 acbc 25b0 8e3c
00000360: ac34 89bc 5e7b 883d cb1d bbbc 7632 f2bc
00000370: 55c1 c83d 2cf7 8dbc 44f3 bebc 7c57 963d
00000380: 4907 6bbc 8c0e cbbc 17c4 cf3d 5fcc d6bb
00000390: 5727 0d3d ce37 813d 4570 38ba a48e 95bc
000003a0: be74 febc aa72 d23c 3c73 c5bc 0b93 d3bc
000003b0: a363 16bc 1c8a 1e3b 6c26 79bc a689 05bc
000003c0: 58af c8bc 99ad a13b 2655 0a3c f91e b83d
000003d0: b435 54bc f352 873c 3d33 83bc a15c 12bc
000003e0: 8e8c 453c fe7d 4d3c 4b19 253b 433d aebb
000003f0: 4cb7 aa3a 9ca2 54bc 762e 0dbd 8a67 6fbc

bias f4 [70]
-0.017873146 0.07630916 -0.024051499 0.023339009 -0.0035979566 4.422712e-05 -0.018933041 0.0064865747
0.017399754 -0.014920985 -0.0077957567 -0.026008666 -0.0363127 0.061877623 -0.014733412 -0.024446942
-0.02503285 -0.009143138 -0.007932514 0.059900116 -0.02588065 0.023826485 0.10444199 0.00860386
-0.020336114 0.046385057 -0.022776486 -0.016257565 -0.020219851 -0.016109997 0.071190946 -0.047413614
-0.015085095 0.023932343 -0.01404414 -0.019956848 -0.011895847 -0.014997563 0.0750287 -0.036112092
-0.024199696 0.0035470116 -0.019693855 -0.013527641 0.07413904 0.005674611 0.04713044 -0.027998125
-0.011159663 0.03973101 -0.016507933 0.102944195 -0.023322852 0.028343983 0.075771235 -0.003353661
-0.02167133 0.08072685 -0.031386252 0.08197055 -0.027374024 -0.016123373 0.061898302 0.058785763
-0.01839174 0.008075337 0.09264297 -0.033691596 -0.013104766 0.034387667
00000000: b46a 92bc fa47 9c3d a607 c5bc 7331 bf3c
00000010: b2cb 6bbb 8280 3938 7719 9bbc 558d d43b
00000020: ee89 8e3c 2677 74bc 8c73 ffbb 2010 d5bc
00000030: a0bc 14bd 6473 7d3d 6964 71bc f444 c8bc
00000040: b111 cdbc 1acd 15bc 60f7 01bc d359 753d
00000050: a803 d4bc c32f c33c afe5 d53d 34f7 0c3c
00000060: ec97 a6bc 42fe 3d3d c195 babc 962e 85bc
00000070: 1aa4 a5bc 1df9 83bc 8fcc 913d c734 42bd
00000080: 7927 77bc c30d c43c 6519 66bc 8b7c a3bc
00000090: cce6 42bc 57b8 75bc a6a8 993d 46ea 13bd
000000a0: 713e c6bc fb74 683b 0255 a1bc 0aa3 5dbc
000000b0: 36d6 973d 16f2 b93b d90b 413d 535c e5bc
000000c0: 05d7 36bc fcbc 223d a53b 87bc 68d4 d23d
000000d0: 910f bfbc a431 e83c f32d 9b3d 18c9 5bbb
000000e0: 1388 b1bc 1e54 a53d df8e 00bd 2de0 a73d
000000f0: 7d3f e0bc 2a15 84bc 1389 7d3d 57c9 703d
00000100: 46aa 96bc 6b4e 043c 99bb bd3d 3300 0abd
00000110: 5fb5 56bc 15da 0c3d

weight f4 [70, 70]
-0.013037238 0.025758928 -0.035144158 -0.030294886 -0.022297833 0.04622001 -0.02198727 -0.040212393
-0.044447225 0.09915339 0.011810508 -0.016902661 -0.029934777 -0.030822322 -0.008845177 -0.037551165
-0.010487591 0.024485772 -0.025293794 0.025502443 0.024453303 -0.036512572 -0.0063062347 0.04641626
0.09527916 -0.031475436 0.073589884 -0.019298328 -0.014887997 0.05944883 0.0012724198 -0.04244114
-0.00090683874 0.00462772 -0.032497615 -0.08559591 -0.018487496 -0.038811795 0.03599994 -0.015762232
-0.0071037686 -0.023414494 -0.030573541 -0.0041641593 -0.045673124 -0.042092472 -0.17927547 -0.020934643
-0.03746383 -0.016179988 0.032425396 0.085643105 -0.021727253 -0.023418168 -0.017090831 0.046835408
-0.022757595 -0.041119933 -0.041594625 -0.026634308 -0.040105216 -0.035368513 -0.047396883 -0.057041805
0.03998609 -0.04346343 -0.03654844 0.00020796208 -0.034798685 -0.08025388 0.009122618 0.050238572
0.05966192 0.03887544 0.04136241 0.035124056 0.097678214 0.021453666 0.1354077 0.04355931
0.088261716 0.05940507 -0.0056655193 0.0136363525 -0.056767944 0.11550898 0.16330042 0.01998752
0.04231535 0.0075064357 0.102386646 0.03205159 -0.019984193 0.0020937829 0.01191452 0.0070908107
-0.014815258 0.014774947 0.058189522 0.0993901 0.13786218 -0.0015897282 0.043276433 0.19284
0.049397513 -0.046058927 0.024585163 0.10615419 0.043684654 0.030030612 0.03563751 0.099059395
0.04046646 0.011589989 0.13988215 0.028546698 0.03117804 0.0170672 0.010614374 0.06960254
-0.029939625 -0.009461578 0.021959802 0.023633607 0.031877495 -0.0025141484 0.073990665 0.113938086
0.03344425 0.033157084 0.12354008 0.011367929 0.14820412 0.16899161 0.13089797 0.025028719
0.0192299 0.1518984 0.10282639 0.0961463 -0.034991547 -0.046052016 -0.00015010184 -0.0029643292
-0.018585963 0.0043196008 0.026614416 -0.031905517 0.05290407 -0.026139328 0.057274282 0.096080795
-0.016568055 0.017624473 0.04681949 -0.005865881 0.021902569 0.097343035 -0.011643434 0.008459607
0.07575664 0.053405184 0.017664004 -0.0048304405 0.09092214 -0.029556701 0.07602231 0.019985387
0.015779162 0.05752936 -0.019998098 0.0724162 0.009596945 0.07531679 0.06388989 -0.022257464
-0.010892694 0.008533906 0.026902912 -0.009520207 -0.014191909 -0.032099694 0.045938976 -0.03468667
-0.029297391 -0.03361592 -0.05987682 -0.015402529 -0.024752825 0.06067513 0.13957791 0.056563567
-0.01618277 0.019502878 -0.01569893 -0.017316846 0.0704826 -0.04202989 -0.021894014 -0.025694318
-0.030768499 -0.013365097 -0.08735051 -0.071661346 -0.02660366 -0.037192672 0.010540944 0.038302448
-0.018846096 -0.053557687 0.021189924 -0.015561015 0.07319348 -0.06287071 -0.07578165 -0.045600355
-0.074276835 0.021495845 -0.031200845 -0.087220326 -0.01527186 0.10603669 -0.031912122 0.019138426
0.0032885808 0.077821985 0.04264764 -0.013416493 0.026518285 -0.024866043 0.01922143 -0.0030629411
-0.025586916 -0.024058556 0.077044934 -0.032498863 -0.014123942 -0.0009992692 -0.013854106 -0.023232996
0.029098602 -0.014318082 -0.02895031 0.02858288 0.07458735 0.03971916 0.061008792 -0.024221234
-0.027854843 0.056996353 0.023449453 -0.012722847 -0.010590249 0.08315268 0.025588846 0.10254171
00000000: 249a 55bc 6304 d33c 52f3 0fbd fb2c f8bc
00000010: f2a9 b6bc 3151 3d3d a61e b4bc c0b5 24bd
00000020: 4b0e 36bd ef10 cb3d dc80 413c 7377 8abc
00000030: c739 f5bc 187f fcbc 5ceb 10bc 40cf 19bd
00000040: 25d4 2bbc 6396 c83c ee34 cfbc 80ea d03c
00000050: 4b52 c83c 358e 15bd 88a4 cebb fa1e 3e3d
00000060: b821 c33d 63ec 00bd 4bb6 963d 8717 9ebc
00000070: c9ec 73bc 9e80 733d 53c7 a63a c3d6 2dbd
00000080: ebb8 6dba 21a4 973b 381c 05bd e94c afbd
00000090: 1773 97bc 1ef9 1ebd ac74 133d cc1f 81bc
000000a0: bbc6 e8bb c1cf bfbc 5d75 fabc 8073 88bb
000000b0: be13 3bbd 2869 2cbd fd93 37be 217f abbc
000000c0: ac73 19bd e58b 84bc 7ed0 043d a765 af3d
000000d0: 5afd b1bc 75d7 bfbc 1202 8cbc 7cd6 3f3d
000000e0: 236e babc 606d 28bd 205f 2abd 3130 dabc
000000f0: 5e45 24bd 93de 10bd 3c23 42bd aba4 69bd
00000100: 74c8 233d b606 32bd d1b3 15bd 6510 5a39
00000110: 1189 0ebd 255c a4bd 0877 153c f6c6 4d3d
00000120: 0f60 743d da3b 1f3d a16b 293d 3ede 0f3d
00000130: 840b c83d 99bf af3c 51a8 0a3e 3f6b 323d
00000140: 8fc2 b43d bb52 733d d2a5 b9bb 026b 5f3c
00000150: 8185 68bd f98f ec3d 3a38 273e debc a33c
00000160: dc52 2d3d 8cf8 f53b 17b0 d13d 8748 033d
00000170: e4b5 a3bc d937 093b 1e35 433c 085a e83b
00000180: b2bb 72bc 9f12 723c 2358 6e3d 098d cb3d
00000190: be2b 0d3e 6d5e d0ba a142 313d d977 453e
000001a0: 0c55 4a3d 49a8 3cbd d366 c93c 5e67 d93d
000001b0: aeee 323d c202 f63c a3f8 113d a7df ca3d
000001c0: 29c0 253d f0e3 3d3c 443d 0f3e c4da e93c
000001d0: 1769 ff3c 83d0 8b3c e9e7 2d3c c78b 8e3d
000001e0: f243 f5bc bc04 1bbc 0be5 b33c 449b c13c
000001f0: fa91 023d 69c4 24bb 6b88 973d 5f58 e93d
00000200: d6fc 083d b9cf 073d 9502 fd3d 8d40 3a3c
00000210: d2c2 173e 230c 2d3e 1e0a 063e 0709 cd3c
00000220: 0688 9d3c 418b 1b3e a496 d23d 5ae8 c43d
00000230: 4c53 0fbd 0aa1 3cbd a864 1db9 3145 42bb
00000240: 9741 98bc 708b 8d3b 7a06 da3c 5caf 02bd
00000250: f0b1 583d 2522 d6bc 7098 6a3d 02c6 c43d
00000260: bbb9 87bc 3361 903c cbc5 3f3d 9436 c0bb
00000270: 046d b33c c95b c73d 1ac4 3ebc 2a9a 0a3c
00000280: 4c26 9b3d 65bf 5a3d 1ab4 903c ac48 9ebb
00000290: 6335 ba3d e520 f2bc 96b1 9b3d 65b8 a33c
000002a0: 4d43 813c e8a3 6b3d 0dd3 a3bc f24e 943d
000002b0: 813c 1d3c b03f 9a3d b4d8 823d 4955 b6bc
000002c0: 4577 32bc ccd1 0b3c 7f63 dc3c a4fa 1bbc
000002d0: 2e85 68bc f87a 03bd 822a 3c3d 9c13 0ebd
000002e0: 1501 f0bc d9b0 09bd 6541 75bd e45a 7cbc
000002f0: 70c6 cabc 7c86 783d 83ed 0e3e 33af 673d
00000300: ba91 84bc 80c4 9f3c 0b9b 80bc 0fdc 8dbc
00000310: 2e59 903d 8927 2cbd 135b b3bc e47c d2bc
00000320: 380e fcbc 48f9 5abc d3e4 b2bd 2fc3 92bd
00000330: ebef d9bc 5857 18bd ecb3 2c3c 07e3 1c3d
00000340: 2163 9abc 4e5f 5bbd 7e96 ad3c a1f3 7ebc
00000350: 77e6 953d 5cc2 80bd 6933 9bbd 70c7 3abd
00000360: 741e 98bd 0e18 b03c ea98 ffbc 92a0 b2bd
00000370: d336 7abc c429 d93d 49b6 02bd 30c8 9c3c
00000380: 3b85 573b 2261 9f3d 4baf 2e3d dad0 5bbc
00000390: e03c d93c dfb3 cbbc 4376 9d3c a0bb 48bb
000003a0: a79b d1bc 7316 c5bc bcc9 9d3d 871d 05bd
000003b0: 1b68 67bc e9f9 82ba 55fc 62bc 2053 bebc
000003c0: 3160 ee3c 6396 6abc 3329 edbc a526 ea3c
000003d0: 41c1 983d 8fb0 223d 5be4 793d 9c6b c6bc
000003e0: d72f e4bc 0275 693d 1119 c03c 7d73 50bc
000003f0: b982 2dbc f44b aa3d b39f d13c 6301 d23d

bias f4 [70]
0.13066083 -0.0073823743 0.046672273 -0.022238476 0.075414285 0.05616593 -0.0020373198 -0.022272369
0.026516572 -0.0070678825 0.05419657 0.008085155 -0.013123678 -0.023523482 0.0003935869 -0.026881818
-0.011787381 0.033260696 -0.040555857 -0.03985571 0.013143856 -0.014433478 0.09294844 -0.02009897
0.057045657 -0.023480503 -0.04697344 0.018830603 0.068000644 -0.025075858 0.1872327 0.068211436
0.08541157 -0.046415944 -0.029037934 0.013370636 0.011207469 -0.020730283 0.024328968 0.077224195
0.02820576 0.013606043 0.020934291 0.040833294 0.02953093 0.09044375 -0.010586944 -0.034656484
0.061572984 0.062094416 -0.06220093 0.05300202 0.008435095 -0.01893149 -0.020537276 -0.08518414
-0.012089639 -0.011117689 0.0311994 0.06184303 -0.032652568 0.0041180993 0.013429472 -0.026862081
0.023774147 -0.026371177 -0.047173362 0.06920678 -0.019941045 -0.03474361
00000000: f4cb 053e d8e7 f1bb 6d2b 3f3d 772d b6bc
00000010: ce72 9a3d 3f0e 663d 8e84 05bb 8b74 b6bc
00000020: 4839 d93c b299 e7bb 39fd 5d3d 9977 043c
00000030: b204 57bc 51b4 c0bc 575a ce39 4237 dcbc
00000040: dc1f 41bc 5e3c 083d e61d 26bd be3f 23bd
00000050: 5459 573c 657a 6cbc c05b be3d 98a6 a4bc
00000060: b5a8 693d 2f5a c0bc 3967 40bd a342 9a3c
00000070: ec43 8b3d e36b cdbc eeb9 3f3e 70b2 8b3d
00000080: 43ec ae3d a51e 3ebd f6e0 edbc 8310 5b3c
00000090: 889f 373c 8ed2 a9bc 8b4d c73c b827 9e3d
000000a0: c40f e73c e1eb 5e3c 647e ab3c d040 273d
000000b0: d9ea f13c 933a b93d dd74 2dbc f5f3 0dbd
000000c0: f433 7c3d b756 7e3d 67c6 7ebd a518 593d
000000d0: 5a33 0a3c 3616 9bbc ca3d a8bc 0675 aebd
000000e0: 9f13 46bc f826 36bc e295 ff3c 1e4f 7d3d
000000f0: b3be 05bd 1ff1 863b 4a07 5c3c de0d dcbc
00000100: 00c2 c23c 5e08 d8bc db38 41bd 49bc 8d3d
00000110: 675b a3bc 514f 0ebd

weight f4 [5, 70]
0.064169064 -0.020648442 0.20403242 -0.008996785 -0.007608638 -0.06389332 0.053677157 -0.021843165
0.08964342 -0.009928766 -0.01579967 0.010767376 -0.02041188 0.0024906995 0.0034119303 -0.059310146
0.024337916 0.05065042 -0.031603854 -0.092510104 -0.04067767 -0.01997042 0.096451685 -0.0037086983
0.09531668 -0.046412062 -0.022420144 0.002023539 0.031007644 -0.023768539 0.08033287 -0.027382687
0.05775603 0.010321622 -0.110760845 0.14595869 0.11456179 -0.010844347 -0.024842126 0.10729694
0.09895036 -0.024904741 0.0011004133 0.024412062 0.06920188 -0.0035223714 -0.025935322 0.015450557
-0.098786026 0.071707815 -0.027396005 -0.0071879365 0.09603985 -0.012522987 -0.02244736 -0.021723533
0.14288746 -0.02854936 0.00836775 -0.0066417307 -0.01829837 -0.018923864 0.09324833 -0.07997093
0.081257105 -0.0407857 -0.015739437 -0.013997732 -0.010751328 -0.024808722 -0.020499665 -0.023124516
0.12441931 -0.017780984 0.0051608696 -0.044509966 0.0006007144 -0.020347146 0.06506591 0.08798727
0.002993498 -0.028194984 -0.022862844 0.059548285 -0.089449234 -0.037166744 -0.0067596408 -0.011434468
0.040349305 0.02872404 -0.04001179 -0.022723159 -0.027379 -0.034239713 -0.024969304 -0.060014986
-0.016179478 -0.021708393 0.025560327 0.018981457 -0.019652553 -0.00896512 -0.023508305 0.1638986
0.025634812 -0.023440575 -0.026743978 -0.031570934 -0.020651491 -0.016901247 0.063283816 -0.019362895
-0.014225095 -0.022779113 -0.040483046 -0.0125926705 0.046140634 0.045684036 0.022579355 0.1374414
0.023126742 0.0665552 0.11068361 -0.02115087 -0.025674963 0.009426971 0.19901611 -0.024547173
0.08738646 0.042295627 -0.021579606 0.071873866 0.035958074 -0.046816368 -0.009681896 -0.0047499137
0.06862794 -0.020336898 -0.020020047 -0.021080818 -0.01439509 -0.019524723 0.2138328 -0.020518076
0.03182943 -0.07569524 -0.026796483 -0.017363867 -0.014247155 -0.02391117 -0.018315021 -0.016206626
-0.019202992 0.047923993 0.03492683 0.0062834867 0.05338853 -0.019977119 0.07458711 -0.040004253
-0.028082838 -0.018056214 0.0074966475 0.0026506516 -0.02682835 -0.042260285 0.07398336 -0.022179725
-0.012687305 0.09872245 -0.028094405 -0.016040655 0.024410814 -0.04463523 0.18128856 0.07239804
-0.10779479 -0.023392335 0.093817964 -0.024371399 0.054021686 0.016305106 -0.008492154 -0.019494886
-0.02494716 0.013378251 0.08428686 0.049032334 0.10438856 0.12909888 -0.011084329 0.08355197
0.06756552 -0.018319571 -0.01814199 0.015288065 0.038910285 -0.02170991 -0.005717849 0.055718333
-0.013384279 0.08015214 0.008238396 -0.028661009 -0.028444653 0.03874268 -0.016962634 -0.01962907
0.032176666 -0.0038713363 -0.009315577 -0.026604336 -0.0025752336 0.06284849 0.051844515 0.040411863
0.10907044 -0.15366596 -0.0134614855 0.23006015 0.0721162 -0.0070104166 -0.070941694 0.077669226
0.008346204 -0.069062814 -0.035792947 0.02666058 0.068509765 0.008241747 -0.02433882 -0.024978539
-0.012489534 -0.006287227 -0.006106593 0.0622799 -0.03643211 0.01743339 -0.027653273 4.3081356e-05
-0.010663157 -0.1129233 -0.020904593 0.011397096 0.06717224 -0.0035462738 0.1079827 0.09958938
-0.058511525 -0.015590536 -0.018564414 -0.006072964 -0.024295906 -0.005561904 0.005669686 -0.022964155
00000000: 126b 833d ec26 a9bc e0ed 503e 4067 13bc
00000010: e251 f9bb 80da 82bd 94dc 5b3d 70f0 b2bc
00000020: f896 b73d 43ac 22bc 4f6e 81bc a669 303c
00000030: d136 a7bc 013b 233b b19a 5f3b 32ef 72bd
00000040: 4f60 c73c d176 4f3d 0b73 01bd f075 bdbd
00000050: a19d 26bd 0299 a3bc 7688 c53d a20d 73bb
00000060: 6435 c33d 931a 3ebd 73aa b7bc 5a9d 043b
00000070: be03 fe3c 3db6 c2bc 8f85 a43d a851 e0bc
00000080: 9691 6c3d 051c 293c 95d6 e2bd 3276 153e
00000090: 5f9f ea3d 7dac 31bc b781 cbbc 80be db3d
000000a0: 7da6 ca3d 0705 ccbc be3b 903a cefb c73c
000000b0: b7b9 8d3d 96d7 66bb 5076 d4bc 5524 7d3c
000000c0: 5450 cabd 8cdb 923d 966d e0bc c888 ebbb
000000d0: 8ab0 c43d 372d 4dbc 87e3 b7bc 8df5 b1bc
000000e0: 1751 123e 59e0 e9bc e318 093c e0a2 d9bb
000000f0: 77e6 95bc 3806 9bbc fbf8 be3d cdc7 a3bd
00000100: 206a a63d e80e 27bd feef 80bc be56 65bc
00000110: 5726 30bc a93b cbbc eaee a7bc a06f bdbc
00000120: 8dcf fe3d 6da9 91bc 831c a93b 1550 36bd
00000130: 4379 1d3a 0faf a6bc 4741 853d ab32 b43d
00000140: 902e 443b 2bf9 e6bc dc4a bbbc e7e8 733d
00000150: 2931 b7bd 283c 18bd fa7f ddbb a357 3bbc
00000160: 5045 253d ae4e eb3c 67e3 23bd eb25 babc
00000170: ed49 e0bc f13e 0cbd 6d8c ccbc 46d2 75bd
00000180: d38a 84bc cdd5 b1bc e463 d13c 007f 9b3c
00000190: 64fe a0bc 70e2 12bc 7d94 c0bc 09d5 273e
000001a0: 1900 d23c 7306 c0bc 3016 dbbc 8650 01bd
000001b0: 512d a9bc 7c74 8abc f29a 813d ef9e 9ebc
000001c0: 5f10 69bc 439b babc 8dd1 25bd 7d51 4ebc
000001d0: f6fd 3c3d 2f1f 3b3d 57f8 b83c 70bd 0c3e
000001e0: 4b74 bd3c 184e 883d 17ae e23d 9744 adbc
000001f0: 4d54 d2bc 9573 1a3c e1ca 4b3e 2717 c9bc
00000200: acf7 b23d 2e3e 2d3d b7c7 b0bc 9b32 933d
00000210: c648 133d 85c2 3fbd d1a0 1ebc 2aa5 9bbb
00000220: ce8c 8c3d 9199 a6bc 1501 a4bc aeb1 acbc
00000230: 62d9 6bbc 50f2 9fbc fcf6 5a3e 8615 a8bc
00000240: 945f 023d 1b06 9bbd 4c84 dbbc ab3e 8ebc
00000250: e66c 69bc 5ce1 c3bc 6209 96bc c2c3 84bc
00000260: 984f 9dbc f34b 443d 700f 0f3d b5e5 cd3b
00000270: eead 5a3d 0ea7 a3bc 20c1 983d 80db 23bd
00000280: fb0d e6bc a0ea 93bc 70a6 f53b 8eb6 2d3b
00000290: 21c7 dbbc 1f19 2dbd 9684 973d 41b2 b5bc
000002a0: 6ade 4fbc ff2e ca3d 3d26 e6bc b167 83bc
000002b0: 30f9 c73c 6ed3 36bd b5a3 393e 6c45 943d
000002c0: 84c3 dcbd 48a1 bfbc a223 c03d 87a6 c7bc
000002d0: d845 5d3d 4992 853c ad22 0bbc bdb3 9fbc
000002e0: fd5d ccbc 7430 5b3c 979e ac3d 21d6 483d
000002f0: abc9 d53d 7f32 043e 0c9b 35bc 4c1d ab3d
00000300: cb5f 8a3d ed12 96bc 839e 94bc cb7a 7a3c
00000310: 6460 1f3d fbd8 b1bc cb5c bbbb e838 643d
00000320: bc49 5bbc ce26 a43d 56fa 063c 7eca eabc
00000330: c304 e9bc a5b0 1e3d 39f5 8abc 25cd a0bc
00000340: aecb 033d 3fb6 7dbb 5da0 18bc 56f1 d9bc
00000350: 40c5 28bb b6b6 803d ea5a 543d e986 253d
00000360: 5360 df3d 9c5a 1dbe 908d 5cbc e394 6b3e
00000370: a9b1 933d a3b7 e5bb e149 91bd 0b11 9f3d
00000380: 84be 083c ce70 8dbd a09b 12bd 4a67 da3c
00000390: d94e 8c3d 6408 073c 3462 c7bc cb9f ccbc
000003a0: e7a0 4cbc 1505 cebb d119 c8bb 3519 7f3d
000003b0: d639 15bd 78d0 8e3c 1e89 e2bc 41b2 3438
000003c0: 86b4 2ebc 5544 e7bd 1c40 abbc e3ba 3a3c
000003d0: 9991 893d 9a68 68bb 0926 dd3d 84f5 cb3d
000003e0: c8a9 6fbd 736f 7fbc 6614 98bc b7ff c6bb
000003f0: 3508 c7bc a240 b6bb c6c8 b93b 531f bcbc

bias f4 [5]
0.01759997 0.021532973 -0.014317976 0.05300103 0.058295425
00000000: d02d 903c eb65 b03c f295 6abc 9c17 593d
00000010: 2fc7 6e3d
