digital_twin/beluga/pinn_3/model.pt (torch, 42045 bytes, 8 tensors)

weight f4 [64, 2]
00000000: 19e8 92bc ef03 e9bb 147f 95bc 3fd6 27bc
00000010: 05b0 dfbc ab1f 5f3e 9821 9dbb f043 04be
00000020: c337 533d db60 30be baa5 b63c 2005 2f3e
00000030: b1e5 4e3d 41c8 b53d 8546 b8bc 65c2 653e
00000040: 13e0 fabc df33 633e 291f 86bb 9287 b83e
00000050: a236 e73c e29d 35bd 63ea 14bd 77f0 513d
00000060: 7dd1 963c 5dac 433f a35e 23bc 3b42 8dbd
00000070: 4a08 133d ece7 cf3d 20dd 743d b163 20bd
00000080: be12 163c 4a2f 83bd 5101 e9ba e3a0 113e
00000090: 43ad d23c 8b05 a73d 5b73 cf3c 9f4a 653e
000000a0: f698 53bc 56b1 c1bd 729c f83c 745a 1f3e
000000b0: d228 9cbc a8f2 cf3e a394 94bc 629f a7ba
000000c0: f761 863d 20e9 ad3f 52d1 a73c 9ac1 733f
000000d0: 547b 9d3c 04dc 1a3f cd65 e03c 78f7 0bbe
000000e0: 76b4 96bc e57d b8bb 3861 40bb 3057 3cbc
000000f0: 0613 61bb 77fb 0c3f 7b19 913c 4b9b 9b3d
00000100: cc1f 57bc a7d5 d7be 71c1 933c 134c 05be
00000110: 319d a7bb df9d 14be 33a8 9bbb 18b6 f0bd
00000120: 132e b4bb 3495 4c3f 6e6b 5c3d 5230 85bd
00000130: 42c6 a7bc db89 6a3d 6f11 493d 45f2 c7bd
00000140: d8fb f3bc 48a0 253e c5ad 9cbc 770d f83b
00000150: 2a17 cd3c cbc3 263f 9f2d ed3c 9dcd 4f3e
00000160: 1a65 aabc 8987 b23e b616 c93c 0430 3d3f
00000170: 71a2 b3bb 5048 05be b42c 753d eae7 2a3d
00000180: 47e6 9fbc 1de2 883e def5 b53c c002 893e
00000190: 0880 9c3c 0af6 963f f3b6 c2bb c061 d7bd
000001a0: 4676 853c 3ec6 bb3f 8bb0 623d 6a5a 98bd
000001b0: 40f1 abbb 77a8 cbbd 1367 10bb 6803 fe3c
000001c0: d358 9dbc 4247 103d 4537 d93d 3d91 b63f
000001d0: aea2 99bc 908e 023d 43a0 273c 4bca afbd
000001e0: a0dd 1fbc 0b34 8b3e 0341 a53d 2b7f 28be
000001f0: 8538 cbbc 2eea 0a3e 23cd 95bb fbec 02be
-0.017932938 -0.0071110646 -0.018249072 -0.010243951 -0.027305612 0.21789424 -0.0047952645 -0.12916541
0.05156685 -0.17224447 0.022295821 0.17091799 0.05051202 0.08876086 -0.022494564 0.22437437
-0.030624425 0.22187756 -0.00409307 0.36040932 0.028224293 -0.044340022 -0.03635634 0.051254716
0.018410439 0.7643488 -0.009971294 -0.06897398 0.035896577 0.101516575 0.059781194 -0.039157573
0.009159742 -0.06405504 -0.0017776882 0.1422153 0.025717383 0.08155354 0.02532356 0.22391747
-0.012914887 -0.09457652 0.030348036 0.15561849 -0.019062433 0.4061482 -0.018137282 -0.0012788589
0.06561654 1.3586769 0.020485554 0.9521729 0.019223846 0.6049197 0.027392292 -0.1366862
-0.018396597 -0.005630242 -0.0029354822 -0.0114953965 -0.0034343614 0.55071205 0.017712345 0.07597979
-0.01313014 -0.4215519 0.018036576 -0.13017301 -0.005115174 -0.14513348 -0.0047502755 -0.117534816
-0.0054986565 0.79915166 0.05381339 -0.06503357 -0.020480279 0.057260375 0.04908889 -0.09763006
-0.029783174 0.16174424 -0.019125829 0.0075699645 0.02503546 0.65142506 0.028952418 0.20293279
-0.020800162 0.3486903 0.024546962 0.7390139 -0.005482011 -0.13015866 0.059857085 0.041725077
-0.019518984 0.2673501 0.022211965 0.2675991 0.019104019 1.1793835 -0.0059422194 -0.10516691
0.016291749 1.4669874 0.055344146 -0.0743912 -0.005247265 -0.099442415 -0.0022034093 0.031007484
-0.019207394 0.035224207 0.10606245 1.4263073 -0.01875433 0.03187424 0.01023108 -0.08583506
-0.009757429 0.27188143 0.080690406 -0.1645476 -0.024807224 0.13565895 -0.0045715733 -0.12785713

bias f4 [64]
00000000: 3fd2 223f b3ec dd3e 6806 f33e f369 0f3e
00000010: 49bc 453f 567c 02bf 4b0a 4abf 2fb1 263f
00000020: 59c1 9f3d ae5c 12be 2789 9d3d 6048 783f
00000030: 3b54 0e3e 9da7 193f 6d71 4cbf 4ab5 c6be
00000040: 85fa a33e ec8e e7bc a899 32be 9195 683f
00000050: b364 af3e 9c44 11be d66f 50bd 8cfc 2b3f
00000060: a411 5f3f 2323 843e cdce 813e f23b 283f
00000070: c6e0 823e 95cc 353e 9868 543f dc19 e13e
00000080: 3eb1 c43f 8103 c63e 881a c53e 8afb 353d
00000090: 2f22 4c3e 9e0a 2fbe 2014 df3b 71e8 8cbe
000000a0: c108 773f b9d1 c43e d149 49be 6464 c7bf
000000b0: e8dd 523f 6aaa b63f cca9 c83e d956 ce3d
000000c0: bc04 eb3b 89b4 b4be 0edf 8d3f 475d 8d3d
000000d0: 777d 043f 72b6 dd3e a191 5f3d 4f1d bc3e
000000e0: ccb3 593e f9cc e63e 9197 863e fc90 48bd
000000f0: d28c 2d3f 9eae 863f 392f 893e dd1e 933d
0.6360206 0.4334465 0.47465825 0.1400526 0.77240425 -0.5097097 -0.78921956 0.6511411
0.0780055 -0.14293167 0.07692175 0.96985435 0.13899319 0.6002138 -0.79860574 -0.38810188
0.3202707 -0.028266393 -0.17441428 0.9085322 0.34256515 -0.14186329 -0.050887905 0.6718223
0.8713629 0.25808057 0.2535309 0.6571647 0.25562114 0.17753823 0.829721 0.43965042
1.536659 0.38674548 0.38496804 0.04442934 0.19934915 -0.17093894 0.006807819 -0.2752109
0.9649773 0.38441256 -0.19657065 -1.5577512 0.8236985 1.4270756 0.39192045 0.100751586
0.0071721952 -0.35293987 1.1083696 0.06902557 0.51753944 0.43303257 0.054582242 0.3674111
0.21259993 0.45078257 0.2628751 -0.048966393 0.67793 1.0522039 0.2679384 0.07183621

weight f4 [64, 64]
00000000: 8a9a b2bc 0073 dc3c 568b f83c 38a5 ea3d
00000010: 3b10 823c 9363 7bbc 2176 bfbc 385b a03d
00000020: 5fab 50bd 771f 5f3d ebb3 ddbc 3378 933d
00000030: 5dbb d43d a263 5d3d 9223 7b3d 71e0 723d
00000040: 8ef4 7dbc 2702 bbbd 1887 053d 74f9 96bc
00000050: a63a c13c 478a 663d 9e3a 1dbd aa1e d8bc
00000060: e2b1 dabc e800 24bc 7267 dfbc a691 833c
00000070: 2539 b13c 6fa9 de3c 17bc bebc afe1 6e3d
00000080: 5a56 2cbd 7ad7 bc3d d8f8 153d 1d59 1a3e
00000090: ff54 debc 9f60 b7bb c0ca 633d 0fd7 50bc
000000a0: f06e b2bc ad99 8f3d c9f2 0a3d 10fc 2abc
000000b0: 1e1f 993d 2495 bebc 1351 a73d cb01 c6bc
000000c0: 6f29 3cbd 2e0c c6bc 25de c2bc d1b9 bc3c
000000d0: f951 dbbc 4c8a a3bc dc6b ce3c cbf4 8dbc
000000e0: 9ee2 0b3d 03ce d6bc e358 ab3d bbfa e5bb
000000f0: 9183 bd3b f888 e03d 5011 1cbd f731 323d
00000100: 1534 353d ba26 bb3c cec9 68bd 8697 a23d
00000110: 5c45 083d 9f99 bbbc b378 77bc 2d30 45bd
00000120: 48b7 ffbb 7062 9bbd 7989 ed3b 85dd 61bc
00000130: ef1a 85bc 71ac 5bbc 386b 2bbd 3272 ba3d
00000140: 89d3 463c c380 6b3d 215b 943d 5d68 ad3b
00000150: 4e90 a6bb c27a 713d 1992 54bd 03ab 9e3d
00000160: a6b6 79bc 693b c33d 4bee d23a f4bd c7bc
00000170: 590b af3a 64d2 fe3d f1e6 c4bc 3296 d03c
00000180: 72b7 3b3d f39e c1bc c2fc babb d346 a03c
00000190: 21d1 aabc 0e78 2b3d 5dc8 513c eca6 35bd
000001a0: 8b19 2dbd 796d d63c 213f ac3d 2d5f 5b3d
000001b0: 5958 c3bc 864e 013a 2949 c83d 9f18 293d
000001c0: 1330 053c 8909 3a3d 1409 253d d2c3 c13c
000001d0: 2d6b 093d 42fe cbbb 0457 e43b c133 10bc
000001e0: 4e47 0f3e b735 b73c 232b cd3c 8cdd 1d3d
000001f0: c797 98bc 878a 733d 2af4 20bd 9fdf 943d
00000200: 61ea 163c 6859 df3d 1657 873c 527b 003b
00000210: 9a2f 0e3d 4872 a7bc 15cf a93d 5d10 53bd
00000220: 75c4 fabc b4dc 643d 8e65 e83c fc51 94bc
00000230: f535 933b 4a9f baba a58c 11bd 0fec 5ebd
00000240: a1d6 d23d 0e1e bb3d d47f 27bd 2639 c13c
00000250: 0f06 c93d 7183 673c 8100 8f3b 9d7b a83d
00000260: d62c 673d 215f 873b cb5d a4b9 ce2e 06bd
00000270: 6562 84bc c7c5 a7ba 3805 fdbc 35a7 8a3d
00000280: ed60 af3c e0c9 bfbc 6653 bb3a bcc3 213d
00000290: a5ce eaba 589e 53bc 81e8 523c ebc5 f0bc
000002a0: 1ae5 4ebd e9a0 8e39 6a2d ad3a 7da7 3f3c
000002b0: b1a8 bdbc a98e 663a 8703 21bb 3972 a7ba
000002c0: 354e b13c 2ed4 1a3c 0847 d93d 5a1d ab3d
000002d0: a775 023e aa2d 1bbc 1794 26bc 0f0e 393c
000002e0: f7b5 7e3d 80b5 733d 6789 883a ed5f 6f3d
000002f0: fcf0 63bd 5f30 b5bc c3ca 27bd 9514 3b3b
00000300: ae4f 973d b128 023e 1a45 103d 74d0 893d
00000310: a1a3 53bc f56f 8abb 7628 cd3b 221a c93d
00000320: 1740 483c 2c47 0ebd 6be3 d9bc eadd 893c
00000330: 3b9d b1bc 885f 36bd 545b 2cbb 3f93 153d
00000340: 5cbf a63c 1a90 8bbd 25d3 a33c cd0f 803c
00000350: 3dd6 c33c e536 8e3d 4c70 3abd 6c44 043c
00000360: 41f8 9abc f8fe fabc f67c e3bc 7940 df3d
00000370: 9d71 7f3c a17e 373c a800 bcbc 2bbf bdbc
00000380: 34b7 41bd b3bc a4bc e007 083d 5160 9c3c
00000390: 16c8 ccbc 86ae 333d 3f51 9d3d 9eaf c7bb
000003a0: a601 f4bc 73fd d83b c1f3 01bd 3672 b43d
000003b0: 2d02 b7bc 9092 c9bc df6a a13d 5a17 f4bc
000003c0: 0c93 f8bc aae5 dc3d 8b05 c0bc 5b0f 653c
000003d0: d53e b43d 9122 c8bc 724f 983d 2171 333d
000003e0: a261 363d b055 febc 5d61 123c 9a49 b03b
000003f0: a739 16bd 5533 a03c f693 44bc 2550 923c
-0.021802206 0.026910305 0.030339878 0.11457294 0.01587688 -0.015343565 -0.023371758 0.078298986
-0.050944682 0.054473367 -0.02706333 0.072006606 0.10387299 0.054050095 0.06131322 0.059296075
-0.015500201 -0.0913127 0.03259954 -0.018429495 0.023587536 0.056284215 -0.03838598 -0.02638181
-0.02669615 -0.010009982 -0.027271006 0.016060662 0.021633694 0.027180402 -0.023283048 0.058320697
-0.04207454 0.092207864 0.03661427 0.15073057 -0.027140139 -0.005596235 0.05561328 -0.012746586
-0.021781415 0.07011733 0.033922944 -0.010436073 0.07476638 -0.023264475 0.081697606 -0.024170777
-0.04593795 -0.02417573 -0.023787567 0.023037823 -0.026772486 -0.019963406 0.025197916 -0.01732864
0.034151666 -0.02622128 0.08366563 -0.007018415 0.005783506 0.10963625 -0.038102448 0.04350468
0.044239122 0.022845615 -0.05683308 0.07939057 0.03326927 -0.0229004 -0.0151044605 -0.048141647
-0.0078038312 -0.07587135 0.007249054 -0.0137857245 -0.016248195 -0.013407812 -0.0418503 0.09103812
0.012135395 0.057495844 0.07243944 0.005291982 -0.0050831204 0.05895496 -0.051897142 0.07747462
-0.015241301 0.09532816 0.0016092745 -0.024382569 0.0013354822 0.124424726 -0.024035903 0.025462244
0.045829244 -0.023635363 -0.0057064006 0.019565022 -0.020851674 0.04186254 0.012804118 -0.044348642
-0.042260688 0.026175248 0.084104784 0.053557564 -0.023845838 0.00049326604 0.09779579 0.041283246
0.008129138 0.04541925 0.04029186 0.023652945 0.033549476 -0.0062253783 0.006968381 -0.008801402
0.13992044 0.02236448 0.025044983 0.03854136 -0.01862706 0.05945828 -0.039295353 0.07269215
0.009211154 0.10905725 0.016521018 0.0019604755 0.034713365 -0.020440236 0.08291451 -0.051529277
-0.030611256 0.05587454 0.028368738 -0.0181055 0.004492516 -0.0014238146 -0.03553452 -0.05442434
0.102948435 0.09136592 -0.04089339 0.02358682 0.09815609 0.014130459 0.0043640737 0.08226702
0.056439243 0.0041312133 -0.000313504 -0.03275948 -0.0161602 -0.0012800031 -0.030886278 0.067701735
0.021408523 -0.023411691 0.0014291822 0.039493307 -0.0017914368 -0.01291617 0.012872816 -0.02939125
-0.050511457 0.00027204238 0.0013212387 0.011697647 -0.023151727 0.0008795062 -0.0024568753 -0.001277513
0.021643737 0.009450002 0.10609251 0.08355208 0.12740193 -0.009471336 -0.010167143 0.011294856
0.062185254 0.059499264 0.0010416926 0.05844109 -0.055649742 -0.022117792 -0.040964853 0.0028546203
0.073882446 0.12710835 0.03522215 0.067292124 -0.01291743 -0.004224772 0.006260927 0.098194376
0.012222311 -0.034735844 -0.0265977 0.01682945 -0.021681419 -0.0445247 -0.0026299553 0.036517378
0.02035492 -0.068145946 0.019998142 0.015632534 0.023905868 0.06944064 -0.04551725 0.008072954
-0.018917205 -0.030639157 -0.027769547 0.10900969 0.015591052 0.011199624 -0.022949532 -0.023162445
-0.047293857 -0.02010951 0.033210635 0.019088896 -0.024997752 0.04386761 0.07681512 -0.0060939332
-0.029785942 0.0066220104 -0.031726602 0.088108465 -0.022339905 -0.02460602 0.07881712 -0.029796291
-0.030343555 0.107859924 -0.023440143 0.013980712 0.08801047 -0.024430545 0.07437028 0.04380906
0.044526704 -0.031046718 0.008934346 0.0053798677 -0.036676075 0.019555727 -0.011998167 0.017860482

bias f4 [64]
00000000: f621 d5bc 6f7d 76bc 6ff9 983d 1e28 00bd
00000010: 85dd db3c a42d 7d3a 4f67 03bc a83a ddbc
00000020: e7b1 723c 653c 043d ba7f 7dbb 6384 9ebc
00000030: bde8 a6ba a974 d63d 8ff1 f03b 5ff6 66bc
00000040: b600 443a 9ad9 0cbd f86c e83c fcd9 6ebc
00000050: 8915 023d ea14 f53c c52c 88bc cee2 573d
00000060: 13ba 503d df1c a33d 9442 8b3d 011d 02bd
00000070: 071c 6abc fe3e 53b9 318f 1d3d 8161 563d
00000080: 43ac 01bd 0b71 053d b308 d73d f944 ca3d
00000090: b0d6 3abb 516e c9bc 0fd6 bd3c 2121 aa3c
000000a0: ff84 f0bc 8d33 6ebc 36e5 b93d e3bd 9fbc
000000b0: c8a3 3cbc 1f93 ff3c ae3c 2e3d e1d5 473d
000000c0: 7925 05ba 16ff a33d e090 a4bb 8951 92bc
000000d0: 8718 f0bc f5bb 5e3d 859f 613b 0c03 11bd
000000e0: fb6e 82ba 32ea b8bc 42fe 3a3d 994d 60bc
000000f0: 8602 21bd 48b6 2dbc 0f1c 9bbc 7bb5 d6bc
-0.02601717 -0.015044554 0.07469451 -0.03128826 0.026839027 0.0009657985 -0.008020236 -0.027005509
0.014812923 0.03228416 -0.0038680867 -0.019350236 -0.0012734156 0.1047147 0.007353015 -0.014096825
0.00074769126 -0.03438721 0.028372273 -0.014578339 0.03175882 0.0299172 -0.01662291 0.052706532
0.050958704 0.07964491 0.06799808 -0.03176594 -0.014288909 -0.00020145994 0.038466636 0.05233908
-0.031658422 0.03257851 0.10499706 0.09876437 -0.0028509311 -0.024588736 0.02317336 0.02076775
-0.029360292 -0.014538658 0.09076922 -0.019499725 -0.011513658 0.031198082 0.042538337 0.048787955
-0.0005079131 0.08007638 -0.0050221533 -0.017861145 -0.02930857 0.05437847 0.0034427356 -0.035403296
-0.0009951288 -0.02257261 0.045652635 -0.013690376 -0.039309047 -0.010602541 -0.018934278 -0.026209584

weight f4 [64, 64]
00000000: 51a1 62bc c8ea a23d 5eb5 c0bc a78d 4bbc
00000010: 0342 803d ab16 5e3c 0ee1 d4bc a062 043d
00000020: 398e 23bd db33 0dbd 5176 0bbd 3bdb 8f3c
00000030: 43bb 373c 810d 1bbd d0a5 a23c 4d1e a33d
00000040: b9dc a4ba 06ac 5b3d e0ff 5f3c cd20 143d
00000050: 86e1 c2bc cb6a 42bc 6eb9 aebc 8b58 993d
00000060: 2e3f 2c3a c8ce 193d 6da1 f6bc 184f 2339
00000070: 66c7 0fbc 2541 eabc e8ba 0ebd e089 ff3c
00000080: f659 c1bc 33fc e0bc 4156 71bc d937 cb3d
00000090: 45b1 c53c 84df 143d 2cb9 b5bc 7d76 e7bc
000000a0: a5f5 8f3d 4330 643d 2f38 003b 19c0 083c
000000b0: 52f4 363d 9919 49bd 76bd db3d bb3c 8bbd
000000c0: 4ac7 ec3d 2b4a 143d 005a 523c 5875 82ba
000000d0: ec10 25bc 5561 e0bb 2d43 a8bc 26ae bcbc
000000e0: 8022 84bc 1ec1 90bc 344c 0cbc 6f62 ba3c
000000f0: 1e12 1dbc 8290 ccbc 9fd5 cd3b 5fc1 293d
00000100: b3a9 49bd 1cb1 5e3c 6889 92bc 3208 19bd
00000110: 7032 9dbd 2d78 ffbc 6a9c 8cbc 5057 8d3d
00000120: 7409 9dbc 9544 033d 5646 a5bc 0dd1 e0bc
00000130: d2ee c4bc 2fda 59bc e421 103c b020 943d
00000140: 6ea1 923c a352 903c efb1 f23d 299b 59bd
00000150: 5b3e 8ebc 0669 95ba 8c34 773d 88df 61bc
00000160: 6fd1 d0bc bce5 903c 1de4 1a3d 25ee 4ebd
00000170: 67cc 613d 6245 6cbc 4d5c 7dbd 2b21 63bc
00000180: b4d6 913d a29f 4a3c e168 94bc 04f7 5ebd
00000190: 9ec1 f3bc f8cb 2cbe c270 a4bc b55c a1bc
000001a0: d2bb 2bbc 2ae3 cebc e1f3 56bd 5a13 bdbd
000001b0: 1eb5 21bd 9a48 1b3c 29db 68bc 5b7f 143e
000001c0: 6ada 55bd 6f8f 213d 9180 633d 06e8 123d
000001d0: 94b9 dcbc 0d78 b73c ccdf 2b3d 6c95 8b3d
000001e0: 99f7 e1bb 6b0d 0ebd fbc2 44ba 8983 64bd
000001f0: 16ad 61bd 682d fabb b3a1 443d 2e2b 86bc
00000200: 4093 d1bc 16eb 003d 77ce 9dbc 316e 393d
00000210: 8675 bfbb 3a0b e5bc b90e 053d 2c52 b83c
00000220: b309 25bd 732d d53d 27f5 13bd 5d16 223d
00000230: 4e70 2ebc 5aec 37bd ccb5 7dbc a7ba 91bc
00000240: 4448 403d f1d1 443c 9eb5 853c 4a28 e5bc
00000250: 1527 d5bb 6c68 923d 8afc febc ae59 1bbc
00000260: 3ea1 b53d 9ce8 0bbd d5a2 10bd 21e4 6fbc
00000270: 3bdb fcbc f1ee e7bc 32e8 25bd 03c8 cabc
00000280: 1226 f83d 7ed4 24bd 2d4d 933b a9b1 a13c
00000290: ea22 8c3d c06a 00bd 1c91 95bc df78 16bd
000002a0: 55e0 04bd 4734 ec3b 28a3 213d a0ac 403d
000002b0: 7ff0 e5bc 8213 62bd 2688 333b a85b 74bc
000002c0: a08d a3bc 76fa 9d3c b49d c1bc 0a59 a73c
000002d0: 85a0 d4bc 1bd3 81bc 63b7 16bd 1955 79bc
000002e0: 7456 d5bc 868e 1f3d e450 63bd 8d13 6d3d
000002f0: 902a bebc dc88 e2bc 63d0 37bc fb8e 18bd
00000300: 9efc 323e f7f7 1a3e 5362 043d 0301 363e
00000310: 3ff1 bf3e f806 273e 3c99 ea3d b93d da3e
00000320: 1961 213e 757d 553e 5930 f13d 424a 883d
00000330: 3ed0 b23e 56a3 ff3d 5e32 f23d 7e85 893e
00000340: 2e04 a3bc 9562 5e3d bcb8 373e d747 803e
00000350: 19d9 4f3e b5dc 013e a9fb 613d e6ad 963d
00000360: fbde 2d3e 4a56 9c3e 928d c03e e363 ce3d
00000370: 7ad3 0d3f 7654 4d3e 05a5 a53d 6e14 483b
00000380: f5de 1c3f 5da3 513e 2cc7 56bc 4d96 843e
00000390: 0710 4c3e efd9 103e c189 373e 9239 7a3e
000003a0: d8cc ad3d b16c fe3d 2550 0c3e f7d0 f33e
000003b0: 2073 a03e caf1 3e3e fdaa a03d 9b90 f13e
000003c0: 1aed b83e 027f a73e 6a42 733d 9cde 4c3c
000003d0: a5af 973d 01dd 843e 0986 c33d 2637 b33b
000003e0: 32d5 a03d a9ee 323e 7419 0c3e 6184 ae3e
000003f0: fc8d 133c d55f 093e fceb 333f 3e16 063f
-0.013832406 0.07954937 -0.023523983 -0.012423909 0.06262591 0.013555209 -0.02598622 0.03232062
-0.039930556 -0.03447328 -0.034048382 0.017560592 0.01121408 -0.037854675 0.019854456 0.07964764
-0.0012577988 0.05363085 0.013671845 0.036164094 -0.023789179 -0.011866282 -0.021328654 0.07487591
0.0006570694 0.037550718 -0.03010627 0.00015574356 -0.008775568 -0.028595516 -0.034846216 0.031193674
-0.023602467 -0.027464008 -0.014730037 0.099227615 0.02413238 0.036345974 -0.022183023 -0.028254742
0.07029275 0.05571009 0.0019564738 0.008346581 0.044666596 -0.049096677 0.10729496 -0.06798693
0.11561449 0.036203545 0.0128388405 -0.0009953184 -0.010074835 -0.0068475404 -0.020539844 -0.02303226
-0.016129732 -0.01767021 -0.00856309 0.022752015 -0.009586839 -0.02497125 0.006281569 0.04144418
-0.049234103 0.013592031 -0.017887786 -0.03736133 -0.07675636 -0.031185234 -0.017164428 0.06901419
-0.019169547 0.032047827 -0.02017514 -0.027443433 -0.02403966 -0.013296648 0.008797143 0.07232797
0.017899241 0.01761753 0.118503444 -0.053126488 -0.017363718 -0.0011399097 0.060352847 -0.013786204
-0.02549049 0.01768767 0.037815202 -0.05052008 0.055126574 -0.014420839 -0.061855603 -0.013862888
0.071210295 0.012367161 -0.018116416 -0.05443479 -0.02975541 -0.16874683 -0.020073298 -0.019697526
-0.010481792 -0.025254805 -0.052478675 -0.09232207 -0.039479367 0.009477759 -0.014212408 0.14501707
-0.05221025 0.03944343 0.055542532 0.035865806 -0.02694396 0.022396112 0.041961476 0.06815609
-0.006895971 -0.034680765 -0.0007505861 -0.055789504 -0.05509671 -0.0076348074 0.04800577 -0.016378012
-0.02558291 0.031474195 -0.01926349 0.045271102 -0.0058428673 -0.027959455 0.032484744 0.02250012
-0.040292453 0.104090594 -0.036122467 0.03957211 -0.010646893 -0.044903137 -0.015485238 -0.017789198
0.046943918 0.012012945 0.016321953 -0.027973313 -0.006504903 0.07148823 -0.03112628 -0.0094818305
0.08868645 -0.03415738 -0.03531154 -0.0146417925 -0.030866256 -0.028312178 -0.04050464 -0.024753576
0.12116636 -0.04024171 0.004495284 0.019738035 0.06842597 -0.031351805 -0.01825767 -0.036736365
-0.032440502 0.0072083804 0.03946224 0.047039628 -0.028068779 -0.055194385 0.0027394383 -0.014914431
-0.019964993 0.019284468 -0.023634769 0.0204282 -0.025955448 -0.015847733 -0.036795985 -0.015218043
-0.0260422 0.03895428 -0.055497065 0.057879973 -0.023213655 -0.02765315 -0.011219117 -0.03724573
0.17479178 0.15133654 0.03232033 0.17773823 0.37488744 0.16311252 0.114550084 0.42625216
0.15759696 0.2084864 0.117768 0.066547886 0.349245 0.12482326 0.11826013 0.2685966
-0.019899454 0.054293234 0.17941564 0.2505481 0.2029766 0.1268185 0.055171642 0.07357387
0.16979592 0.30534583 0.3760801 0.10077646 0.5540081 0.2005175 0.080881156 0.0030529755
0.61277705 0.20472474 -0.01310901 0.2589592 0.19927989 0.14145635 0.17923643 0.24436024
0.084863365 0.12423075 0.13702448 0.47620365 0.31337833 0.18646923 0.078451134 0.47180638
0.36118394 0.32714087 0.05938951 0.012504246 0.074065484 0.25949863 0.095470496 0.0054692207
0.07853164 0.17473854 0.13681585 0.34085372 0.00900602 0.13415463 0.7028196 0.5237769

bias f4 [64]
00000000: 9b09 1cbd 85d1 4c3b 3499 08bd e4d0 0f3d
00000010: 79d0 a2bc c7bf b5bb a3a5 b6bc a845 dcbc
00000020: b258 ce3c 6ffa 2fbd 54dd b23d b2e9 08bd
00000030: 1103 043c 0a79 b6bc 3430 77bb 0214 153d
00000040: 318f ff3b 5ba4 2fbc b297 8abd 2b01 74bb
00000050: 8ae0 0abd cdcf f0bc 12e5 463d 50f1 c13b
00000060: a8ab 43bd 6d1b 7d3d 695f 133e 77d6 b4bc
00000070: 70aa 163d e613 56bd 0c3d 11bd d826 78bd
00000080: 6ee7 febb bbb5 ab3d aaaa 13bd 549a 7e3d
00000090: dba1 b13c c7cd c33d aaa1 28bd 5364 e33d
000000a0: f89a 6cbb 5836 463d 499a 163e cfd8 583d
000000b0: 9c9f 833d 8df0 2dbc 9328 23bd 8d0d 73bd
000000c0: 5ec0 aabc 8404 ba3c b159 643d 7a7a 493d
000000d0: 8e01 d9bc 8eae da3c a7ce e4bc a345 ccbc
000000e0: 4262 ee3d d37d c7bb 1f68 fd3b 60e8 493b
000000f0: b4ff c93d 09f1 91bc 7973 31bd a9d7 d3bb
-0.038095098 0.0031252813 -0.03334923 0.035111323 -0.019874798 -0.0055465433 -0.022295779 -0.026888683
0.025188778 -0.04296344 0.08733621 -0.033425994 0.008057372 -0.022274513 -0.003771794 0.036396034
0.007799052 -0.010720338 -0.06767215 -0.0037232141 -0.033905543 -0.029395962 0.048558302 0.0059186593
-0.047771126 0.061793733 0.14391865 -0.022074921 0.036783636 -0.05226507 -0.03545861 -0.06058392
-0.0077790534 0.08384272 -0.03605143 0.062158898 0.021683624 0.09560733 -0.0411698 0.1110312
-0.003610311 0.04839167 0.14707293 0.05294114 0.064269274 -0.010616434 -0.039833616 -0.059339095
-0.020843681 0.022707231 0.0557496 0.04918907 -0.02649 0.026694562 -0.02793057 -0.02493555
0.11639835 -0.0060879975 0.0077333595 0.0030808672 0.098632246 -0.01781513 -0.043323014 -0.0064649177

weight f4 [5, 64]
00000000: 2904 2a3c ab1a 3b3d 0499 d8bc 1455 e23c
00000010: 7661 bbbb 373c a53d 8f4f dabc dc16 073c
00000020: e6bc 91bc 46e3 413b 3ab3 55bc 79dd 7d3d
00000030: 979e e93d f214 cabc ca5e bf3c d254 42bc
00000040: 062e ce3c 4276 2abc 3600 cfbc 58dd efbb
00000050: 9b1e 8cbc 3507 05be 7ab4 d93d a9ac 11bb
00000060: 8882 95bc c537 a93d d25e a23d af8d 8cbc
00000070: 8b94 833d 950c 1abc e81a 6fbd c513 aebc
00000080: 84bd d83c 2e6a eabb 29ab 03bd 071b 52bc
00000090: deaa 99bc 877e 1d3e 625f 00bc ebd8 8f3d
000000a0: 3273 793d ce78 40bc aceb 713d 87d8 17bc
000000b0: 6ad6 5a3c 7eeb ef3b 717a 32bc 63ba b4bd
000000c0: 8718 73bc 60a0 ee3c 09b7 ad3d c314 2a3c
000000d0: f384 a7bc 31c1 cb3d 86eb 8bbc 99d5 8fbc
000000e0: 09d6 b43b 9967 4b3d 1406 043e 3013 233c
000000f0: 6694 803d 11c6 96bd 2769 c0bc 8f23 143d
00000100: 96a0 943c 3c0c 0d3d 8cbf d53d 6197 27bb
00000110: 2445 123c 25d9 2bbe 87fb a4bb e071 763d
00000120: 4c92 36bc ae22 a73d c507 8cbc a499 033e
00000130: 6c5d e73d 29dc 5cbc 1d50 96bc 5d8b 993c
00000140: f506 98bc 5bd3 96bc d8d1 9dbc 69ec e6bb
00000150: 18d7 113d d0a0 9abc 46c0 5a3c 8922 afbc
00000160: 574e 3ebc f0c5 033e 6608 9cbc b9ae 9bbc
00000170: 0b86 c93d 1fa1 413d 1894 81bc da9b 183d
00000180: 17ea ec3c 54f8 a2bc 9630 05bc 067d b83d
00000190: 4ff7 92bc f006 0f3e 5e88 cc3c d7bb 1bbc
000001a0: 22f6 ad3d 3690 7bbc 480b babc df80 9fbc
000001b0: 80a8 be3d dbe6 b43d ee89 9fbc f237 943d
000001c0: f4e0 a9bc 5b49 babc 7be6 7fbc 643f 933c
000001d0: aa51 b53d 4815 e6bb 2e9b 2c3d 0836 93bc
000001e0: ce31 dcbc e34a 0cbc 7375 ca3b e8de 143e
000001f0: 7521 f5bc 4d84 a53d 354e b73d bc35 85bc
00000200: 1e17 f4ba 87a0 413d 8ad2 a13d c472 40bd
00000210: f50e 03bd 731d 343e 714c 193d 2d20 933d
00000220: e419 1cbc 70e1 003e 79f5 3fbc 26fb e33d
00000230: 5796 eabb c7ef d0bc fa24 cbbc a5ae b5bc
00000240: 1acd 723d 8a1a 843d 46d2 e136 62a0 d43d
00000250: 918b 6d3d 5830 81bc 6c1a 8e3d 6f95 413c
00000260: 09ac d93d 6eed 863d 32f1 a4bc 45a0 ee3c
00000270: da1d 7fbc 0639 97bc 2a03 593c b46a 7f3d
00000280: f97c 80bc 6c6c aabc 854b 05bc 5a86 0f3e
00000290: f0f3 c33d 3776 a73d 77bf b7bc a594 503c
000002a0: a33a 26bc ec53 d4bc aa30 f3bc 4bfb 753d
000002b0: 1b41 78bb 70c1 a9bc 529a 233a a192 1c3e
000002c0: ba6a 91bc 4d42 05bd 73de acbc 7a4f 813d
000002d0: 5445 913b 613e 8a3c 3afd 733d ca3a 95bc
000002e0: b725 dbbc 0f16 da3d 0fcb cd3d a11a 003e
000002f0: e742 7dbd 2ceb 263d a957 d9bb d11a 343d
00000300: b644 78be 03cf 423e 79ab 11bc 3c04 003d
00000310: f7c6 c4bb 0eac 21bd bf48 dc3d b4eb 92bd
00000320: ec65 a13d 9499 abbd 94b5 88bb 75e0 1a3e
00000330: d45d 093d 88f3 d63d 4a80 233e bff0 3f3d
00000340: e597 4ebd 9a99 68bd 1851 5bbc fd5c 1d3d
00000350: d469 7ebd 926b 4e3e 70b9 f7bc de3f bbbb
00000360: 6337 02bd 4c78 c83d 26a9 ecba de57 603d
00000370: d182 3b3c dfb8 81bd 3d96 0f3d b6e5 04bd
00000380: e7b3 73bd 44b6 14bc 61d5 1c3e 5d07 cebd
00000390: 3d85 35bd d279 27bd 107c 51bd 269a ebbd
000003a0: e757 583d 1c29 393e 1990 883c 5b1d c6bc
000003b0: ff1f dabd 8012 023e 94ac adbd d016 3abe
000003c0: 0ce7 d23b 1d69 e63c edfb cebc bdb6 063d
000003d0: 6bf3 3839 c960 723d 3596 09bd 98f5 88bc
000003e0: 9c00 98bd 5e26 47bd fa4e e23d 52b5 70be
000003f0: 42f7 493c ea64 86be ffc5 0e3e bd2d ff3c
0.010376968 0.04567973 -0.026440151 0.027628459 -0.0057184054 0.08068126 -0.026649265 0.008245196
-0.01779027 0.0029584928 -0.013043219 0.06197879 0.11407202 -0.02466819 0.023360629 -0.011861043
0.02516843 -0.010404171 -0.025268655 -0.0073200874 -0.017104438 -0.1299103 0.10630126 -0.0022228158
-0.018250719 0.0826259 0.07928242 -0.017157404 0.06424817 -0.009402414 -0.05837527 -0.021249661
0.026457556 -0.007153771 -0.032145653 -0.012823827 -0.018758234 0.15380298 -0.007835241 0.07023796
0.060900874 -0.011747552 0.059062645 -0.009267933 0.013356784 0.007321774 -0.01089345 -0.08824613
-0.014837391 0.029129207 0.08482177 0.010380927 -0.020449137 0.09948958 -0.01708008 -0.017557906
0.005518679 0.049659345 0.12892944 0.009953305 0.06278305 -0.07361997 -0.02348764 0.036166724
0.01814298 0.034435496 0.10436925 -0.0025572407 0.008927617 -0.16782053 -0.005034867 0.060167193
-0.011143278 0.081609115 -0.017093549 0.12851578 0.11297116 -0.013480225 -0.018348748 0.018743211
-0.018558005 -0.018411329 -0.0192651 -0.0070472253 0.03560552 -0.01887551 0.013351506 -0.021378772
-0.011615357 0.12868476 -0.019046973 -0.019004213 0.0984002 0.047272798 -0.015817687 0.037258007
0.028920216 -0.019893803 -0.00812926 0.09008221 -0.017940192 0.1396749 0.024967369 -0.009505234
0.08494212 -0.015354207 -0.022710457 -0.01947063 0.093094826 0.08833095 -0.01947495 0.07237233
-0.020737149 -0.022740057 -0.015618916 0.017974563 0.08853467 -0.00702158 0.04214018 -0.0179701
-0.026879217 -0.008562776 0.006178552 0.14538157 -0.02992318 0.08081875 0.08950464 -0.016260974
-0.0018622612 0.04727223 0.07901485 -0.04698445 -0.031996686 0.17589359 0.037426416 0.071838714
-0.009527657 0.12585998 -0.01171624 0.11131887 -0.007159035 -0.02550496 -0.024797905 -0.022178004
0.05927763 0.064503744 6.7300016e-06 0.10382153 0.05799443 -0.015770122 0.06938633 0.011815413
0.10628516 0.06588255 -0.020134542 0.029129157 -0.015571082 -0.018459808 0.013245383 0.06235762
-0.015684592 -0.020803653 -0.008135681 0.14016095 0.09568012 0.081768446 -0.022430165 0.012730752
-0.010145816 -0.025918923 -0.02968629 0.060054105 -0.0037880603 -0.020722121 0.0006240952 0.1529031
-0.017751087 -0.032533932 -0.021102166 0.06313987 0.0044333134 0.016875448 0.059567668 -0.01821651
-0.026751382 0.106487386 0.10048496 0.12510158 -0.06183138 0.04075162 -0.0066327644 0.043970887
-0.24244961 0.19024281 -0.00889098 0.03125404 -0.006005164 -0.039470725 0.10756063 -0.07173863
0.07880768 -0.08378902 -0.0041720364 0.15124686 0.033536747 0.10495669 0.15966907 0.046860453
-0.050437827 -0.05678711 -0.0133860335 0.03841876 -0.062112644 0.20158222 -0.03023979 -0.0057144007
-0.031791102 0.0978857 -0.0018055781 0.054771297 0.011444763 -0.063340895 0.035055388 -0.032445632
-0.05949774 -0.009076659 0.15315773 -0.10059998 -0.04431652 -0.04088766 -0.051143706 -0.11504011
0.052818205 0.18082088 0.016670274 -0.02418392 -0.10650634 0.1270237 -0.08480182 -0.18172765
0.0064362343 0.028126294 -0.025266612 0.032889117 0.00017638288 0.059174333 -0.033590514 -0.01671867
-0.07421991 -0.048620574 0.1105022 -0.23506668 0.012327017 -0.26248866 0.13942717 0.03114974

bias f4 [5]
00000000: 4d41 213d c06a e2bc ba52 af3c e4a0 1f3d
00000010: a89a 0c3e
0.039368916 -0.027638793 0.021401752 0.038971797 0.13730872
