pytorch/architecture/t-Q_T-k-TG/without_GC_data/model.pt (torch, 4615 bytes, 8 tensors)

weight f4 [10, 2]
000000 9f 2b ea ba 13 12 18 3d 76 c2 a4 3a 92 6b 81 be
       -0.0017865783 0.037126612 0.0012570161 -0.25277382
000010 80 7c b4 bb e0 33 86 3e bc c9 a5 ba 0b 35 16 3c
       -0.0055080056 0.26211452 -0.0012648623 0.00916792
000020 21 75 17 3a f9 26 99 3a e0 e6 eb ba a4 1b 81 3e
       0.00057776464 0.0011684588 -0.0017997883 0.252164
000030 5c 82 20 bb e2 fa 26 3f e5 fe c1 bb 93 ef 4e 3f
       -0.0024491763 0.65226567 -0.0059202784 0.8083431
000040 4b 88 5f bc db 45 8c 3e a9 fe 37 3b f6 47 1c 3e
       -0.013643335 0.27397045 0.0028075373 0.15261826

bias f4 [10]
000000 ef c1 22 3f 3e d5 9a 3e 23 67 3d 3f 95 7b e3 3e
       0.6357717 0.30240816 0.739855 0.44430223
000010 d0 14 45 3f 1b fb bc 3e 34 f0 58 3e b8 a3 a0 3f
       0.7698488 0.36910328 0.2118538 1.2549963
000020 a6 98 40 3f a7 05 60 bd
       0.75232923 -0.05469289

weight f4 [10, 10]
000000 9c cc 48 be 53 b9 66 bf 92 6f 1c 3e 00 12 96 be
       -0.19609302 -0.9012653 0.15276936 -0.29310608
000010 6a 79 d1 3d 7d e5 40 3f 17 0f b1 3e 79 11 a6 be
       0.10228236 0.7535017 0.34581825 -0.32435206
000020 f7 16 4f 3e ac c8 8c be 84 0c 81 be 02 7e 64 be
       0.20223604 -0.2749685 -0.2520486 -0.22313693
000030 5f c0 60 bd cb 0d 2e be fd f8 2d 3e 96 4e 91 3e
       -0.05487096 -0.16997449 0.16989513 0.2838027
000040 cb 82 22 3e 11 02 1c be cf 94 3f 3e 31 f6 bd 3d
       0.15870206 -0.15235163 0.1870911 0.09275473
000050 43 ac e3 3e 8f c4 0f 3f 7a 61 6d 3e 6f cb d5 3e
       0.44467363 0.561593 0.23181716 0.4175677
000060 c1 b8 8c 3e 2b 89 cd bd 84 87 0a 3d ca 85 10 3e
       0.27484706 -0.10035928 0.033820644 0.14113536
000070 a9 ec 7a 3e 14 36 32 3e 5e e9 90 be af 39 ae 3c
       0.24504341 0.17403442 -0.28303045 0.02126774
000080 34 d3 32 3d 14 8b 91 be bf 8b d5 3d ea 6d a6 3d
       0.04365845 -0.2842642 0.10427045 0.08126433
000090 ed f0 94 3e ce 7e 5f be 7e 4b 05 bd 3e 70 08 be
       0.29090062 -0.21825716 -0.032542698 -0.13324067
0000a0 eb d0 f2 bd 0e da a4 bd b9 0e 3e bd f8 86 1c 3e
       -0.11856254 -0.08049403 -0.04640076 0.15285861
0000b0 62 8e 91 3e 1b f0 81 3d 8e 2f e1 3d 04 d5 18 bd
       0.28428942 0.063446246 0.109953985 -0.037312523
0000c0 3f 46 4e 3e 1e 7b 19 ba 99 fe 5c be 73 ea 38 3e
       0.20143984 -0.00058548327 -0.21581496 0.18058185
0000d0 ca 2a f7 bc 30 24 5b be 85 9e 97 3d 5c a2 83 3e
       -0.03017177 -0.21400523 0.07403282 0.25709808
0000e0 c1 76 84 3e e1 87 61 be 9b 85 44 bd 26 f7 9b bc
       0.25871852 -0.2202449 -0.04797898 -0.019038748
0000f0 96 49 a4 be 03 78 8a bd 9f 7f 83 bd b3 cd a5 be
       -0.32087392 -0.06761172 -0.06420826 -0.323835
000100 6d cc 65 3e 10 8b c3 3d ff ed a9 3d 66 d3 5d be
       0.22441263 0.095480084 0.08297347 -0.21662673
000110 27 f8 bc 3d fe 37 5a be 9b 39 71 be b6 33 4b 3d
       0.09227019 -0.21310422 -0.23557131 0.049609862
000120 ac 22 24 bc e3 46 9b be ef 65 a5 3e 50 3a d4 3e
       -0.010018032 -0.3032752 0.32304332 0.4145074
000130 c7 1b 75 3e ee 37 f3 bd ee 7a d0 bd b2 5f 00 be
       0.23936377 -0.11875902 -0.10179697 -0.12536505
000140 d4 96 80 be 82 ad 8f be 6d 83 a8 3d 8d 5d 6e be
       -0.25115073 -0.28062063 0.082281925 -0.23277874
000150 2e 80 c7 3e b3 ba eb 3e af 42 dc 3d 7f 0d c6 bd
       0.3896498 0.46040878 0.107549064 -0.09670543
000160 5b 50 52 3e 55 f8 dd bd ba 87 df be b6 2d 82 bd
       0.20538466 -0.10838381 -0.4365824 -0.06356375
000170 a6 11 d4 3d 72 1c d6 be 6c 53 e5 3d b6 b6 91 3e
       0.10354929 -0.41818577 0.11197552 0.2845971
000180 88 9c 0d 3e b3 41 c3 be 34 d7 68 3c 67 68 aa be
       0.13829243 -0.38136062 0.014211465 -0.33282778

bias f4 [10]
000000 1c 8b 85 3e b6 50 42 3e 77 5f 08 3e 68 b9 c9 3d
       0.26082695 0.18976101 0.13317667 0.098498166
000010 02 0b f4 3d 3f 2e 91 3e 60 b3 5f 3e 65 ae 99 3d
       0.11916162 0.28355595 0.2184577 0.07503966
000020 e7 5f f8 3d 84 c5 b0 3e
       0.12127667 0.34525692

weight f4 [10, 10]
000000 43 d0 68 3e 9d ff ca 3e 4b e8 77 be e1 d2 9c 3e
       0.22735696 0.39648142 -0.24209706 0.30629638
000010 17 d4 57 3e 10 ee 2e 3e a8 71 91 3e 47 2f 04 3f
       0.21077 0.17083001 0.28407025 0.5163464
000020 a5 85 a7 3e 69 0d aa 3e 0f c3 a8 3e 5f d1 96 3d
       0.3271915 0.33213356 0.32961318 0.07364153
000030 06 03 3e bf 96 00 be 3e ae 11 23 bf eb 66 01 3f
       -0.74223363 0.37109822 -0.6369885 0.50547665
000040 e5 78 8b 3e 09 c0 0a 3f 41 48 4a 3f 52 c4 d4 3e
       0.27240673 0.5419927 0.790165 0.4155603
000050 b3 da df 3e 2e 5d bc 3e e6 0e 12 be 8b 14 aa 3e
       0.43721542 0.3678984 -0.14263496 0.33218798
000060 68 95 d4 3d 67 cd 29 3e 8d 5b 96 3e 52 7e 4f 3e
       0.103800595 0.16582261 0.29366723 0.20263031
000070 bb 60 b2 3e aa aa d6 3e bf 57 3b 3e 86 89 96 3e
       0.34839424 0.4192708 0.18295191 0.29401797
000080 a5 48 38 3e dc 16 21 3f eb 7c c1 3e 15 61 ec 3e
       0.17996462 0.62925506 0.37790617 0.46167818
000090 8a 7b 8e 3e e3 26 25 3e 19 04 1b 3e ef 24 89 3e
       0.27828628 0.16128115 0.15138282 0.2678599
0000a0 9e 74 a2 3e e1 70 7e 3d 74 e1 66 bf 7a 2f 8f 3e
       0.31729597 0.06211937 -0.90187764 0.2796591
0000b0 ae 84 27 bf 3e 99 dd 3e 8c e0 86 3e 47 17 07 3f
       -0.6543683 0.43280977 0.2634319 0.52769893
0000c0 14 a7 55 3f 94 25 76 3e bd b0 c9 3e a4 bb bf 3d
       0.83458066 0.24037772 0.39392653 0.093619615
0000d0 cb 7e 07 bf 3d ee 8b 3e c1 e3 df bc d9 e3 f7 3e
       -0.52927846 0.273302 -0.027330281 0.4841602
0000e0 85 48 bc 3e 02 3b ae 3e 3e 4d af 3e f4 ce 1c 3f
       0.36774078 0.34029394 0.3423862 0.61253285
0000f0 f4 15 3a 3e 70 48 cd 3e 79 50 a3 bd 7b ff 03 3f
       0.18172437 0.40094328 -0.07974333 0.5156171
000100 ac 52 bd 3e 35 96 b2 3e e7 dc d7 3e 5f 8b 90 3e
       0.36977136 0.34880224 0.42160723 0.28231332
000110 32 22 25 3e 0e 5f 91 3e 9b 02 be 3e 5f 44 e5 be
       0.16126326 0.28392833 0.37111363 -0.44778726
000120 98 c2 05 c0 62 fa 03 3e 86 eb a3 bf b1 aa a8 3e
       -2.090002 0.12888482 -1.2806251 0.32942727
000130 95 fd 7b 3e 74 0d 16 3f 75 c4 0f 3f a1 1e d5 3e
       0.24608453 0.5861428 0.56159145 0.4162493
000140 9c e7 a6 3e 62 10 9f bd 9a c4 35 bf a6 c7 cb 3e
       0.3259858 -0.07766797 -0.71003115 0.39800757
000150 6f b9 00 bf 33 8d 30 3f f2 a9 a7 3e fa 98 4e 3f
       -0.5028295 0.6896545 0.32746845 0.80702174
000160 c2 d4 ff 3e 6e d2 8a 3e 9a d7 ac 3e 65 1b 3a 3e
       0.4996701 0.2711367 0.3375824 0.18174513
000170 30 bf a5 be 37 e7 e9 3e 14 d1 4a 3e c3 bb 26 3e
       -0.32372427 0.45684215 0.1980632 0.16282563
000180 3d 29 02 3f 09 a4 54 3e eb f0 e3 3e 51 6d b1 3e
       0.50844175 0.207657 0.44519743 0.34653714

bias f4 [10]
000000 5b 4b 08 3e 0a 5e db 3e 12 f0 fa 3d ec a3 c7 3d
       0.13309996 0.42845184 0.12252821 0.097480625
000010 f3 c1 e7 3e 99 f5 72 3e 9e dc cc 3d 54 01 a7 3e
       0.4526516 0.237265 0.10003017 0.326182
000020 73 cb e1 3e 7e 7c ff 3d
       0.44100532 0.12474917

weight f4 [3, 10]
000000 f3 d7 c4 3d 57 6a d0 bd 2a 3b 1d 3e 00 e9 b8 3e
       0.096115015 -0.10176533 0.153546 0.36115265
000010 28 a7 2c be f2 04 8e bd df 8a 23 3e 2c a8 94 be
       -0.1686064 -0.06934537 0.15970944 -0.29034555
000020 fc 59 f1 bd 59 4f 9d 3d 30 35 ef 40 64 8c d4 40
       -0.11784741 0.0768115 7.4752426 6.6421375
000030 51 2b f7 40 90 17 01 41 a2 7e d9 40 c1 4e e6 40
       7.7240376 8.068253 6.796708 7.1971135
000040 7e 8b f3 40 64 26 ea 40 09 98 cf 40 12 79 ec 40
       7.610778 7.3171864 6.487309 7.389779
000050 21 30 21 be ae 6d be 3d 66 d2 0e 3b 05 2f 3a 3e
       -0.15741016 0.092982635 0.0021792888 0.18181999
000060 fc ce 09 3d a2 c7 8e bd 0e b3 0e be 58 7b 30 3b
       0.03364466 -0.06971671 -0.13935491 0.0026928987
000070 09 b7 ea bc 71 0b fb 3d
       -0.028651731 0.12258042

bias f4 [3]
000000 13 bc 10 bd 5e d7 be 40 57 be a9 bc
       -0.03533561 5.96379 -0.020720644
