t-T/pinn_0/model.pt (torch, 8736 bytes, 8 tensors)

weight f4 [10, 1]
-0.00030886725 0.012068861 -0.009012944 0.025803834 0.010435016 0.05112793 0.013766614 -0.034648065
0.041892916 0.0016560808
00000000: 76ef a1b9 79bc 453c 07ab 13bc 9062 d33c
00000010: a1f7 2a3c 856b 513d 5d8d 613c 21eb 0dbd
00000020: e897 2b3d da10 d93a

bias f4 [10]
0.98832375 -0.8375553 2.017193 0.94313806 -1.1702812 0.7614897 -1.0215495 0.21659222
-1.339056 1.0926447
00000000: c902 7d3f 066a 56bf b119 0140 7f71 713f
00000010: c6cb 95bf fdf0 423f 22c2 82bf 5aca 5d3e
00000020: 3066 abbf c8db 8b3f

weight f4 [10, 10]
-0.115919806 0.13803226 -0.904607 -0.17527746 0.68277854 -0.29146448 0.38635296 0.03845496
-0.09292138 -0.2718827 0.825562 -0.1413967 0.32789174 0.6111124 -0.11274803 -0.13601512
0.08191516 0.28635108 0.037338194 0.6593801 0.95287985 -0.14529732 0.18888827 0.9888329
-0.080066934 -0.12258826 -0.09522889 0.18622135 -0.03777176 1.1964647 0.06827982 0.2831628
-0.35182923 0.012051768 0.45534936 -0.33785772 0.18971133 0.0039844424 -0.2962747 -0.17170818
0.40484363 0.33582357 -0.11518061 0.31530207 0.2138705 -0.07646833 0.4002039 0.11686104
0.09327742 0.27031013 0.24672212 0.0939219 -0.15059249 0.48283294 0.36880583 -0.085635275
0.19844982 -0.008973733 0.06842025 0.16769929 0.1660252 0.20379692 -0.23636054 0.095944986
0.15199922 0.054226197 0.32554352 0.111086465 -0.26318753 0.14666031 -0.82469434 0.79543036
-2.8507152 -0.99719 1.3576313 -1.0382214 1.2237923 0.49967203 -0.3316658 -0.9094802
0.86012477 -0.08545235 0.37755102 0.7134159 -0.031699065 0.23083642 -0.13918926 0.23465496
-0.25587192 0.7092698 -0.043973155 0.012680601 -0.56202525 -0.094880134 0.52610916 -0.0926657
0.20769455 -0.038869385 -0.17458987 -0.18545994
00000000: 5d67 edbd 5458 0d3e 5394 67bf ef7b 33be
00000010: 93ca 2e3f d53a 95be 0ed0 c53e f382 1d3d
00000020: 914d bebd 3634 8bbe 0858 533f 4cca 10be
00000030: 6de1 a73e dd71 1c3f 70e8 e6bd 8c47 0bbe
00000040: 23c3 a73d 9c9c 923e efef 183d 22cd 283f
00000050: efef 733f d2c8 14be ed6b 413e 2724 7d3f
00000060: 22fa a3bd 8e0f fbbd 5d07 c3bd cfb0 3e3e
00000070: 90b6 1abd c125 993f 4ad6 8b3d b7fa 903e
00000080: f622 b4be c774 453c 8d23 e93e b0fb acbe
00000090: b043 423e ed8f 823b 51b1 97be 45d4 2fbe
000000a0: aa47 cf3e 11f1 ab3e d0e3 ebbd 466f a13e
000000b0: de00 5b3e 6e9b 9cbd 87e7 cc3e d754 ef3d
000000c0: 3b08 bf3d 1766 8a3e b9a4 7c3e 205a c03d
000000d0: eb34 1abe e135 f73e 1ed4 bc3e 8c61 afbd
000000e0: 6e36 4b3e 9006 13bc eb1f 8c3d 5db9 2b3e
000000f0: 8302 2a3e 24b0 503e 7f08 72be ce7e c43d
00000100: afa5 1b3e 4a1c 5e3d a4ad a63e 4d81 e33d
00000110: 84c0 86be 1f2e 163e 2b1f 53bf 53a1 4b3f
00000120: 1e72 36c0 d847 7fbf ddc6 ad3f 70e4 84bf
00000130: 3aa5 9c3f 03d5 ff3e 1ad0 a9be b2d3 68bf
00000140: 2331 5c3f a401 afbd 5e4e c13e 6da2 363f
00000150: e1d6 01bd 6260 6c3e a187 0ebe 6449 703e
00000160: a501 83be b592 353f 321d 34bd 4cc2 4f3c
00000170: e3e0 0fbf 8450 c2bd 17af 063f 84c7 bdbd
00000180: e1ad 543e 8135 1fbd b0c7 32be 36e9 3dbe

bias f4 [10]
-0.3080664 0.7233238 1.0344977 -0.24336703 0.022151789 0.19240962 0.032833412 -1.0214326
1.021704 -0.25377232
00000000: e1ba 9dbe c02b 393f 6c6a 843f 3535 79be
00000010: ab77 b53c 0707 453e 547c 063d 4ebe 82bf
00000020: 32c7 823f 72ee 81be

weight f4 [10, 10]
0.17877334 1.0355399 1.0541668 0.113486454 0.9555947 1.4133108 0.13244058 -0.043129288
1.0284328 0.27089414 0.033727206 1.2478333 1.0095603 0.14168985 1.2373397 1.2674155
0.07744155 0.29743555 1.1375778 0.07913197 -0.0053342083 1.3014597 1.1204185 0.33660665
1.1855156 1.4639496 0.11213638 0.008608019 1.3115206 0.21039484 0.35516444 0.9570176
0.8444484 0.17600161 1.0334592 1.49706 -0.061494645 0.15528154 0.92690074 0.28330156
0.1357806 0.84505236 1.1327219 0.46353778 1.758978 1.9697092 0.13472489 0.09980372
0.8275291 0.17990589 -0.7402088 -0.14143607 -0.32742265 -0.07607472 -0.5676732 -0.66044164
-0.7721589 -0.9517922 -0.06881494 -0.69092125 0.37998915 0.6813177 0.6644169 0.34627447
2.324891 2.6082187 0.22354378 0.25185466 0.6667341 0.5585726 0.23300126 0.8373597
0.55496556 0.6306318 1.0890337 0.86653703 0.3164238 0.3627429 0.59977734 0.27342194
0.57137525 0.50714993 0.46763444 0.6816639 0.6351599 0.76055974 0.26002443 0.52908117
0.47343022 0.5676022 0.60316306 0.29454178 0.2565893 0.7362967 0.17370343 0.3854575
0.4185689 1.5569025 0.28731036 0.37055665
00000000: 5c10 373e 928c 843f f0ee 863f 966b e83d
00000010: dba1 743f 5ee7 b43f 819e 073e 56a8 30bd
00000020: b0a3 833f a3b2 8a3e 8a25 0a3d 00b9 9f3f
00000030: 4639 813f 2517 113e 2661 9e3f ac3a a23f
00000040: ad99 9e3d 7949 983e 269c 913f f10f a23d
00000050: 95ca aebb 3b96 a63f e069 8f3f b557 ac3e
00000060: fabe 973f b362 bb3f c2a7 e53d a608 0d3c
00000070: e8df a73f bf71 573e 1dd8 b53e 1bff 743f
00000080: c52d 583f c439 343e 6448 843f a99f bf3f
00000090: cfe1 7bbd 2002 1f3e 5e49 6d3f e70c 913e
000000a0: 120a 0b3e 5a55 583f 08fd 903f d354 ed3e
000000b0: 3126 e13f 6e1f fc3f 52f5 093e e565 cc3d
000000c0: f2d8 533f 4039 383e 537e 3dbf 9ed4 10be
000000d0: f1a3 a7be 10cd 9bbd 0853 11bf b412 29bf
000000e0: 35ac 45bf a7a8 73bf d9ee 8cbd 37e0 30bf
000000f0: f08d c23e d66a 2e3f 3a17 2a3f e34a b13e
00000100: 04cb 1440 0eed 2640 a9e8 643e 18f3 803e
00000110: 16af 2a3f 9dfe 0e3f e297 6e3e 355d 563f
00000120: 3912 0e3f 1671 213f 7565 8b3f 5fd5 5d3f
00000130: 4d02 a23e 70b9 b93e 028b 193f f6fd 8b3e
00000140: a645 123f 94d4 013f c86d ef3e 8681 2e3f
00000150: d799 223f 0bb4 423f ec21 853e dd71 073f
00000160: 7265 f23e 614e 113f e568 1a3f 2ece 963e
00000170: ac5f 833e f17d 3c3f 50df 313e af5a c53e
00000180: aa4e d63e 9548 c73f 581a 933e 9ab9 bd3e

bias f4 [10]
1.0605848 0.9753372 0.92498475 0.6888732 0.9972678 -0.272897 0.91851443 0.3463143
0.47713092 0.06869772
00000000: 3ec1 873f b3af 793f cdcb 6c3f fe59 303f
00000010: f14c 7f3f 28b9 8bbe c323 6b3f 1c50 b13e
00000020: 814a f43e 64b1 8c3d

weight f4 [6, 10]
0.4497579 0.45150837 0.5606465 -1.224441 0.5567349 0.016817868 0.42848194 -1.8189858
0.0143549135 0.009540375 -0.32452303 -0.5806831 -0.41779563 1.5839616 -0.51665473 -0.012806658
0.123865575 1.0409795 -0.29728436 0.0017670558 -0.1063569 -0.26155326 -0.29970655 0.4316621
-0.27725443 -0.034383908 -0.54027355 1.4668148 -0.3175792 -0.0064999927 0.0074400892 0.21175757
0.12169137 -0.30799127 0.36905974 0.032317985 -0.0031698819 -0.67307013 0.5917337 0.0029994906
-0.08829049 0.1662293 -0.037648063 -0.037800744 -0.20325206 0.008199163 -0.9620239 2.0043104
0.83915293 -0.012596556 6.373635 6.390675 6.357781 6.3349004 6.4238076 -6.04089
6.4105315 6.016151 6.0057106 6.3155766
00000000: ab46 e63e 1b2c e73e 8786 0f3f 7cba 9cbf
00000010: 2e86 0e3f a0c5 893c fc61 db3e 87d4 e8bf
00000020: df30 6b3c 3c4f 1c3c e227 a6be a6a7 14bf
00000030: 4fe9 d5be 41bf ca3f 7c43 04bf 04d3 51bc
00000040: 3cad fd3d d13e 853f a835 98be 8e9c e73a
00000050: a5d1 d9bd 4fea 85be 2373 99be d102 dd3e
00000060: 4bf4 8dbe 24d6 0cbd 5e4f 0abf 96c0 bb3f
00000070: be99 a2be e4fd d4bb fecb f33b fad6 583e
00000080: 5339 f93d 08b1 9dbe 66f5 bc3e dd5f 043d
00000090: cbbd 4fbb 534e 2cbf dc7b 173f 1a93 443b
000000a0: a5d1 b4bd 0338 2a3e db34 1abd f4d4 1abd
000000b0: 4f21 50be c855 063c 3347 76bf 9f46 0040
000000c0: bad2 563f c961 4ebc d1f4 cb40 6980 cc40
000000d0: f172 cb40 81b7 ca40 d58f cd40 f94e c1c0
000000e0: 1323 cd40 4f84 c040 c82e c040 3419 ca40

bias f4 [6]
0.6340252 -0.5768504 -0.07596278 0.22082892 -0.045950912 6.350182
00000000: 7a4f 223f 78ac 13bf 6092 9bbd fa20 623e
00000010: 0637 3cbd b134 cb40
