t-T/pinn_0/model.pt (torch, 5316 bytes, 7 tensors)

weight f4 [10, 2]
0	0xbd1163c1	-0.035495523
1	0xbd6d1774	-0.057883695
2	0x3b9e2bb1	0.0048269858
3	0x3e74cff0	0.23907447
4	0xbc615837	-0.013753942
5	0x3f30dc5a	0.6908623
6	0x3cb222ec	0.021745168
7	0xbdf18c3e	-0.11794327
8	0xbcc4aae4	-0.024007268
9	0xbe1a0f7f	-0.15044974
10	0xbdc4b6c1	-0.0960517
11	0xbea0b21c	-0.31385887
12	0x3ba06929	0.0048953486
13	0x3e1c34c7	0.15254508
14	0xbc874b17	-0.016515298
15	0x3f6942cd	0.91117555
16	0x3d2c3d6b	0.04205076
17	0xbc9568f3	-0.01823852
18	0xbc0a013c	-0.008423146
19	0x3f5829fd	0.8443907

bias f4 [10]
0	0x3e5abf6f	0.21362089
1	0xbe892b26	-0.26790732
2	0xbe6cff44	-0.23144251
3	0x3d5c9595	0.05385359
4	0x3ee39849	0.44452122
5	0xbeb5f110	-0.3553548
6	0xbff97ecb	-1.9491819
7	0xbb96a4b1	-0.0045972695
8	0xbe31e7b4	-0.17373544
9	0xbf091069	-0.53540665

weight f4 [10, 10]
0	0x3e276efb	0.1635093
1	0x3e30d2e2	0.17267945
2	0xbdf73da5	-0.12072305
3	0x3e51d048	0.20489609
4	0xbcc93e1c	-0.024565749
5	0x3c9132ae	0.017724361
6	0x3ea39e4c	0.31956708
7	0xbdaed47e	-0.085366234
8	0x3f11bc75	0.5692819
9	0x3e6bd160	0.23029089
10	0x3d2b5579	0.04182956
11	0x3e56ecd6	0.20988783
12	0xbe4038da	-0.18771687
13	0x3eaf4d44	0.34238636
14	0xbcfab432	-0.030603502
15	0x3d835487	0.06412607
16	0x3e7f8c65	0.249559
17	0xbe3879aa	-0.18015161
18	0x3f0d948c	0.5530479
19	0x3eab9cd5	0.3351809
20	0x3ee64588	0.44974923
21	0x3f06a39d	0.52593404
22	0x3e3ddac1	0.18540479
23	0x3e6a268b	0.22866265
24	0x3ee89938	0.45429397
25	0x3e38cbb7	0.18046461
26	0x3f07bf2c	0.5302608
27	0x3cec7125	0.028862545
28	0xbc757f4a	-0.014983961
29	0x3e61ddd8	0.22057283
30	0x3eb66b3f	0.35628697
31	0x3ebe78d7	0.37201568
32	0x3e1f7cc8	0.15574944
33	0x3c917c44	0.01775945
34	0x3e8a1fde	0.26977438
35	0x3e73b767	0.23800431
36	0x3f408b88	0.7521291
37	0xbe014638	-0.12624443
38	0xbd1ecbf4	-0.038768724
39	0x3e1940d0	0.1496613
40	0x3e6eaa88	0.2330724
41	0x3e2d8c32	0.16948012
42	0xbf28c6cf	-0.6592836
43	0x3ebf49ad	0.37360898
44	0x3ea5d3d5	0.32388178
45	0x3dffc02e	0.12487827
46	0x3ec82a5d	0.3909482
47	0xbe3425d8	-0.17592561
48	0x3e8bc6af	0.2730002
49	0x3ddd5806	0.10807805
50	0x3ea450be	0.3209285
51	0x3ebad963	0.36493978
52	0x3d3bf7c2	0.045890577
53	0x3cd896f9	0.026439177
54	0x3e6fffdf	0.23437451
55	0x3f00d2a8	0.50321436
56	0x3f4907d3	0.78527564
57	0x3d068cb8	0.032849044
58	0xbd559d6a	-0.052152075
59	0x3ea75d1a	0.32688218
60	0x3d396d00	0.045269966
61	0x3ea72165	0.32642666
62	0xbe47fd94	-0.19530326
63	0x3e85b76b	0.261165
64	0x3d91486b	0.07093891
65	0xbdecfb1e	-0.11571334
66	0x3de7c3d8	0.11316651
67	0x3c63724f	0.013882234
68	0x3f0391a1	0.5139409
69	0x3e4d79ee	0.20066044
70	0x3ed0631f	0.40700623
71	0x3f717d57	0.9433188
72	0x3f0db459	0.55353314
73	0x3e6814ca	0.2266418
74	0x3ecbc7f9	0.39801005
75	0x3f0ae1fc	0.54251075
76	0x3f72865a	0.94736254
77	0x3e735f11	0.23766734
78	0xbd663c0c	-0.05620961
79	0x3d6120db	0.054962974
80	0x3e654a09	0.22391523
81	0x3ee0648c	0.4382671
82	0x3dbf8013	0.093506
83	0x3e31d06d	0.17364664
84	0x3ee75066	0.45178527
85	0x3ee77a4e	0.452105
86	0x3eeae308	0.45876336
87	0x3e068908	0.13138211
88	0x3e4c3ff9	0.19946279
89	0x3e4f50de	0.20245692
90	0x3c9ae1ed	0.018906558
91	0x3e73c3fc	0.23805231
92	0x3c2313a5	0.009953414
93	0x3e8212db	0.2540501
94	0xbda7f2d1	-0.082006104
95	0xbd8125d6	-0.06306045
96	0x3e84e0ae	0.25952667
97	0xbdcdb07e	-0.10043429
98	0x3f1e9e5d	0.61960393
99	0x3e83100d	0.25598183

bias f4 [10]
0	0x3ef40fc7	0.47668287
1	0x3eaf07bc	0.34185588
2	0x3d4c3eba	0.04986451
3	0xbd64445e	-0.055729263
4	0x3da50d25	0.08059148
5	0x3e0f29eb	0.13980834
6	0x3f05243a	0.520084
7	0xbd8a0d42	-0.0674081
8	0x3da3cd14	0.079981
9	0x3f299def	0.6625661

weight f4 [10, 10]
0	0x3e9ab887	0.30218908
1	0x3f0aaf55	0.54173785
2	0x3f4af140	0.7927437
3	0x3f83ad28	1.0287218
4	0x3f22c4cc	0.6358154
5	0x3f37915b	0.7170617
6	0x3eab9be8	0.33517385
7	0x3f67e4ff	0.90583795
8	0x3f1d14d6	0.6135992
9	0x3e8b37f3	0.27191123
10	0x3ff0675a	1.878154
11	0x3fa2439a	1.267688
12	0xc01f7213	-2.4913375
13	0xbf8b590a	-1.0886548
14	0x3f354c33	0.70819396
15	0xbf8ec748	-1.1154566
16	0x3fda16e4	1.7038236
17	0xbfa0ff89	-1.2577983
18	0xbf12ff0c	-0.5742042
19	0x3fdfbefb	1.7480158
20	0x3f95ce8b	1.1703657
21	0x3f736a3c	0.95083976
22	0x3ebb1e4b	0.3654655
23	0xbba619ed	-0.0050690086
24	0x3e3c15cb	0.18367688
25	0xbc9f4d47	-0.019446028
26	0x3f819269	1.0122806
27	0xbef58958	-0.47956347
28	0x3d4941f1	0.049135152
29	0x3f7e529f	0.9934482
30	0x3e34d635	0.17659838
31	0x3e340d11	0.1758311
32	0x3fc1ad3e	1.5130994
33	0x3fd9db3a	1.7020028
34	0x3e504220	0.20337725
35	0x3fc34478	1.525527
36	0x3e226a6c	0.15860909
37	0x3e176f02	0.1478844
38	0x3f7163da	0.94292986
39	0x3e3296b9	0.17440309
40	0x3f5a9171	0.85378176
41	0x3f397e79	0.72458607
42	0x3e9ee85a	0.31036645
43	0xbeeda203	-0.46412668
44	0x3ea947d6	0.3306262
45	0xbece4118	-0.40284038
46	0x3f990f43	1.1957783
47	0xbf979b4d	-1.1844269
48	0xbe44fdcc	-0.19237441
49	0x3f776bdf	0.96648973
50	0x3edb4052	0.4282251
51	0xbd89cfe9	-0.06729109
52	0xc000fe1d	-2.0155098
53	0xbf11a4f2	-0.5689231
54	0x3ece60a3	0.40308103
55	0xbef1936a	-0.4718278
56	0x3f40f849	0.75378853
57	0xc0423a5c	-3.034812
58	0xbffc87ef	-1.9728984
59	0x3f3a4d77	0.7277445
60	0x3f642221	0.89114577
61	0x3f930e42	1.1488726
62	0xb9ffd9e1	-0.00048799723
63	0x3ea7d77f	0.32781598
64	0x3ed8221b	0.4221352
65	0x3e11538e	0.1419203
66	0x3f87455a	1.056804
67	0xbe356fd4	-0.1771844
68	0xbdf5826a	-0.11987765
69	0x3f55798d	0.83388597
70	0x3f90b902	1.130646
71	0x3f63b79b	0.88952035
72	0x3e7292f6	0.23688874
73	0x3ddb3199	0.107028194
74	0x3d8f069d	0.06983683
75	0xbd8f4a7a	-0.06996627
76	0x3f8aee44	1.0853963
77	0xbeb977f5	-0.36224332
78	0xbe18edb9	-0.14934434
79	0x3f8a191e	1.0788915
80	0x3edfa36b	0.43679366
81	0x3f00725a	0.50174487
82	0x3f026de2	0.5094892
83	0x3f3f5be9	0.7474962
84	0x3f3fbc30	0.74896526
85	0x3f2b3536	0.6687807
86	0x3f15d4f6	0.5852808
87	0x3f3cee5c	0.7380121
88	0x3e93d88e	0.28876156
89	0x3efd1a6f	0.4943423
90	0x3f85f9ff	1.0466918
91	0x3f5caf36	0.8620485
92	0x3df45f4f	0.11932241
93	0x3e25f8bb	0.16208164
94	0x3e70f9e7	0.2353283
95	0xbda50007	-0.08056646
96	0x3f9af296	1.2105281
97	0xbed90cad	-0.42392483
98	0x3d912586	0.07087235
99	0x3f6764c0	0.9038811

bias f4 [10]
0	0x3e821033	0.25402984
1	0x3fc720d1	1.555689
2	0x3f99f52a	1.2027943
3	0xbc1a7d3a	-0.00942927
4	0x3fc7cc73	1.5609268
5	0x3f7fc6b3	0.99912566
6	0x3f6af94c	0.91786647
7	0x3fa83152	1.3140051
8	0x3f12c409	0.57330376
9	0x3f8f7de7	1.1210297

weight f4 [1, 10]
0	0x40d27a78	6.57745
1	0x40be7c97	5.9527087
2	0x40c652df	6.197616
3	0x40c9f582	6.311219
4	0x40bfcfcb	5.9941154
5	0x40c0caf5	6.024775
6	0x40c4a5d6	6.1452436
7	0x40c0e330	6.027733
8	0x40bf6743	5.981355
9	0x40c481b5	6.1408334
