t-T/pinn_0/model.pt (torch, 8736 bytes, 8 tensors)

weight f4 [10, 1]
000000 ee 39 22 bc 18 34 41 3c 99 53 1a bc ab 66 22 bc
       -0.009901507 0.011792205 -0.009419345 -0.009912173
000010 62 f5 55 bc 01 40 37 3b 3c 36 e0 bc 15 1e 26 3c
       -0.013058992 0.0027961733 -0.027369611 0.010139008
000020 a4 28 e4 3c a6 ca 35 3d
       0.02785141 0.044382714

bias f4 [10]
000000 1e a1 e5 3f 2f 54 c2 3e 8b c6 f3 3f dc fa 8a 3f
       1.7939794 0.37954852 1.9044966 1.0857806
000010 d4 5b a8 be c0 95 8e 3f 1e b7 a2 3e 77 2b 10 3f
       -0.3288256 1.113945 0.31780332 0.5631632
000020 b7 43 fe 3d 2a 04 e7 3f
       0.12415259 1.8048146

weight f4 [10, 10]
000000 53 f8 db 3d b5 1e a5 3e ab 8a 55 3d 02 15 ef 3d
       0.107407235 0.3224999 0.052134197 0.11673929
000010 34 9f 33 3e de e1 43 3f 58 33 b5 bd b3 9c a4 3e
       0.175412 0.7651652 -0.08847684 0.32150802
000020 04 0a e1 3d ca f6 17 3e c3 0e 2e 3f 5f b7 cf 3d
       0.109882385 0.14840236 0.67991275 0.10142397
000030 66 bb 50 3f 7a a9 09 3f ed 9c 38 be 2a 72 ab bc
       0.8153595 0.53774226 -0.18028612 -0.020928461
000040 02 2d 27 be 53 ce a6 bc 70 b5 11 3f b3 a7 36 3f
       -0.16325763 -0.020362055 0.56917477 0.7134964
000050 29 ef 02 40 d9 d1 a7 3e 56 29 0d 40 0e 50 f4 3f
       2.0458472 0.3277729 2.205648 1.9086931
000060 93 8b cf be 1c 34 a0 3e f8 42 1a bf 57 9d 29 3e
       -0.40536174 0.31289756 -0.60258436 0.16563927
000070 bc 38 58 3f de 97 16 40 b7 58 5b 3e db 38 66 3d
       0.8446157 2.3530192 0.21420561 0.056206565
000080 c7 e1 11 3e b5 7a 48 3e bf c0 de 3e 85 08 8f be
       0.14246283 0.19578059 0.4350643 -0.27936187
000090 d3 9d db 3c 83 ce 01 be ad 15 1e 3e bd 4d 16 bc
       0.026808655 -0.12676434 0.15437956 -0.009173808
0000a0 8e 7c 97 be cc dc 2a be 61 36 65 be bd d0 7f be
       -0.29587215 -0.1668579 -0.22384025 -0.24981971
0000b0 f3 92 63 3e 0a dc 33 bf bd c4 3d 3e 13 1a fb be
       0.22224025 -0.7025763 0.18532081 -0.4904333
0000c0 64 dc ed 3d f6 92 aa be 45 3c 1c 3e 64 3b 9f be
       0.11614302 -0.33315247 0.15257366 -0.311
0000d0 3c 9d 17 3e 9a 39 da 3e da b1 f2 3e 84 3c 8f be
       0.14806074 0.42622072 0.47401315 -0.27975857
0000e0 cc 45 97 bd e7 33 3f be 95 d0 a4 3e 33 92 15 3e
       -0.073863596 -0.18672143 0.32190385 0.14606552
0000f0 36 55 75 3d 57 eb 8a bd a5 c1 79 3d 92 e8 5b 3d
       0.059895717 -0.06783169 0.06097569 0.053688593
000100 87 fd dd 3d 70 4d 21 be c2 0a 74 3e ad 4f 6b be
       0.10839372 -0.15752196 0.23832229 -0.22979613
000110 9d b3 9d 3d ce 1f 1e 3e 08 c6 b8 bd da ea a6 3e
       0.07700274 0.1544182 -0.090221465 0.32601053
000120 e1 52 e1 bd f2 3b 0e be 20 3f 18 3d 65 06 a1 3e
       -0.11002136 -0.13890055 0.037169576 0.3145019
000130 5b 98 48 bd 56 04 a9 3e 43 cb 24 3d 9b 06 88 bd
       -0.048973422 0.3301112 0.040232908 -0.06641885
000140 ff 38 e2 3e 2b e0 ee 3d 4f 2c ab 3e 9f c0 99 3e
       0.4418411 0.116638504 0.33432242 0.3002977
000150 77 23 6f 3e fe d0 b3 bc 8b eb 86 bd 2b b5 5b be
       0.23353373 -0.021950241 -0.06587895 -0.21455829
000160 b5 44 b4 3d 30 0c d5 3e d1 ae da be 43 b8 da be
       0.08802167 0.4161086 -0.427115 -0.42718706
000170 29 f5 d8 be 64 5a e3 be 9b a4 15 3f 9f ba bf be
       -0.42374542 -0.444049 0.58454293 -0.37447068
000180 c5 96 e9 bb 19 3a 17 bf ea 54 96 3e d7 f2 72 be
       -0.007128569 -0.59073025 0.2936166 -0.23725449

bias f4 [10]
000000 b0 0f 28 3f f9 1f a1 3e 2a 10 3d 3f 84 72 aa be
       0.6564894 0.31469706 0.7385279 -0.33290493
000010 78 e5 36 bf 6f a9 5e be b7 75 bb be 43 56 8a 3e
       -0.7144389 -0.21744321 -0.36613247 0.27018937
000020 ed 83 ec 3c 24 b2 4a bf
       0.0288715 -0.7917807

weight f4 [10, 10]
000000 10 47 4c bf 8f 3f 8b 3e 77 87 b6 3e 3b 14 a8 3f
       -0.7979593 0.2719693 0.35650226 1.3131174
000010 dd 46 54 3f bb 0d 1a 3f 5f fe d9 3f b5 93 a7 bf
       0.8292063 0.601772 1.7030753 -1.3091952
000020 34 6f 19 3e 17 e2 8e 3f 3a d4 0e bf 48 5c 5f 3f
       0.14983827 1.1162747 -0.5579258 0.87250185
000030 6c c1 4f 3f 7e 48 26 3f c5 8d 24 3f 6c 86 0a be
       0.81154513 0.64954364 0.64278823 -0.1352784
000040 b6 40 01 3f 36 88 d5 bd 3d ec 34 3f e2 ce 10 3f
       0.50489366 -0.10426371 0.7067297 0.5656568
000050 ad e8 66 be ae 02 8d 3f 18 95 af 3f 60 ea 26 3f
       -0.22549696 1.1016443 1.3717375 0.6520138
000060 c6 65 15 3e c2 65 1c 3f 63 58 79 3e 5a d1 46 bd
       0.14589605 0.6109277 0.24350123 -0.048539497
000070 78 10 31 3f 3d 4f f8 3e 0a 24 36 3f d4 8b 0c bf
       0.69165754 0.48497954 0.7114874 -0.5490086
000080 ef 2b 0b bf 6d 60 81 bf ff 27 d9 be 48 80 b7 be
       -0.5436391 -1.0107552 -0.42413327 -0.35840058
000090 01 75 b5 bf 9f a8 8f 3f 52 20 10 bf 24 f9 c3 be
       -1.4176332 1.1223334 -0.56299317 -0.38276017
0000a0 3a 33 bb be bf c8 4a 3f d4 1f a0 3f 1f 27 38 3f
       -0.3656252 0.79212564 1.2509713 0.71934694
0000b0 5a 4e d9 3e c0 d8 6d 3f fe 9f 67 3e af e2 37 be
       0.4244259 0.9290886 0.22619626 -0.17957567
0000c0 bc f4 fa 3e d9 3d d0 3e a8 6b f5 be b8 83 66 3f
       0.49014843 0.40672186 -0.47933698 0.90044737
0000d0 a5 c2 40 3f 1a ee 36 3f f9 cd d0 3e 03 3c ef 3e
       0.75297004 0.71457064 0.40782145 0.46725473
0000e0 91 ec cd 3e 4f 40 8a be a0 93 33 3f 38 39 0d 3f
       0.40219548 -0.2700219 0.7014713 0.55165434
0000f0 f1 59 83 bf e7 0a 9e 3d 14 ca e1 3d 4d 8a 8a 3f
       -1.0261823 0.07716923 0.110248715 1.0823456
000100 fc 92 8e 3f d6 38 d4 3e 33 fa b5 3f ae bc 9c bf
       1.1138606 0.41449612 1.421698 -1.224508
000110 c8 3c 2a bc 00 39 a5 3f 48 ed 79 bf 35 2c 9c 3e
       -0.010390468 1.290802 -0.9762769 0.30502477
000120 cd b2 b5 3d 06 83 b2 3f a6 97 90 3f 7c b6 e4 3e
       0.08871994 1.3946235 1.129628 0.44670475
000130 25 5f c2 3f fe 45 85 bf ba 87 57 3d 45 f3 6c 3f
       1.5185286 -1.0411985 0.052619673 0.925587
000140 bd 0f 94 3f f2 c0 fa bd 28 ce 64 bd 54 b3 65 bf
       1.1567303 -0.12243833 -0.05586067 -0.8972676
000150 25 99 7b bf 75 4f 4f be 6f d4 b7 bf 5e 09 a9 3f
       -0.98280555 -0.20245154 -1.4361705 1.3205984
000160 7c ee f5 bd d3 b8 74 bf 32 1a 94 3f 4b 5f 30 bd
       -0.12008378 -0.9559452 1.1570494 -0.04305963
000170 84 8c 24 bc 84 fa 1b bf 38 00 8e bf 5b bf 19 3d
       -0.010043267 -0.6092913 -1.1093817 0.037536006
000180 19 00 9d bf f3 e9 c9 3f 9e cb 38 bd dc 9d 8f bf
       -1.2265655 1.5774521 -0.04511606 -1.122005

bias f4 [10]
000000 88 3a fd be 65 e6 c2 be 83 e7 97 3c 68 d2 4a 3e
       -0.49458718 -0.38066402 0.01854301 0.19806826
000010 1e d4 9e 3c fa bc 65 be 4f 2a 0f bf 0d 6f 5f bf
       0.019388255 -0.2243537 -0.5592393 -0.87278825
000020 e3 3e 46 3f bf 08 45 3f
       0.7743971 0.7696647

weight f4 [6, 10]
000000 02 80 f8 bd ca e7 a7 3e 27 25 e7 3c e6 9d 9e 3c
       -0.121337906 0.3279403 0.028215958 0.019362401
000010 43 36 17 bf 0c d0 83 3f 08 4f 7e be fb 66 18 bf
       -0.5906717 1.0297866 -0.24834836 -0.59532136
000020 07 b8 ee 3d c5 e4 78 bf 8f 11 3e 3d 63 5f 51 bf
       0.11656194 -0.97224075 0.046403464 -0.81786174
000030 64 52 ea bc e2 9f da 3e 5a d0 c7 3e f5 75 b8 3d
       -0.02860374 0.42700106 0.39026147 0.090068735
000040 1a 7b 61 3e 67 25 93 3e c6 71 5c be ac 4f 6d 3e
       0.22019616 0.28739473 -0.21527776 0.23174924
000050 92 4d f6 3d eb c9 5b bf 23 47 1d bd d3 9d 32 bf
       0.12026514 -0.8585498 -0.03839792 -0.6977207
000060 47 7e 12 3f af 70 a2 be ca 8e 03 bd 2b 04 31 3e
       0.57223934 -0.31726596 -0.032118596 0.17286746
000070 7f 61 3e bd 85 15 c7 3e 1d 3b 40 be 62 ef a7 3f
       -0.0464797 0.38883606 -0.1877255 1.3119929
000080 a1 23 95 bc 56 b4 5e 3e d6 bd 8c be d3 82 5f bf
       -0.018205466 0.2174848 -0.27488583 -0.87308997
000090 96 89 16 be a0 5f df 3d 47 4f 88 bd 47 fc 15 3e
       -0.14700922 0.10906911 -0.06655746 0.14647017
0000a0 26 f4 c0 bd d1 f8 b1 3f df 30 dd bd 25 eb b5 be
       -0.094215676 1.3904058 -0.10800337 -0.35530964
0000b0 3f 61 24 3f df b8 46 c0 ed fb 11 be 53 8e 34 bd
       0.64210886 -3.1050336 -0.14256258 -0.044081043
0000c0 d3 f4 70 3e 00 78 2c 3e 0f 43 cb c0 aa 6c bf c0
       0.23530893 0.16842651 -6.351936 -5.9820147
0000d0 d7 08 bf c0 22 f1 d1 40 8b 5e ba c0 2a 00 bc c0
       -5.969829 6.560685 -5.824041 -5.87502
0000e0 57 0c cb c0 0a 2e ce c0 8a 96 d3 40 31 3a d7 40
       -6.3452563 -6.44312 6.6121264 6.7258534

bias f4 [6]
000000 e4 0a 39 3f 6c 5c 44 be cd b8 10 3d eb 2d 09 3e
       0.7228224 -0.19175881 0.03533249 0.13396423
000010 5e 95 ea 3d 52 56 c8 40
       0.11454271 6.260537
