t-C/pinn_2/model.pt (torch, 7849 bytes, 8 tensors)

weight f4 [10, 1]
00000000: faff e7bc dc14 02bd 2170 ecbc 8ada 88bc
00000010: 6c6a cdbb b0ff f53c 87c5 49bd 25d4 22bd
00000020: 5265 073d 6c44 97bb
-0.028320301 -0.031758174 -0.028862061 -0.01670577 -0.00626879 0.030029148 -0.049260642 -0.039753098
0.03305561 -0.004616311

bias f4 [10]
00000000: 7b4e da3f 7b76 33be dd29 bd3f 1be2 a93f
00000010: 3afc 6bbe f316 433e 4e59 b8bf 54bf 913f
00000020: d50b 20be 606b d03e
1.70552 -0.17525665 1.4778401 1.3272127 -0.23045436 0.19051723 -1.4402254 1.1386514
-0.15629514 0.4070692

weight f4 [10, 10]
00000000: 5516 af3d 8a9e 08bd 0879 4a3b ed4d b83d
00000010: 939c 913e 9ec8 5d3e c574 c0bb 36fe 30bd
00000020: b03b 373e f64e 40bd 833d 073e 1c96 0bbd
00000030: 11d8 5b3e b4b5 94bd 067a 963c 2f65 163e
00000040: 27ad 6c3e 255e 64bb 0394 993e 4115 abbd
00000050: aa43 37bd 0d04 25bc 1e58 ff3a b04c c13d
00000060: 30ed b63a 8f10 0f3e 9be0 0c3b da37 cfbd
00000070: 18ca 693e 82cf 923e 43af fa3d 099a 713e
00000080: 085a c03d 23af 1e3e 1cf8 483e cb3d 6f3d
00000090: 55a2 73bd 56f0 04be 9dbb 9c3b d184 503d
000000a0: f934 5bbd bc15 8a3e 4d51 453d b8a7 e03d
000000b0: 90f5 44bc a408 ddbd b04b 3b3e 4ac3 b6bc
000000c0: d21e a2bd 833d c43d dcac 883d dd22 f23c
000000d0: e32c b13c 9d24 c83e 2d11 1c3e 0896 c03c
000000e0: 83fd 6bbc 6ab1 a8bd 5151 093e d23f 8f3d
000000f0: cafe ac3d 5f5e 1a3e 6f69 233d c02e fe3d
00000100: 132a 9a3b 535c bb3e 73cc 233e 0723 90bd
00000110: 0ecf 0dbd 1df8 8d3e 1cc4 163d c1bf 023e
00000120: 86fd 9e3d 9fc1 e0bd 2d03 063e e29f cdbc
00000130: 3b5a c93d 2e73 9a3e e1d3 0b3e fdd6 b8bd
00000140: 4a18 bc3d 81e9 003e 3fdd b63b 4327 ddbc
00000150: d655 963e ef2a b13e f102 0f3e d1c4 d2bc
00000160: 43cd 28bb 4440 2dbd 2a4f db3c 37fb 0fbd
00000170: bdb6 563c 4bb7 84bc 9aca 8e3e 5e35 b83e
00000180: b450 48bc da7d 69bd 0750 1e3e e7f9 23bd
0.08549181 -0.03335432 0.0030894894 0.08999238 0.2843977 0.2165856 -0.005873295 -0.043211184
0.17893863 -0.046950303 0.13207059 -0.034078702 0.21469142 -0.072612196 0.018368732 0.14687036
0.23112927 -0.0034846154 0.29995736 -0.08353663 -0.044742264 -0.010071767 0.0019481217 0.09438455
0.0013956185 0.1397116 0.002149618 -0.10118075 0.22830999 0.2867394 0.1224046 0.23593916
0.09392172 0.15496497 0.19625896 0.05840854 -0.059480984 -0.12982306 0.0047831074 0.050907914
-0.053517316 0.26969707 0.048173238 0.1096949 -0.012021437 -0.10792664 0.18290591 -0.022309918
-0.07916035 0.09582045 0.06673595 0.02955764 0.021627849 0.39090434 0.15240927 0.02350904
-0.014403704 -0.08236964 0.13409926 0.06994595 0.08447035 0.15075062 0.03989547 0.124112606
0.0047047227 0.36593875 0.1599596 -0.07037931 -0.03462129 0.27728358 0.03680812 0.12768461
0.077631995 -0.1097443 0.13087149 -0.025100652 0.09831663 0.30166 0.13655044 -0.09025381
0.0918432 0.12589075 0.005580574 -0.02699626 0.29362363 0.34603068 0.13965966 -0.025728615
-0.002575711 -0.042297617 0.026771147 -0.035151687 0.013105092 -0.016200682 0.27888948 0.35978216
-0.012226272 -0.057004787 0.15460216 -0.040033247

bias f4 [10]
00000000: 0344 fbbc 53b2 6a3d 7764 723e 8d4b 553d
00000010: ea52 5f3c 0404 b73d 1517 40bc 3c1b cdbb
00000020: ee8e 633e 5c17 cfbc
-0.030672079 0.05729897 0.23671137 0.052074004 0.013630608 0.08936313 -0.011724253 -0.00625935
0.22222492 -0.025279693

weight f4 [10, 10]
00000000: 3f6a ef3e 308f 32be 1ea5 7bbd 91a3 1fbd
00000010: 6283 0d3c f3f5 7d3e 6622 e13d 88e6 8fbd
00000020: 8c67 e7be cdb0 483e d4a5 8abe 669e 3a3f
00000030: 737f 8dbe 8725 22be 7ab7 f3bd a668 81be
00000040: 18f1 2fbf db8f 223f 7f07 68c0 ef87 413e
00000050: 97f6 65be a419 9d3e 7dae 053e ad59 5c3e
00000060: 91a3 4abc 43dc 993d 6e2f 863d dc48 a23c
00000070: d8e0 45be d284 613e 33a2 c63e 2c84 413e
00000080: 608d 0d3e b61b 58bc 74c4 d3bc 8c8c f8bb
00000090: dc15 c83b d1d5 2cbd 4b37 b4be ef28 113e
000000a0: 5237 a03e d578 80be f0be a33e 7c4f a93e
000000b0: a433 b03e c59a dc3e a6ac 083e 7ac9 24bc
000000c0: 32c9 763e ccb7 4cbe 75e7 cabd efa2 c03e
000000d0: b009 ca3b 3e95 213e d49b 41bd 80ff 79bd
000000e0: 4fb7 3c3c 9163 0cbb 6fa5 e13d 71b2 293d
000000f0: 25bc d9bc 96af 4f3c 84d0 f4bc 7c5a c43c
00000100: 72d6 1b3e 7957 823e 2238 d63d e43f 4ebc
00000110: b87d 4dbf e6e8 703e 3a7e a93e fe78 533e
00000120: 2546 c0be 49db 733f 093a 873f 5a2e 493f
00000130: 1e88 583e 3276 8d3f 936a 733f 71ab 19bf
00000140: 2710 0ebf f8f6 023e ab0e fe3d a7ad 5c3e
00000150: 5d13 aebd 6659 f0bd ad0a 1dbf 97ab fe3d
00000160: f69d d0be 9309 23be f669 963d a4ab ab3d
00000170: 0f8f 883d d8da 593e 143a d63a 8e43 803e
00000180: b97e e13d 9cd9 863e fd02 c5bc 4105 bc3c
0.46760747 -0.17437434 -0.061436765 -0.03897435 0.008637281 0.24800853 0.10992889 -0.07026392
-0.45196187 0.19598694 -0.27079642 0.72897947 -0.276363 -0.15834628 -0.1190023 -0.25275153
-0.68727255 0.63500756 -3.6254575 0.18899511 -0.22457348 0.30683625 0.13054843 0.21518584
-0.012368099 0.07512715 0.06552015 0.019810133 -0.19324052 0.22023323 0.38795623 0.18898076
0.13823462 -0.013190201 -0.025850512 -0.007585114 0.0061061215 -0.0421961 -0.35198435 0.14175771
0.31292206 -0.25092188 0.3198161 0.33068454 0.344144 0.4308683 0.1334711 -0.010057801
0.24100187 -0.19991988 -0.09907428 0.37624308 0.0061657056 0.15779588 -0.04726775 -0.06103468
0.011518314 -0.002142165 0.11017882 0.04142994 -0.026578972 0.01267614 -0.029884584 0.023968928
0.15218523 0.2545736 0.10459925 -0.012588475 -0.80269957 0.23526344 0.33104116 0.20651624
-0.37553516 0.9525648 1.0564586 0.7858635 0.21145675 1.1051695 0.95084494 -0.60027224
-0.55493397 0.12789524 0.124051414 0.21550618 -0.08499787 -0.117358014 -0.61344415 0.12435072
-0.40745515 -0.15921621 0.07344429 0.08382347 0.06667911 0.21274889 0.0016344213 0.2505154
0.110104986 0.26337898 -0.024049276 0.022951724

bias f4 [10]
00000000: cd84 5b3d 733a 6fbd 2898 bcbc beb8 043e
00000010: 9590 393e 96cd 9bbc 9c9a 393e 7197 bcbd
00000020: 7f55 053f ce53 05bb
0.053593446 -0.05840535 -0.023021773 0.12961099 0.1812156 -0.01901893 0.18125385 -0.09208573
0.5208358 -0.002034414

weight f4 [5, 10]
00000000: d112 b8bd c074 84bd 4b3b ad3d 8a06 993d
00000010: 1298 1b3e 2ac2 153d e792 233e b354 6a3e
00000020: 0845 a43e 5484 4b3e 9b5a 073e cd57 b3bc
00000030: 2e71 403e c4e3 8c3e fb0f 253c ae5e 0e3e
00000040: 3675 843b b024 85bd 5b13 29bd 3a0e f73d
00000050: 1069 9d3d 4cb3 f9bc 8488 e8bd 9653 1cbd
00000060: 1439 f83d a130 c5be 34ba 143d 18ca d4bd
00000070: bc23 5abd e017 2cbd 61d5 9bbe 5be2 133f
00000080: 729d 8b3e e33b ce3e 3da3 073d ed1b b0be
00000090: 43c5 783f da76 14be b4a5 043e 24c9 7cbd
000000a0: ce12 423e 18a3 803f 297a bd3d 2205 763e
000000b0: 2e11 21be 48a5 423e 8a99 1340 97f2 21bf
000000c0: ac8e ee3e 97d8 07bf
-0.08987964 -0.06467581 0.08458575 0.0747195 0.15194729 0.036562122 0.15974008 0.22883873
0.32083917 0.19874698 0.13218157 -0.021892453 0.18793175 0.2751752 0.010074611 0.13903305
0.004042293 -0.06501138 -0.041278224 0.120632604 0.07686055 -0.030481003 -0.11354163 -0.03816565
0.12120262 -0.38513663 0.03631039 -0.10390109 -0.053256735 -0.042014956 -0.30436233 0.57767266
0.2726856 0.40280065 0.03311466 -0.34396306 0.97176 -0.14498463 0.12953836 -0.06171526
0.18952486 1.0049772 0.09251816 0.24025396 -0.1572921 0.19008362 2.3062463 -0.6326079
0.46593225 -0.53064865

bias f4 [5]
00000000: 5008 353e 74be d7bc b01d 8d3c 03a4 163e
00000010: 2ab3 df3e
0.17678952 -0.026335932 0.01722607 0.14711003 0.4369138
