digital_twin/beluga_temp/pinn_2/model.pt (torch, 42217 bytes, 8 tensors)

weight f4 [64, 2]
0	0xbbe9a62c	-0.007130405
1	0xbc8b2e76	-0.016989928
2	0xbd6aba47	-0.057306554
3	0xbcd43fb2	-0.025909279
4	0x00000000	0.0
5	0x3e914845	0.2837545
6	0xbd1ba500	-0.037999153
7	0xbd1c8035	-0.038208205
8	0x3bc5f5cb	0.0060412637
9	0xbcc93bc0	-0.024564624
10	0x3d590e5a	0.052992202
11	0x3d90172a	0.07035668
12	0x3ec70354	0.38869727
13	0x3ee8492f	0.45368335
14	0x00000000	0.0
15	0x3e8392a8	0.25697827
16	0x3cf7a6f0	0.03023097
17	0x3e3980de	0.18115565
18	0x00000000	0.0
19	0x3ea777c6	0.32708567
20	0x3cfee8c0	0.031116843
21	0xbd263a46	-0.040582918
22	0x3c7155f2	0.014729964
23	0x3d9bb273	0.07602396
24	0x3f28e522	0.6597463
25	0x3eadbde6	0.33933944
26	0xbc5d48d2	-0.013506131
27	0xbc8cf06c	-0.017204486
28	0x3c874b80	0.016515493
29	0xbd24b66c	-0.040213034
30	0x3c8771c9	0.01653375
31	0xbc9f2e4b	-0.019431254
32	0x3c58a46c	0.013222795
33	0xbd408ce8	-0.04700938
34	0x3db49a44	0.08818486
35	0x3d8e125d	0.06937096
36	0x3c050008	0.008117683
37	0xbd18d512	-0.037312575
38	0x3b88815e	0.0041658124
39	0xbd0d6415	-0.034519274
40	0xbb90ee77	-0.0044229585
41	0xbca8c2d5	-0.020600716
42	0xbc7ee4f0	-0.015557513
43	0x3e273507	0.16328822
44	0x00000000	0.0
45	0x3e965cf3	0.2936779
46	0xbc8c74f1	-0.017145606
47	0xbccc0094	-0.02490262
48	0x3f0af97a	0.5428692
49	0x3edf3842	0.4359761
50	0x3eb70caf	0.35751864
51	0x3f10646c	0.5640323
52	0x3e8520fd	0.2600173
53	0x3ec07e0a	0.3759616
54	0x3da14491	0.07874406
55	0xbcca66e2	-0.024707261
56	0xbbb37813	-0.0054769604
57	0xbc85b792	-0.016322885
58	0xbcf3c6e4	-0.029757924
59	0xbcc71097	-0.024299903
60	0x00000000	0.0
61	0x3ecf7963	0.40522298
62	0x3d64fcc6	0.055905126
63	0xbce2b989	-0.02767636
64	0xbc8aea80	-0.016957521
65	0xbcb3a6e6	-0.02193017
66	0x3d2f7b59	0.042842243
67	0xbd07865d	-0.033087123
68	0xbd516b01	-0.051127438
69	0xbd110aae	-0.035410576
70	0xbd3a3ad0	-0.045466244
71	0xbcfacfb8	-0.030616626
72	0x00000000	0.0
73	0x3f214932	0.6300231
74	0x3ccb9222	0.024849955
75	0xbd0a35f4	-0.03374286
76	0xbc072600	-0.008248806
77	0x3ad9dc66	0.001662147
78	0x3d273d14	0.040829733
79	0xbcf22af6	-0.029561501
80	0x00000000	0.0
81	0x3e976e99	0.29576567
82	0xba4d99a5	-0.0007843024
83	0xbca305a9	-0.01990016
84	0x00000000	0.0
85	0x3f27e615	0.6558545
86	0x3c327f42	0.010894598
87	0xbc846c74	-0.016164996
88	0x00000000	0.0
89	0x3e805615	0.25065675
90	0x3c405f5c	0.011741485
91	0x3df14e51	0.11782516
92	0xbdc800bf	-0.09765767
93	0xbd022a76	-0.031778775
94	0x3c004733	0.007829475
95	0xbdabe03a	-0.08392377
96	0x00000000	0.0
97	0x3e9f354d	0.31095353
98	0x3cd9e29f	0.02659732
99	0x3c652182	0.01398504
100	0x3e51e74c	0.20498389
101	0x3ea10ca5	0.3145496
102	0xbd762782	-0.06009627
103	0xbcd66415	-0.02617077
104	0x3f0a3c9a	0.5399872
105	0x3f307620	0.68930244
106	0x3e1c620c	0.15271777
107	0xbcb48b2c	-0.022039019
108	0xbd7e97a9	-0.062156353
109	0xbd06057a	-0.032720067
110	0xbbc9b145	-0.0061551654
111	0xbc74fcf5	-0.014952888
112	0xbc82b095	-0.015953341
113	0xbcbe0767	-0.02319689
114	0x3f2b3138	0.66871977
115	0x3f2b957f	0.6702499
116	0xbc25f8d5	-0.010130127
117	0xbd03b60b	-0.03215603
118	0x3cff67ed	0.031177485
119	0xbd2ae9f7	-0.041727033
120	0x3c629a6a	0.0138307605
121	0x3e510bb3	0.20414619
122	0x3d378b19	0.04481039
123	0xbce13a3e	-0.027493592
124	0x3c52c34e	0.012863947
125	0x3d9f3523	0.07773807
126	0xbd5bffe0	-0.05371082
127	0xbce687e8	-0.028140977

bias f4 [64]
0	0x3f04cb1a	0.5187241
1	0xbcf0e89f	-0.029407797
2	0x3ed32fe4	0.41247475
3	0x3c83499e	0.016026314
4	0x3df59fe9	0.11993391
5	0xbcafe398	-0.02147083
6	0x00000000	0.0
7	0x3eeed1b6	0.46644372
8	0x3e9941d1	0.29933026
9	0x00000000	0.0
10	0x3d4a3485	0.049366493
11	0xc04f2b01	-3.2369998
12	0x00000000	0.0
13	0x3ee40a14	0.4453894
14	0xbd325591	-0.043538634
15	0xbda9217b	-0.08258339
16	0x3e967533	0.2938629
17	0xbe4c2e65	-0.19939573
18	0xbd1fa0ef	-0.038971838
19	0x3f2405b6	0.64071214
20	0x3e732f4e	0.23748514
21	0xbd20e9a4	-0.039285317
22	0x00000000	0.0
23	0x3f092161	0.5356656
24	0x3e88c7f0	0.2671504
25	0x3ef56a97	0.47932884
26	0x00000000	0.0
27	0x3e2f3fae	0.17114136
28	0x3df04b6f	0.11733138
29	0x3dc4380a	0.09581001
30	0x3f2815f9	0.6565853
31	0x3eb1c9e2	0.34724337
32	0x3ef10866	0.4707672
33	0x3e8b8a8d	0.27254143
34	0x3e822ab1	0.25423196
35	0xbd1069d8	-0.03525719
36	0x00000000	0.0
37	0xbd857429	-0.065162964
38	0xbbfdc02c	-0.007743856
39	0xbd23520f	-0.03987318
40	0x3eaa6e85	0.33287445
41	0x3e4bce95	0.19903024
42	0x00000000	0.0
43	0xbd614b86	-0.055003665
44	0x3f323508	0.6961217
45	0x3ef6c5c0	0.48197746
46	0x3e9afefc	0.30272663
47	0x3f1b1867	0.6058411
48	0x00000000	0.0
49	0xbd26c447	-0.04071453
50	0x00000000	0.0
51	0xbcf67219	-0.030083703
52	0x00000000	0.0
53	0x3f086a9b	0.5328767
54	0xbcb8c915	-0.02255682
55	0x3eb15cf2	0.34641224
56	0xbcf477dd	-0.029842312
57	0x00000000	0.0
58	0x3d5b0546	0.053471826
59	0xbd3168bf	-0.043312784
60	0x3f25f759	0.6483055
61	0xbd133366	-0.03593769
62	0x3e09e8fe	0.13467786
63	0xbcfeb83c	-0.03109371

weight f4 [64, 64]
0	0xbd93e9bc	-0.07222316
1	0x3c195f62	0.00936112
2	0x3cc5b199	0.024132537
3	0x3dbb3106	0.0914021
4	0x3d3e65ce	0.046483807
5	0xbcf0ccca	-0.029394526
6	0xbcf41e9d	-0.029799754
7	0x3d8bae97	0.0682041
8	0xbcf41e7f	-0.029799698
9	0x3d778fb0	0.060439765
10	0xbd0902a9	-0.033449803
11	0x3e926699	0.285939
12	0x3dc1f213	0.0947
13	0x3c85bf9c	0.016326718
14	0x3db80d4b	0.089869104
15	0x3d8e2bdb	0.069419585
16	0xbcf1cce1	-0.02951664
17	0xbce76cda	-0.028250147
18	0x3d28b2ba	0.041186072
19	0xbcc8d6c0	-0.024516463
20	0x3b687518	0.0035470184
21	0x3d2f81d4	0.042848423
22	0xbcf41e9d	-0.029799754
23	0xbd79937f	-0.06093168
24	0xbcf41e9d	-0.029799754
25	0xbc6e6952	-0.0145514775
26	0xbcf41e9d	-0.029799754
27	0x3ce5137a	0.027963389
28	0xbb6081c2	-0.003425703
29	0x3ad60fbc	0.0016331594
30	0xbc585324	-0.013203416
31	0x3dd6b334	0.10483399
32	0xbd719622	-0.05898107
33	0x3df0c5b2	0.117564574
34	0x3c52d2b2	0.0128676165
35	0x3e0937dc	0.13400215
36	0xbcf41e9d	-0.029799754
37	0x3b670771	0.0035252238
38	0xbc5f33f5	-0.013623227
39	0x3bffc0d2	0.0078049684
40	0xbcf41e9d	-0.029799754
41	0x3d344f58	0.04402098
42	0x3cfcf613	0.030879056
43	0x3cb59aad	0.022168482
44	0x3d765d34	0.06014748
45	0xbcf41e8b	-0.02979972
46	0x3d948a89	0.07252986
47	0x3c93030e	0.017945793
48	0xbcf41e9d	-0.029799754
49	0xbcbb661d	-0.02287584
50	0xbcf41e9d	-0.029799754
51	0x3c1dac31	0.009623573
52	0xbcf41e9d	-0.029799754
53	0xbb864c6e	-0.0040984666
54	0x3bd8363e	0.006598263
55	0xbd6f5196	-0.058427416
56	0x3c6ea747	0.014566249
57	0xbcf41e9d	-0.029799754
58	0x3d846c14	0.06465927
59	0xbc67916b	-0.014133791
60	0x3d3df764	0.04637851
61	0x3dfdcc97	0.12392538
62	0xbcf392b8	-0.029733047
63	0x3ccb83d1	0.024843128
64	0x3cb8b444	0.022546895
65	0x3c31b64c	0.010846686
66	0xbce7ec2b	-0.028310856
67	0x3d8089fa	0.06276317
68	0x3dbd5d6a	0.09246333
69	0xbce5e7ae	-0.028064575
70	0xbce7ec2b	-0.028310856
71	0xbce7ec2b	-0.028310856
72	0xbb793714	-0.0038027214
73	0xbce7ec2b	-0.028310856
74	0x3ca82aeb	0.020528277
75	0x3d5c68a3	0.053810727
76	0xbce7ec2b	-0.028310856
77	0xbd27f567	-0.04100552
78	0x3c32a420	0.010903388
79	0x3e1468e7	0.14493142
80	0x3bcbeced	0.006223312
81	0x3dab176b	0.08354076
82	0x3e13aa50	0.14420438
83	0xbc8371b3	-0.016045427
84	0xbca94ab3	-0.020665502
85	0x3d35487f	0.04425859
86	0xbce7ec2b	-0.028310856
87	0x3d6d9a1f	0.05800831
88	0xbce7ec2b	-0.028310856
89	0x3da867a4	0.08222893
90	0xbc4151ae	-0.011799259
91	0x3b978e62	0.0046251277
92	0xbbc5f261	-0.0060408567
93	0x3dc3b7f7	0.09556573
94	0xbc45744e	-0.012051655
95	0x3d821790	0.063521504
96	0x3c8cb2b0	0.017175049
97	0xbbb159b4	-0.005412305
98	0xbc428cc1	-0.011874379
99	0x3c3c811d	0.011505392
100	0xbce7ec2b	-0.028310856
101	0x3dfd74ed	0.123758174
102	0xbd51ca43	-0.051218282
103	0x3c56a19b	0.013100053
104	0xbce7ec2b	-0.028310856
105	0x3bf13b19	0.0073617813
106	0x3d925870	0.07145774
107	0x3e09f281	0.13471414
108	0xbce7ec2b	-0.028310856
109	0xbc405fb7	-0.01174157
110	0x3dc8f140	0.0981164
111	0x3dbe024b	0.09277781
112	0xbce7ec2b	-0.028310856
113	0x3d37e367	0.044894602
114	0x3cea7eca	0.02862491
115	0x3c36b6b1	0.011151955
116	0x3cb6519f	0.022255717
117	0xbb87986d	-0.0041380436
118	0x3c1204a0	0.0089122355
119	0xbd5489d7	-0.051889267
120	0x3e0374f0	0.12837577
121	0x3c1756ec	0.009237032
122	0x3b86aa8d	0.0041096867
123	0x3dd8ef7c	0.10592553
124	0xbabe68c3	-0.0014527071
125	0x3d89925f	0.06717371
126	0xbce39f24	-0.027785845
127	0x3d7aea5e	0.061258666
128	0x3c14a60b	0.009072791
129	0x3deca029	0.115539856
130	0x3d4ea98d	0.050454665
131	0x3b3c9795	0.0028776873
132	0x3da1a835	0.07893411
133	0xbc7ee373	-0.015557158
134	0x3d897f22	0.06713702
135	0xbc7e2b41	-0.015513242
136	0xbc7e2b18	-0.015513204
137	0x3dccf66c	0.10007939
138	0x3d2a9fca	0.041656293
139	0xbca2bab4	-0.019864418
140	0xbb30977c	-0.002694576
141	0xbc4ef2bd	-0.0126311155
142	0x3bbf6ae3	0.0058415993
143	0x3cd43be1	0.025907459
144	0x3deef480	0.116677284
145	0x3dd48c6a	0.10378344
146	0x3bd8761e	0.0066058775
147	0x3be07525	0.006849902
148	0x3dbcf543	0.092264675
149	0x3c101707	0.008794553
150	0x3d1cb10c	0.038254783
151	0x3d97a2d1	0.07404102
152	0x3d19cb18	0.0375472
153	0xbc7e2b41	-0.015513242
154	0xbc7e2b41	-0.015513242
155	0xbc8b942c	-0.017038427
156	0xbb3f1987	-0.0029159503
157	0x3b633a69	0.0034672266
158	0xbc7e2b41	-0.015513242
159	0x3d747f46	0.05969169
160	0x3c171131	0.009220407
161	0xbd113d9a	-0.03545914
162	0xbbec1c8b	-0.007205551
163	0x3d3e5177	0.04646441
164	0xbc7e2b41	-0.015513242
165	0x3d56af7f	0.05241346
166	0xbcf2eb13	-0.029653108
167	0x3c1369cb	0.008997391
168	0xbc7e2b41	-0.015513242
169	0xbba0b22e	-0.004904053
170	0xbc7e2b41	-0.015513242
171	0x3d7e914e	0.062150292
172	0xbc7e2b41	-0.015513242
173	0xbc4e2af9	-0.012583488
174	0xbc159f75	-0.009132256
175	0x3ba1e84b	0.0049410216
176	0x3ca110e5	0.019661376
177	0x3b9b7083	0.004743637
178	0x3dc407ac	0.09571776
179	0x3db3f349	0.08786637
180	0x3ddaca5a	0.10683127
181	0xbd56358b	-0.052297156
182	0x3b8891b1	0.0041677584
183	0xbbded087	-0.0067997607
184	0x3d898354	0.06714502
185	0x3d2205fc	0.03955649
186	0x3aef0700	0.0018236339
187	0x3deb2c8e	0.114831075
188	0xbc7e2b3b	-0.015513237
189	0x3c756000	0.014976501
190	0xbc7e4dd1	-0.015521483
191	0x3bba9f72	0.005695277
192	0x3d9a588a	0.07536419
193	0x3df99fae	0.121886596
194	0x3cd3245c	0.025774173
195	0x3d88f676	0.06687634
196	0xbcc8c92d	-0.02450999
197	0xbcb84a9e	-0.022496518
198	0x3c2110cf	0.009830668
199	0x3dad8df2	0.084743395
200	0x3cf29b56	0.029615086
201	0xbcba7672	-0.022761557
202	0xbd117342	-0.03551031
203	0x3db5472a	0.08851464
204	0xbcba7672	-0.022761557
205	0xbca896d2	-0.02057973
206	0xbc37b955	-0.01121362
207	0xbca2d2a4	-0.019875832
208	0x3bc2c72e	0.005944154
209	0xbcb9055f	-0.022585569
210	0x3c627f09	0.013824233
211	0x3ccc4354	0.024934448
212	0x3d5ddaf9	0.054163907
213	0x3d6a0adb	0.05713926
214	0xbcba7672	-0.022761557
215	0x3b941f92	0.004520365
216	0xbc3793e7	-0.011204696
217	0xbcba7672	-0.022761557
218	0xbcba7672	-0.022761557
219	0x3e012663	0.126123
220	0x3c837b46	0.016049992
221	0x3c0a9061	0.008457274
222	0xbcab7100	-0.020927906
223	0x3b1c6160	0.002386175
224	0xbcf69022	-0.030098025
225	0x3c84a23a	0.016190637
226	0x3d7d7d70	0.061887205
227	0x3c6d714f	0.014492347
228	0xbcba7672	-0.022761557
229	0x3c5090eb	0.012729864
230	0x3d38c118	0.045106024
231	0x3b7665ef	0.0037597378
232	0xbcba7672	-0.022761557
233	0x3cb9eb01	0.022695066
234	0xbcba7672	-0.022761557
235	0x3d8ffc73	0.07030573
236	0xbcba7672	-0.022761557
237	0xbcba75ef	-0.022761313
238	0x3dde4fe1	0.108550794
239	0xbce2a34d	-0.027665759
240	0xbcba7672	-0.022761557
241	0x3dddff90	0.1083976
242	0xbcba7672	-0.022761557
243	0x3c63c790	0.01390256
244	0x3dc6de1c	0.09710333
245	0x3ccb57f2	0.024822209
246	0x3d8f6d17	0.07003229
247	0x3d4281b1	0.047486965
248	0x3d189e31	0.037260238
249	0xbcba7672	-0.022761557
250	0x3c16a4a8	0.009194531
251	0xbce1eca7	-0.027578665
252	0xbcba7663	-0.02276153
253	0x3c52dec3	0.012870493
254	0xbc037c9b	-0.008025314
255	0x3c6a827c	0.014313336

bias f4 [64]
0	0xbcf41e99	-0.029799746
1	0xbce7ec3c	-0.028310888
2	0x3d5d4db9	0.0540292
3	0xbcba7666	-0.022761535
4	0x3d10cf28	0.03535381
5	0x3c816b45	0.01579822
6	0xbc3922f9	-0.011299842
7	0xbc1aad99	-0.009440803
8	0xbbabe7e4	-0.0052461494
9	0x3d395bc6	0.045253538
10	0xbc818be4	-0.015813775
11	0xbbc0b60a	-0.0058810757
12	0xbcaa81b5	-0.020813802
13	0x3dca224e	0.09869824
14	0xba9a3eb7	-0.0011767958
15	0xbc5bfbf4	-0.0134267695
16	0x3cba031c	0.02270656
17	0xbcc7ec49	-0.024404662
18	0x3c8b4f5b	0.017005613
19	0xbca987d3	-0.020694649
20	0x3d17878d	0.036994506
21	0x3cd67b87	0.02618195
22	0xbc91a832	-0.017780397
23	0x3d845a74	0.06462565
24	0x3d6bd94c	0.057580277
25	0x3db315d2	0.08744396
26	0x3d7b1a3b	0.061304312
27	0xbce966b2	-0.028491352
28	0xbc4eeec7	-0.012630171
29	0xbc2b0912	-0.010439174
30	0xbd5d128f	-0.053972777
31	0x3ca755d4	0.020426668
32	0xbc460ded	-0.012088281
33	0x3cd13b75	0.025541047
34	0x3db02530	0.08600843
35	0x3dd3ea6c	0.10347447
36	0xbbd7acb6	-0.006581868
37	0xbc8d6750	-0.017261177
38	0x3ca109d0	0.019658
39	0x3c04b871	0.008100615
40	0xbcd6e278	-0.026231036
41	0xbc4d0c2d	-0.01251511
42	0x3d7339e3	0.059381377
43	0xbc46cb8d	-0.012133491
44	0xbc283abd	-0.010267911
45	0xbcc8f318	-0.024529979
46	0x3d188909	0.037240062
47	0x3d6e33b8	0.05815479
48	0x3992d2d9	0.00028004384
49	0x3dabfcea	0.08397849
50	0xbcfaf260	-0.030633152
51	0xbbe1a021	-0.006885544
52	0xbcda8dbf	-0.026678918
53	0x3d7578da	0.059929706
54	0x3c1f05ee	0.009706004
55	0xbc83f265	-0.016106794
56	0xbc7ef422	-0.0155611355
57	0xbca5513d	-0.020180339
58	0x3cbf0aa1	0.023320498
59	0xbc8f058f	-0.017458705
60	0xbc98b616	-0.018641513
61	0xbceaad0c	-0.028646968
62	0xbc85dbde	-0.016340192
63	0xbbb1c58b	-0.0054251603

weight f4 [64, 64]
0	0x3c4b4f28	0.012409009
1	0x3d2d5536	0.04231759
2	0xbc497d36	-0.012297919
3	0xbcf0de29	-0.02940281
4	0x3bae5c15	0.0053210356
5	0x3caac328	0.02084501
6	0xbca8bda2	-0.020598236
7	0x3dc3a055	0.09552065
8	0xbd64553e	-0.055745356
9	0x3be729df	0.007054552
10	0xbd13532d	-0.035967994
11	0x3ce60b2f	0.028081505
12	0xbc56a4e9	-0.013100841
13	0xbd3821a3	-0.044953953
14	0x3d53d3ea	0.05171577
15	0x3d9543a3	0.07288291
16	0x3c8b554f	0.017008452
17	0x3da88c35	0.08229867
18	0x3d1f5dae	0.0389077
19	0x3d03b7fe	0.03215789
20	0x3bb1c113	0.0054246276
21	0x3c8c7815	0.017147103
22	0x3c02f8b5	0.007993867
23	0x3da72066	0.081604764
24	0xbb3f7395	-0.002921318
25	0x3d97de1f	0.07415413
26	0xbd0be733	-0.034156036
27	0xbd0bc5b8	-0.034124106
28	0x3dcb6161	0.09930683
29	0xbd4c48f9	-0.04987428
30	0x3c85e8e9	0.016346412
31	0x3d933a2e	0.07188831
32	0x3d110041	0.035400633
33	0xbd34ebbb	-0.044170123
34	0x3c3bd46b	0.011464219
35	0x3db0b866	0.08628921
36	0x3b96cb0b	0.0046018413
37	0x3d3c4ed0	0.0459736
38	0xbd17609e	-0.036957376
39	0x3c3f8db0	0.011691496
40	0x3dc91856	0.09819095
41	0x3d86f953	0.065905236
42	0x3c0d9747	0.008642024
43	0x3cad806d	0.021179402
44	0x3cde16ce	0.027110483
45	0xbd43f854	-0.047844246
46	0x3dd1287e	0.102128014
47	0x3b325430	0.0027210824
48	0x3e085cd0	0.13316655
49	0x3cfbf656	0.03075711
50	0x3c5de7c1	0.013544024
51	0x3cdbec79	0.026846157
52	0xbcedffb1	-0.029052587
53	0xbb568767	-0.0032734515
54	0xbd170963	-0.036874186
55	0x3d2ac00e	0.041687064
56	0xbc82ba14	-0.01595787
57	0xbce3c8a6	-0.027805638
58	0x3b9f27ce	0.00485704
59	0x3cae20f7	0.021255953
60	0x3ca3b05c	0.019981556
61	0xbd118123	-0.035523545
62	0xbc96dd92	-0.0184162
63	0x3c9d88cd	0.01923027
64	0xbd006a33	-0.03135128
65	0x3d3fd041	0.046829466
66	0xbc6039df	-0.013685673
67	0xbcd39f7a	-0.02583288
68	0xbc9d9e93	-0.019240653
69	0xbcb84b4b	-0.02249684
70	0xbc928fd5	-0.01789085
71	0xbca90738	-0.020633325
72	0xbc6f9f0d	-0.014625323
73	0xbc9dab1d	-0.019246632
74	0xbce130b0	-0.027489036
75	0xbc553f80	-0.013015628
76	0xbcc622a8	-0.024186447
77	0xbc848965	-0.016178796
78	0xb9866000	-0.00025629997
79	0x3d5a8845	0.053352613
80	0x3ceb57a3	0.028728312
81	0x3d00e9fa	0.031473137
82	0x3daeca04	0.08534625
83	0xbcd0128a	-0.025399465
84	0xbc98e18b	-0.018662235
85	0xbbce2ef3	-0.006292218
86	0x3c72d2da	0.014820779
87	0xbc941837	-0.018077953
88	0xbc3cf8f6	-0.011533966
89	0xbc6192e4	-0.013767932
90	0x3d54a9ce	0.05191975
91	0xbce93304	-0.028466709
92	0x3d06314a	0.03276185
93	0x3cc2892c	0.02374705
94	0xbc92e635	-0.017932037
95	0xbc812041	-0.01576245
96	0x3d894382	0.06702329
97	0x3c446ea5	0.01198927
98	0xbc8478f0	-0.016170949
99	0xbc7baeff	-0.015361547
100	0xbbdfdc13	-0.006831655
101	0xbca10c7f	-0.019659279
102	0xbc1ae46f	-0.009453877
103	0xbcd0979b	-0.025462916
104	0xbc27e89a	-0.010248328
105	0xbc8c58d2	-0.017132197
106	0xbc5d7c27	-0.01351837
107	0xbcc54d49	-0.024084704
108	0xbd330637	-0.0437071
109	0x3c0d922f	0.00864081
110	0xbc104c29	-0.0088072205
111	0x3d3f6efa	0.046736695
112	0xbc93bcde	-0.018034395
113	0x3cfb03d2	0.03064147
114	0x3db1cba8	0.086814225
115	0xbc8f9c30	-0.01753053
116	0xbc629cd4	-0.013831336
117	0x3d504d61	0.050855044
118	0x3d6a146b	0.05714838
119	0x3d3aaafd	0.045573223
120	0xbb5a8eb9	-0.003334923
121	0xbcc34281	-0.023835422
122	0x3d7a19d0	0.061059773
123	0xbcabad55	-0.020956675
124	0xbcfa9c9b	-0.030592253
125	0xbc995e27	-0.018721653
126	0x3db9a449	0.09064538
127	0xbc908e2c	-0.017645918
128	0xbb2a4f13	-0.0025987073
129	0x3d10a8a0	0.035317063
130	0xbcd7e4a0	-0.026354134
131	0x3d1ee455	0.038791973
132	0x3d9557a2	0.07292105
133	0xbc81d1ed	-0.01584717
134	0x3d0548ec	0.032540247
135	0x3d9d7fbb	0.07690378
136	0xbd63c606	-0.05560877
137	0x3dea262f	0.11433064
138	0xbd18e89c	-0.03733121
139	0x3d6800cb	0.05664138
140	0xbd133e17	-0.035947885
141	0xbd4243c5	-0.04742791
142	0xbd28e338	-0.041232318
143	0xbd1ce912	-0.03830821
144	0x3d915a15	0.0709726
145	0x3d115994	0.03548582
146	0xbbe1e951	-0.0068942686
147	0xbcd9329e	-0.026513394
148	0xbb118a71	-0.0022207762
149	0x3d96dec1	0.07366706
150	0xbc2bb3b7	-0.010479859
151	0x3b243296	0.0025054566
152	0x3db4d317	0.08829325
153	0xbc54d876	-0.012991061
154	0xbd0d528c	-0.03450255
155	0xbd203bb9	-0.039119456
156	0xbc2d0a09	-0.010561475
157	0xbd8564bf	-0.065133564
158	0xbba8064d	-0.0051277042
159	0x3bcaea84	0.006192507
160	0x3e0149b9	0.12625779
161	0xbd307326	-0.043078564
162	0x3c5632bc	0.013073619
163	0x3d1dee69	0.038557444
164	0x3d46255f	0.048375484
165	0x3bb8c5d8	0.005638819
166	0xbd17d608	-0.03706935
167	0xbbe27f21	-0.0069121276
168	0xbca41c3c	-0.020032994
169	0x3d11c5a5	0.03558888
170	0x3d9b7e99	0.07592506
171	0x3d9bcf16	0.07607858
172	0xbd937d24	-0.07201603
173	0xbd40a23f	-0.04702973
174	0x39352701	0.00017276035
175	0xbc0cb4b7	-0.008588008
176	0x3c40ac2d	0.0117598
177	0x3c27bbdc	0.01023766
178	0xbb2bf5dc	-0.0026239073
179	0x3d2fca30	0.04291743
180	0xbd07926a	-0.033098616
181	0xbbe1df6f	-0.0068930904
182	0xbd270047	-0.04077175
183	0x3bad575d	0.0052899555
184	0xbcb939d1	-0.022610577
185	0x3d10cd70	0.03535217
186	0x3c75de14	0.015006561
187	0x3dbb3a4d	0.09141979
188	0x3b6d38ef	0.0036197265
189	0xbd2d7814	-0.042350844
190	0x3bfb2364	0.007664131
191	0x3af44b57	0.0018638176
192	0x3d8bc538	0.06824726
193	0x3d3a7724	0.045523778
194	0xbd062ee2	-0.032759555
195	0x3df27b90	0.11839974
196	0xbce231c1	-0.027611615
197	0x3dd227d3	0.10261502
198	0x3c5b2df3	0.013377654
199	0x3cd5dc9c	0.026106171
200	0x3d810a96	0.06300847
201	0x3d84e379	0.064886995
202	0x3d54a626	0.051916264
203	0xbc87afe2	-0.01656336
204	0x3e29058f	0.16506027
205	0x3d82a3da	0.063789085
206	0x3a84572d	0.0010096781
207	0x3d9a7f4d	0.07543812
208	0xbd21a079	-0.03945968
209	0xbc81c609	-0.0158415
210	0x3c4d4aff	0.0125300875
211	0x3cd67e63	0.026183313
212	0x3d8d11e4	0.06888178
213	0xbcaae8c6	-0.020862948
214	0xbd157f7f	-0.036498543
215	0x3bd97b3a	0.006637004
216	0x3d39888a	0.04529623
217	0xbcb55420	-0.02213484
218	0x3e13a16d	0.14417048
219	0x3d57b131	0.052659217
220	0xbcfe064f	-0.031008868
221	0x3d8710b1	0.065949805
222	0xbd0d824d	-0.034548093
223	0xbd3be141	-0.045869116
224	0x3c95d929	0.018292027
225	0x3d4a1fa6	0.04934659
226	0xbd0ad35a	-0.033892967
227	0xbc8d1d01	-0.017225744
228	0x3e24fe58	0.1611265
229	0xbd4558be	-0.048180334
230	0x3d2b8388	0.041873485
231	0xbccccefa	-0.025001038
232	0xbc5aeac8	-0.01336164
233	0xbccde1ed	-0.025132144
234	0xbd19c371	-0.037539903
235	0x3d5d5389	0.054034743
236	0x3e1c2a1e	0.15250441
237	0x3e0b979c	0.13632053
238	0x3d08e042	0.033416994
239	0xbc0106db	-0.00787517
240	0xbd09ccb1	-0.033642475
241	0x3d925207	0.07144552
242	0x3d91e314	0.0712339
243	0xbd26e9e5	-0.040750403
244	0x3d4c0263	0.049806964
245	0xbcfad02c	-0.030616842
246	0x3d2cef51	0.042220417
247	0xbd025d36	-0.031827174
248	0x3cfc5cb1	0.030805917
249	0x3dc26206	0.09491353
250	0xbd5ad641	-0.053426985
251	0xbb7ac6ac	-0.003826539
252	0xbd3056eb	-0.04305164
253	0x3d2a3690	0.04155594
254	0xbcca5377	-0.024698002
255	0xbcd89ddb	-0.026442459

bias f4 [64]
0	0xbb113221	-0.0022155123
1	0x3b7f1811	0.0038924257
2	0xbbc1e26c	-0.005916884
3	0xbced6e1b	-0.028983166
4	0xbd899b32	-0.06719054
5	0xbb7aacad	-0.0038249895
6	0xbab1ebf0	-0.0013574343
7	0xbc94b5f5	-0.01815317
8	0x3d5aecb7	0.053448405
9	0xbce0453f	-0.02737677
10	0x3de3b5eb	0.111186825
11	0xbc987618	-0.018610999
12	0x3c426326	0.011864459
13	0xb9b6f1fc	-0.00034894038
14	0x3b62fe08	0.0034636278
15	0x3d667da4	0.056272164
16	0x3c68578c	0.014181029
17	0x3c1be304	0.009514574
18	0xbd50375f	-0.050834056
19	0x3c3ece24	0.011645827
20	0xbca3784c	-0.019954823
21	0xbbd92e67	-0.006627846
22	0x3c741218	0.014896892
23	0x3cac4d0d	0.021032834
24	0xbd029cec	-0.031887934
25	0x3d8f6a4c	0.070026964
26	0x3e03c607	0.1286851
27	0xb92ee72e	-0.00016680054
28	0x3d5828aa	0.052773155
29	0xbd5dad29	-0.054120217
30	0xbbc5168a	-0.0060146498
31	0xbd078471	-0.03308529
32	0xbd051933	-0.032494735
33	0x3dcd8c72	0.100365534
34	0xbc6e214c	-0.014534306
35	0x3dbaafb5	0.09115545
36	0x3d235f58	0.03988585
37	0x3d949712	0.07255377
38	0xbd89dda7	-0.0673173
39	0x3d931dba	0.07183404
40	0x3c38e68b	0.0112854345
41	0x3d925cc5	0.07146601
42	0x3dc7b8bc	0.09752032
43	0x3db22bd1	0.086997636
44	0x3d95f9f8	0.073230684
45	0x3bb48463	0.005508946
46	0xbd8249c6	-0.063617274
47	0xbd05c490	-0.03265816
48	0x3c459422	0.012059243
49	0xbcc12f5b	-0.023582151
50	0x3ca8c644	0.020602353
51	0x3d86571a	0.06559582
52	0x3b115d80	0.0022180974
53	0x3b8cd7d7	0.004298191
54	0x3ba2cc36	0.0049681915
55	0x3b6433eb	0.0034820985
56	0x3cd09fb3	0.025466776
57	0xbc818b6d	-0.015813554
58	0xb9b75452	-0.00034967304
59	0x3ca47dcf	0.020079521
60	0x3d00e212	0.031465597
61	0x3c24ba2f	0.010054155
62	0xbc9dc0e5	-0.019257018
63	0x3bcba85b	0.006215138

weight f4 [5, 64]
0	0xbca7996b	-0.020458898
1	0x3d33d886	0.043907665
2	0xbcb7c754	-0.022433914
3	0x3b0e7cc7	0.0021741854
4	0xbce9a9c7	-0.028523339
5	0x3df92b9f	0.12166523
6	0xbce68a6e	-0.02814218
7	0x3cde1255	0.02710835
8	0xbd064980	-0.03278494
9	0xbc52793e	-0.012846289
10	0xbcdf68c4	-0.027271636
11	0xbce14888	-0.027500406
12	0x3de063c6	0.1095653
13	0xbcab42ed	-0.020905936
14	0x3c8c7e28	0.01715
15	0xbcbc6ad0	-0.02300015
16	0x3d6e185a	0.058128692
17	0xbc68124a	-0.014164517
18	0xbcf1f914	-0.029537715
19	0xbcebfd0e	-0.02880719
20	0xbc8ef766	-0.017451953
21	0xbd041a60	-0.032251716
22	0x3dd108e8	0.10206777
23	0xbb720421	-0.003692873
24	0xbcffc1a9	-0.031220274
25	0x3d1e97f8	0.038719147
26	0x3d8a2069	0.06744463
27	0xbcf160e2	-0.029465143
28	0x3d7cee1b	0.061750513
29	0xbc56dafb	-0.013113732
30	0xbcb7531a	-0.022378493
31	0xbce78fc3	-0.028266793
32	0x3c1a5704	0.00942016
33	0xbcfffead	-0.031249369
34	0x3a940af8	0.0011294773
35	0xbcbe1bc3	-0.023206597
36	0xbcc34865	-0.023838231
37	0x3dfbaf31	0.122892745
38	0xbcb2eca1	-0.02184135
39	0x3d7be3da	0.061496593
40	0x3d53aadc	0.051676616
41	0xbc987f02	-0.01861525
42	0x3d4e06cf	0.050299462
43	0xbc71f45b	-0.014767732
44	0x3c3fc5e7	0.011704898
45	0x3cfd4288	0.030915514
46	0xbcedf058	-0.029045269
47	0xbc7c3df4	-0.01539563
48	0xbcece43a	-0.02891742
49	0x3b7673b7	0.0037605593
50	0x3d9d9180	0.076937675
51	0xbcd5ab6e	-0.02608272
52	0xbc902b88	-0.017598882
53	0x3ddea60e	0.10871516
54	0xbcd5a46a	-0.026079375
55	0xbd054b82	-0.032542713
56	0xbd07e5bf	-0.033178087
57	0x3d0f0ab4	0.034922317
58	0x3ddda42e	0.108223304
59	0xbc0d0af9	-0.008608573
60	0x3d04e0ad	0.03244083
61	0xbc833222	-0.016015116
62	0xbc74b2ea	-0.014935235
63	0x3d02a515	0.031895716
64	0x3cb2b11a	0.021812964
65	0x3d12dab8	0.035853118
66	0x3dc8c8e1	0.098039396
67	0xbc89f7fd	-0.016841883
68	0x3c060368	0.008179523
69	0xbcb05948	-0.021526948
70	0xbbd2be69	-0.00643139
71	0x3d6688d5	0.056282837
72	0xbc28eff3	-0.010311115
73	0x3db2bede	0.08727811
74	0xbc6389ea	-0.013887862
75	0x3d58a36c	0.052890226
76	0x3dd54b88	0.10414797
77	0xbc93aae5	-0.018025825
78	0xbca6a649	-0.020342963
79	0x3ce236fe	0.027614113
80	0xbc96f31c	-0.01842647
81	0xbc819b38	-0.015821084
82	0xbc7b0e6b	-0.015323262
83	0xbc24fa2a	-0.010069409
84	0x3d0dfe76	0.0346665
85	0xbc6a688e	-0.014307154
86	0xbc49993d	-0.012304601
87	0xbc85b70b	-0.016322633
88	0xbc57cb87	-0.013171083
89	0x3db36f89	0.08761508
90	0xbca3665b	-0.019946268
91	0xbc383dbb	-0.011245186
92	0x3dc58dd3	0.096461914
93	0x3d58214c	0.05276613
94	0xbc836440	-0.016039014
95	0x3d1c520f	0.038164195
96	0x3cc23da6	0.023711037
97	0xbc550e77	-0.013003937
98	0xbcad68b0	-0.021168083
99	0x3dedeba5	0.11617211
100	0xbc7bce32	-0.015368985
101	0x3d58a8e8	0.052895457
102	0x3d00415d	0.031312335
103	0xbca80fe9	-0.020515399
104	0x3dc1ecc4	0.094689876
105	0xbc90867d	-0.017642254
106	0xbc8856e1	-0.01664299
107	0xbc963040	-0.018333554
108	0x3dc19a82	0.09453298
109	0x3dd76b7f	0.1051855
110	0xbc8d7243	-0.017266398
111	0x3db3d68e	0.087811574
112	0xbc8fe112	-0.017563377
113	0xbca4a84d	-0.020099783
114	0xbca3e6dc	-0.020007543
115	0x3cab0f3d	0.02088129
116	0x3db257e9	0.08708174
117	0xbca9c09f	-0.020721732
118	0x3b52bef8	0.0032157283
119	0xbc71890b	-0.014742146
120	0xbd1f53f5	-0.038898427
121	0xbc8e9c04	-0.017408378
122	0xbca71b3d	-0.02039873
123	0x3dc1e9a4	0.094683915
124	0xbcb78701	-0.022403242
125	0x3daa9793	0.08329692
126	0x3dda7b86	0.106680915
127	0xbc941852	-0.018078003
128	0xbc917845	-0.017757544
129	0x3cc7f139	0.024407016
130	0x3d94cb7a	0.072653726
131	0xbc979494	-0.018503465
132	0xbc8fc3a1	-0.017549338
133	0x3dcf51ab	0.10122999
134	0x3d099240	0.03358674
135	0x3d8a3d0f	0.06749927
136	0x3a326758	0.00068055606
137	0x3ddd4ed5	0.10806052
138	0xbb9e27c4	-0.004826518
139	0x3d22c7f8	0.039741486
140	0xbca4aeed	-0.020102942
141	0xbc994ffb	-0.018714895
142	0xbca330fb	-0.019920817
143	0xbca797f7	-0.020458205
144	0x3d842072	0.06451501
145	0x3d6cdcb7	0.057827678
146	0x3b94bb6e	0.004538945
147	0x3dd73ac3	0.10509255
148	0x3d640414	0.05566795
149	0xbc72b118	-0.01481273
150	0x3d1a2e1f	0.03764164
151	0x3c8b7e7a	0.017028082
152	0x3dda9db0	0.10674608
153	0xbdc28bc0	-0.094993114
154	0xbca87943	-0.020565635
155	0x3d28e495	0.041233618
156	0xbcaf15f3	-0.02137277
157	0xbc89be17	-0.016814275
158	0x3d0f9aa4	0.035059586
159	0x3d98aeb9	0.07455201
160	0xbc9fb7e3	-0.019496864
161	0xbc934c6c	-0.017980777
162	0xbc0cd7bf	-0.00859636
163	0x3e0cce95	0.1375068
164	0x3ddb3b14	0.10704628
165	0x3d6c77f7	0.057731595
166	0xbc9a649c	-0.018846802
167	0x3cdcd642	0.026957635
168	0xbcad6baa	-0.021169502
169	0xbc92b226	-0.017907213
170	0xbca3dd12	-0.020002875
171	0x3d8317ad	0.06401
172	0xbca83ebb	-0.020537725
173	0xbca8f3ef	-0.02062413
174	0x3bd643e9	0.0065388572
175	0x3dcfc1b9	0.101443715
176	0xbc2aece9	-0.01043246
177	0xbca3e5f2	-0.020007107
178	0xbd06ad90	-0.032880366
179	0x3dfa59b5	0.122241415
180	0x3a9a0d29	0.001175319
181	0x3cc21aba	0.023694385
182	0x3d7e9496	0.06215342
183	0xbc458a54	-0.012056906
184	0xbccc6643	-0.024951106
185	0x3dae8cef	0.08522975
186	0x3daf3082	0.08554174
187	0x3d18fd93	0.037351202
188	0xbccce592	-0.025011811
189	0xbc11e3c3	-0.0089044
190	0xbcb65e4e	-0.022261765
191	0x3d300cf8	0.042981118
192	0xbc923818	-0.017849013
193	0x3dc4082a	0.0957187
194	0xbc87488c	-0.016514085
195	0xbcb09fb5	-0.02156053
196	0xbcadd68c	-0.021220468
197	0x3dc47ece	0.095944986
198	0x3d935038	0.07193035
199	0xbcc04ea1	-0.023474993
200	0x3d8172c7	0.0632072
201	0xbceb7dce	-0.028746512
202	0xbc8b1ba3	-0.016980952
203	0x3d9e667d	0.07734392
204	0x3c8aa4ee	0.016924348
205	0x3d7fe83f	0.062477347
206	0x3da41faa	0.08013852
207	0x3d3fa3e8	0.046787173
208	0xbc623a5a	-0.013807857
209	0xbc7a5591	-0.01527919
210	0x3c0ef5fa	0.008725638
211	0x3c556052	0.013023453
212	0xbcb21dcd	-0.021742726
213	0x3d87288a	0.06599529
214	0xbca5beef	-0.020232646
215	0xbc765bc9	-0.015036532
216	0xbc17b601	-0.009259702
217	0x3d975a64	0.073902875
218	0xbc436cc0	-0.0119277835
219	0x3d79e112	0.06100566
220	0x3c706bca	0.014674136
221	0xbcb6fabb	-0.022336354
222	0xbc8e5332	-0.017373655
223	0x3c2fc014	0.010726947
224	0xbc0dd343	-0.008656326
225	0xbcb7c8dd	-0.022434646
226	0x3dce85e9	0.10084135
227	0x3c3727b2	0.011178898
228	0x3c824c82	0.015905622
229	0xbcba2b36	-0.022725683
230	0xbcab91d8	-0.020943567
231	0xbc5c0126	-0.013428008
232	0x3b43c282	0.0029870574
233	0x3dad8579	0.084727235
234	0x3ccaa62a	0.024737436
235	0x3dca35e6	0.098735616
236	0xbcf6e895	-0.0301402
237	0x3d915b9c	0.07097551
238	0xbca20678	-0.019778475
239	0xbd07ac3d	-0.033123244
240	0xbc76523a	-0.015034253
241	0xbc76e574	-0.015069354
242	0xbc9637f4	-0.018337227
243	0x3cc758c0	0.024334311
244	0xbc8c1d3b	-0.017103782
245	0x3d64c4b3	0.05585165
246	0xbc95b298	-0.018273637
247	0xbc675f0c	-0.014121782
248	0xbc408a34	-0.0117517
249	0xbce6d5b7	-0.028178079
250	0x3d932996	0.07185666
251	0xbcd721ed	-0.026261294
252	0x3c8403e3	0.016115135
253	0xbcd51133	-0.026009178
254	0x3dc4872f	0.09596097
255	0x3d31751c	0.043324575

bias f4 [5]
0	0x3c575c5e	0.013144581
1	0xbcb28d42	-0.021795873
2	0x3ce26a92	0.027638707
3	0x3d33fbc7	0.043941285
4	0x3e084af1	0.13309838
