digital_twin/beluga/pinn_4/model.pt (torch, 42045 bytes, 8 tensors)

weight f4 [64, 2]
00000000: e838 d3bc 056b b53d 2820 5abc 2d19 d5ba
00000010: 8a39 26bd df79 113f d694 3cbb 9785 08bc
00000020: 0c27 ed3b 7b72 cfbc 8435 473c 7afe a63d
00000030: 9afe d23b c14f e23e c38d 0cbd 051d 1e3f
00000040: dc7f 60bc 1c7d a93e ff59 16bd a531 e83e
00000050: c14d 403c 2488 57bd face c4bb 502c 623e
00000060: d822 903c 31ba d63e 5ea3 55bd 15a6 593e
00000070: 4f29 7b3c 3f62 1cbe 6afe 353d 1477 43be
00000080: 004f d03b fcd6 2fbc 7687 d13b 0dc6 7c3e
00000090: 5f3e 803d 9b4f cabe 1627 053c c0b0 9dbc
000000a0: 31dd 00bd 9638 183e f596 6a3d 6d42 1ebe
000000b0: a662 5cbd 6598 103f 8331 4ebb 759e 933a
000000c0: 21d4 8f3b d390 d73e 101f 123e b406 c13d
000000d0: 96c1 403d b78d d03e d48b 0f3b 0aed cebc
000000e0: 5b5b 06bc d815 19bb 3db7 8abc 49fe 2c3d
000000f0: 4e83 50bb db17 fb3e 9572 45bb d9ad a5bc
00000100: 5efd 52bc d22d 723d e648 063e 0fff 6d3c
00000110: 694a 58bd 8960 cc3c a604 66bb 1854 89bc
00000120: d613 77bb ec26 363f 2297 053c aa7b 77bd
00000130: b7ae bbbc 65c5 c93d a230 553c f053 9fbd
00000140: f5f5 06bd fa74 ea3e d53e 3abc cc5a 263d
00000150: 33e7 cb3d 05e0 8f3e 6afb 693d 0836 27be
00000160: 856e 90bb 7e2e 8e3e 98d2 663c 6ce5 703e
00000170: 204c 0fbb 9353 1cbc bab5 cc3b 7e9e fdbc
00000180: 7f79 74bd 5aca 293f b43a b53d c7ce 00be
00000190: 52cf 6b3c 637f 983e 1888 07bd 0e49 4e3e
000001a0: e5a9 c63b 6578 273f aa0b 103d efeb 9fbd
000001b0: b70e 93bd 2cab f53d 88b3 b6bb 3a97 0dbc
000001c0: 36ca a1bc 90c9 843c 6fc9 883d d850 fc3e
000001d0: 409b 23bc 74eb dc3c b403 1d3c 5ec1 31bd
000001e0: bcbc 45bd bde5 023f 6f73 843c a610 033d
000001f0: 542b 33bc 2a23 593e 7e6a bdbc 2f0d b43d
-0.025783971 0.08858303 -0.013313331 -0.0016258113 -0.040582217 0.56826586 -0.0028775237 -0.008332632
0.0072373208 -0.025323143 0.012158755 0.08154006 0.0064390423 0.44201472 -0.034314882 0.6176303
-0.013702359 0.33103263 -0.03670692 0.45350376 0.011737288 -0.05262007 -0.006006119 0.22087216
0.01759474 0.41938928 -0.052157752 0.21254762 0.015329673 -0.15271853 0.04443208 -0.19088393
0.006357074 -0.010732409 0.006394322 0.24684925 0.06261896 -0.3951386 0.008126995 -0.01924932
-0.031460945 0.14865336 0.05727287 -0.15455027 -0.053805016 0.56482536 -0.0031462617 0.0011262434
0.0043893014 0.4210268 0.14269662 0.09425107 0.047059618 0.4073312 0.0021903412 -0.025259513
-0.008200492 -0.0023358967 -0.016933078 0.042234693 -0.0031816545 0.49041638 -0.003012811 -0.020224499
-0.01287779 0.05912573 0.13113746 0.014526143 -0.052805338 0.024948375 -0.0035097986 -0.016763732
-0.0037701032 0.7115314 0.008153709 -0.06042067 -0.022910459 0.09852103 0.013012083 -0.07779682
-0.032949407 0.4579237 -0.011367519 0.040613934 0.09956207 0.281006 0.057124533 -0.16329205
-0.004407706 0.27769846 0.014088295 0.23525017 -0.0021865442 -0.00954141 0.0062472494 -0.030959364
-0.05968618 0.6632439 0.08849087 -0.1257888 0.014392691 0.29784688 -0.033088773 0.20145056
0.0060627335 0.6541808 0.035167374 -0.07808673 -0.07180541 0.11995539 -0.005575601 -0.008642012
-0.019749742 0.016209394 0.066790454 0.4928043 -0.009985745 0.026967742 0.009583402 -0.0433973
-0.048275694 0.511318 0.016168324 0.0319983 -0.010935623 0.2120482 -0.023122068 0.08791577

bias f4 [64]
00000000: b0fd 1d3f 5b4a d5ba c642 323f adde 603d
00000010: 9788 163e 08e8 f8bb 838d 6cbc cd8a 533f
00000020: 43e1 dd3e 9fa4 003e 3c3e 0d3d 4d92 113f
00000030: 0a4c a33d 0958 2a3f ee96 1bbe b33e 3cbe
00000040: a898 a63e 0358 053c 8cda c7be c63e 283f
00000050: 5413 ce3e 4e7b b5be 7ff0 893e 2412 0e3f
00000060: d63b 813e 8606 d13d b728 fe3c 23fc 353e
00000070: 1eab fe3d 615b 293e c044 3c3f c2e6 bc3e
00000080: 7bcc 0b3f 5c76 a63e a831 a53e 6457 89bc
00000090: 4d96 b63d 1212 77bd 04d3 963d 00f3 9ebd
000000a0: 5e2e fd3e 0915 863e e010 b5be 7c8b 26be
000000b0: cbf6 363f 8e9d 143f 855b a73e 972a 2c3f
000000c0: bc5f b33e a702 2dbe 9173 4fbc 9e4e 4d3e
000000d0: e9c4 20bd b3e1 f63e 35a0 0c3e b3fb af3e
000000e0: 4b9a 843c d451 bbbd 6d52 f53d ec93 31bd
000000f0: ee1a 723f 7ab8 fe3c fd62 8e3e 0849 b33d
0.6171522 -0.001627277 0.6963314 0.05489986 0.14700542 -0.0075960197 -0.014438036 0.8263367
0.43335924 0.12562798 0.03448318 0.5686386 0.07973488 0.6654058 -0.15194294 -0.18383293
0.32538342 0.008138659 -0.39033926 0.65720785 0.4024912 -0.35445637 0.26941296 0.5549643
0.25240964 0.10206322 0.031025274 0.17771964 0.12434982 0.16538765 0.73542404 0.36894804
0.5460889 0.32512176 0.32264447 -0.016765304 0.08915386 -0.060319968 0.07364467 -0.07761192
0.49449438 0.26187924 -0.35364437 -0.16264147 0.71470326 0.5805291 0.3268701 0.67252487
0.35033977 -0.16895543 -0.0126618305 0.20049521 -0.03925029 0.4821907 0.13732989 0.3437172
0.016186854 -0.09146467 0.11978612 -0.04335396 0.9457234 0.031093825 0.27809897 0.08754164

weight f4 [64, 64]
00000000: 27a1 7abc 89fd 663c 3c1c 553d abe5 db3d
00000010: 22f6 0b3c 2686 bcbc 3d38 bcbc 62e2 b53d
00000020: a6d4 46bc e183 9a3d 8e3d ddbc 6636 aa3d
00000030: 91c8 d13d 1eb7 873d 4210 813d 6f7b 3b3d
00000040: 657e a2bc 5d3b a9bc 7b9a 0f3d 22e9 a5bc
00000050: 5392 e43c 3f63 683d 674f b1bc 25ba 74bc
00000060: 550a bdbc b9b0 e0bb 11d3 bbbc 5f76 323c
00000070: 66e0 133b 08ac 0e3c 2be1 08bd ac5a 793d
00000080: 663e 9bbc b5cb bf3d cd79 cc3c 1611 103e
00000090: 5a45 2ebd 3f0e d9bc f2d8 2b3d 747d c2bc
000000a0: 1e2b 07bc f134 6c3d 89c8 183d 5eed a63b
000000b0: 0c71 463d 666a b8bc f6b4 c43d 1907 b6bc
000000c0: fb05 a2bc 566c 27bb 813a babc b71a 35bc
000000d0: 2f2d bbbc 8988 7fbc 0667 4239 e8a6 d9bc
000000e0: 1220 bc3c 014a bdbc d669 a33d 3536 c2bc
000000f0: ba2f 733d 7330 f03d b330 6ebc c3c9 a63c
00000100: 9dcb 6c3d da80 c63c 0a39 09bd 1928 a13d
00000110: a6b1 db3c 287a e7bc 5570 adbc 5d56 e7bc
00000120: 95fa a03a 604b bfbc 0d93 86bc 48aa eabb
00000130: ebcf b1bc f1ff 25bc 8ba7 1bbd fd85 8d3d
00000140: 8de2 8d3b 9f3b ba3d 8e95 a23d 8f06 52bb
00000150: 030a 843a 67e7 743d 1eba aebc 6ef7 a83d
00000160: 40df acbc f13a b73d ab49 82bb 47ab 08bd
00000170: 83db 4c3c 8da2 df3d fa35 61bd bf0b e03c
00000180: 13c8 283d 2a8a f6bc 8dbc b8bb 9967 cf3c
00000190: cb03 7fbd b70f 183d f660 823c 361c 28bd
000001a0: 0ac9 c5bc 255b a83c 8518 9f3d 4fed 823d
000001b0: ba36 58bd dfa2 8cbb 92a0 df3d 7498 fe3c
000001c0: 2900 07bc ab1d 3e3d 9a5d 143d 4d2f 563c
000001d0: e1a6 f53c f63c 4abc f04a 7f3c c9d3 13bd
000001e0: aea8 123e f8f7 873c 4d5c a13c 3f10 203d
000001f0: 5468 58bb 94e6 163d e16f 7fbc 135a 953d
00000200: cbfb aa3c 44cf ea3d f0a0 f63c 2fdc 663b
00000210: d93b 343d 20c7 a7bc 330a a03d 0285 1bbd
00000220: f044 d4bc 67b5 ae3d 908e bf3c 3558 8bbc
00000230: 2dba d73b ae24 18bb ac51 08bd 4288 38bd
00000240: bad1 d13d 916b eb3d add7 45bd 3e60 913c
00000250: 477a cc3d 62ee 9e3c 4706 9a3c 6388 a53d
00000260: 578d 473d b9ed b0bb fca1 c8bb 3e6e e0bc
00000270: f6bc f8ba 57ec 1a3c 0488 6fbd 3b6e 7e3d
00000280: 2c20 493c 28a1 c8bc 4a4c 71bb b800 313d
00000290: 5103 25bd 7f21 40bc 4beb 733c c09f bebc
000002a0: 114a 00bd 3d72 bc3a dc8f 07bc 9d2b dd3b
000002b0: 09cd fabc b600 d2ba 0909 58bb f346 35bc
000002c0: 4f49 a8bb c3f0 2c3c fdac d93d 0ef1 bb3d
000002d0: 3584 f23d fa8c 8dbc d758 ac3b c321 26bc
000002e0: e4fd 863d 35b3 513d 04f0 133b 1016 7c3d
000002f0: 3ce0 09bd c50f 74bb 3f99 efbc dc71 d03b
00000300: c6ec 8e3d 056b f13d 8540 243d 49fa 763d
00000310: cd8c ebbb 1a8a 86bc b883 ef3b 75da bd3d
00000320: 2efd d33c 7d2e 96bc 7353 96bc bafc 843c
00000330: e792 c8bc 6082 0fbd 3496 a0ba 4672 bb3c
00000340: ca9b 9d3c 6381 bfbc 41de e53c 2331 993c
00000350: 8224 063d 3889 873d 0e63 e1bc acf5 0a3c
00000360: 4ea8 64bc c788 cebc fc60 c7bc 4d20 e93d
00000370: ae7e 2d3b 13ac 83bb a1af 45bd b993 f2bc
00000380: 7f64 f9bc dc93 5fbc a38f 273d 2ba5 273c
00000390: 8fd0 2abd 4a78 3a3d b361 8c3d 7c9e b2bb
000003a0: 43f3 42bc dda5 9d3b 38ce d8bc d965 d03d
000003b0: 2716 e8bc 2f98 c8bc afe3 bb3d b4e2 aabc
000003c0: 2ac8 90bc fcec e03d 2859 c7bc 156b e9bb
000003d0: 98fa c23d 6d3d 65bc 554f 6f3d 5d18 a93c
000003e0: d003 123d 0f0a d3bc 510c 653b bc0e ccbb
000003f0: e45e d3bc df86 5a3c 0c88 42bc 106b e43b
-0.015297211 0.014098533 0.05202888 0.10737165 0.008542569 -0.023013186 -0.022976035 0.0888107
-0.01213566 0.07544685 -0.02700689 0.08311157 0.10243333 0.06626724 0.06301929 0.045772012
-0.01983566 -0.02065819 0.035059433 -0.020252768 0.027901804 0.056735273 -0.021644307 -0.014936958
-0.023076216 -0.0068570045 -0.022927793 0.01089248 0.0022564172 0.008708008 -0.033417862 0.060877487
-0.018950652 0.09365026 0.024960423 0.14069018 -0.042546608 -0.02649605 0.041954942 -0.023741461
-0.008250026 0.057667676 0.03730062 0.0050942143 0.048447654 -0.022511672 0.09604828 -0.022220181
-0.019778242 -0.002554675 -0.022732975 -0.011053733 -0.022848694 -0.015596517 0.00018539661 -0.026568845
0.022964511 -0.023106577 0.07979171 -0.023707489 0.059371687 0.11727991 -0.014537978 0.02035988
0.05781137 0.024231363 -0.033501662 0.07868976 0.026818108 -0.02825649 -0.021171728 -0.028239423
0.001228171 -0.023351371 -0.016427541 -0.0071614124 -0.021705588 -0.010131822 -0.03800158 0.06910322
0.0043299855 0.09093403 0.079386815 -0.0032047366 0.0010073785 0.059790995 -0.021328982 0.082503185
-0.021102548 0.08946789 -0.003976067 -0.033366468 0.012503508 0.10919676 -0.054983117 0.027349351
0.04120643 -0.030095179 -0.0056377114 0.025317954 -0.062259477 0.03712436 0.015915375 -0.04104253
-0.024143714 0.020551274 0.077683486 0.06392919 -0.052786566 -0.0042918767 0.10919298 0.031078555
-0.008239784 0.046415012 0.036222078 0.013072801 0.0299868 -0.012343636 0.015581831 -0.036090646
0.14322159 0.016597733 0.019697333 0.039077993 -0.0033021169 0.03684099 -0.015590639 0.07292571
0.020872017 0.11465314 0.030106038 0.0035226454 0.044002388 -0.020480692 0.07814445 -0.037968643
-0.025911778 0.085306935 0.023383409 -0.017009834 0.006583473 -0.0023215222 -0.033281013 -0.04505182
0.1024508 0.11495126 -0.048301388 0.017746087 0.0998426 0.01940078 0.018801821 0.08082654
0.048718777 -0.0053994325 -0.0061228257 -0.027396318 -0.0018977213 0.009455762 -0.058479324 0.062116843
0.012275737 -0.024490908 -0.0036819153 0.043213576 -0.040286366 -0.011726736 0.014887641 -0.023269534
-0.031320635 0.0014377307 -0.008274045 0.006749584 -0.030615347 -0.001602194 -0.003296437 -0.011064279
-0.005135692 0.010555449 0.10628698 0.09176837 0.11841623 -0.017279137 0.005259614 -0.010139885
0.065913945 0.051196296 0.002257348 0.061544478 -0.033661112 -0.0037240845 -0.029247878 0.0063612293
0.06978755 0.117879905 0.040100593 0.060297284 -0.0071884156 -0.016423274 0.0073094033 0.09270183
0.025877561 -0.018332714 -0.018350339 0.01623379 -0.024484111 -0.035036445 -0.0012251795 0.022881638
0.019239325 -0.023377126 0.02806008 0.018700188 0.03274966 0.06617969 -0.027513053 0.008481424
-0.013956143 -0.025211705 -0.024338238 0.11383114 0.0026473212 -0.0040183156 -0.048263196 -0.029611455
-0.030443428 -0.013646092 0.040908467 0.01023225 -0.041702803 0.045524873 0.06854572 -0.0054510217
-0.011898818 0.004811032 -0.02646552 0.10175676 -0.028330876 -0.02448663 0.091742866 -0.020860054
-0.01767357 0.10982701 -0.024334505 -0.007123361 0.09520453 -0.013991696 0.058425266 0.0206415
0.035648167 -0.025761632 0.0034949968 -0.0062273424 -0.025802083 0.01333782 -0.011873256 0.0069707707

bias f4 [64]
00000000: a6e5 bdbc fe33 abbc 3f07 873d fbff d3bc
00000010: d3eb 943c ee92 ff3b bf52 12bc 5823 e8bc
00000020: e134 c83b 162d 093d 947c 10bc 36a0 85bc
00000030: f4d2 abbb 0e23 d83d 93c3 813b 327b 34bc
00000040: bf86 c73b be89 f2bc 3670 e93c cd27 88bc
00000050: faf9 d53c afd4 bb3c 8504 a5bc 9cd4 553d
00000060: bf3c 4a3d 56ae 9f3d 0bf1 873d 5e7d c1bc
00000070: a484 92bc d89c 08bc c910 503b 12e1 313d
00000080: 9bee c1bc 9890 133d fb0f c53d 2b95 c73d
00000090: 94ee 03bc 4826 c0bc 7a93 be3c 6f5e a83c
000000a0: 54f8 bebc f9ae 7fbc d3d0 ad3d 62b5 b1bc
000000b0: 1a01 67bc 1aa9 cbbc 06da 223d 5053 443d
000000c0: 24e9 e2bb 710a a83d 2b89 7bbc 3d35 a2bc
000000d0: b2d7 ffbc 3926 6c3d 1835 303c 451e 2cbd
000000e0: 4af5 5fbb c701 acbc dd97 153d cd4a 7cbc
000000f0: 6f97 fcbc 42e1 25bc ca21 92bc bf27 b4bc
-0.023180794 -0.020898815 0.06593179 -0.025878897 0.018178856 0.007799498 -0.008930861 -0.028337166
0.0061098193 0.033490263 -0.008818764 -0.016311746 -0.0052436534 0.10553561 0.003960082 -0.0110157
0.006089061 -0.029606696 0.02849589 -0.016620541 0.026120175 0.022928564 -0.020143757 0.052204713
0.04937434 0.07796924 0.06637772 -0.02361935 -0.017885514 -0.008338176 0.0031748286 0.043427534
-0.023673346 0.036026567 0.09622189 0.097452484 -0.008052487 -0.023455754 0.023263682 0.020552842
-0.023311771 -0.015605682 0.08487096 -0.021692935 -0.014099384 -0.024860907 0.039758705 0.047931015
-0.006924765 0.082051165 -0.015352528 -0.019800777 -0.031230781 0.05765364 0.010754846 -0.042021055
-0.0034173303 -0.020996941 0.03652178 -0.015398693 -0.030833928 -0.010124506 -0.017838378 -0.021991609

weight f4 [64, 64]
00000000: ca89 0abd 7bc1 50bd 9e37 24bd c1a4 03bd
00000010: 3900 dcbc 6dd9 08bc d0aa e7bc 3bde ca3d
00000020: f072 28bd d6ef 003c 3fe2 33bd cc46 243a
00000030: 333a a2bd 30c7 4cbb b5ec be3c 6464 913d
00000040: 5f59 fdbc 4067 173d 0b24 693d c941 b43c
00000050: c38d a0bc 7ac8 463a 46ad a33c fade 4f3d
00000060: 9e2a 64bc d109 813d 8636 23bd 2337 a8bc
00000070: c783 cb3d d69c 20bd 165b 24bd a233 213d
00000080: 0544 463b 2197 afbd 4d5b 2cbc c7f5 9b3d
00000090: 7c27 183c 47cd a33c 93f2 87bc 20a7 94bd
000000a0: a283 8a3d 84cc 103d 409b 8a3b 72e5 23bc
000000b0: 0d20 cf3c bea1 4ebd 22aa b53d bf59 a6bc
000000c0: 6aed de3d f655 073d 860e 8cbd 75cf 3f3d
000000d0: d2a9 3cbd da94 65bc 4ea3 09bd 211b c2bc
000000e0: dc73 0abd 4f51 0abd 2d40 8dbd 5832 79ba
000000f0: 0fb9 e2bd 67d7 0bbd 91a9 45bc 6fae 23bb
00000100: 6cd1 f5bc 3ba5 ffbc 6a71 43bd 1365 02bd
00000110: 5c34 4a3d 80b6 a3bc e939 90bc e4fa 1cba
00000120: d51d c9bc 0da3 9aba ea17 d4bc 7a52 cdbc
00000130: 4667 23bd 2ac5 4ebc 9b31 203b 4fa4 883d
00000140: 5698 563c 9736 dd3c 87eb 023e abc8 cdbc
00000150: cf39 a0bc ea4b 41bb efa8 5e3d 026c a4bc
00000160: 1704 62bc 7437 54bc c594 653d c04b dcbc
00000170: 4af2 663d e42f a5bb 0c32 8a3c 92d1 8ebc
00000180: d4a4 933d 9974 7fbd fb23 8abc 7825 4fbc
00000190: dbb0 bbbc e253 70bc c7b6 f03c 82cb 38bd
000001a0: f500 63bc 2c38 87bc 2614 a03b 9324 e939
000001b0: 7a92 eabc 7660 663c 3285 bfbb db38 6b3d
000001c0: 4917 d8bc a2f9 ca3b 9437 b23d 41e2 913c
000001d0: f696 cbbc b9e1 533d fc38 603d 75e7 673d
000001e0: 7a94 7dba c3f7 d5bc 7fb7 613d d8f7 dabc
000001f0: e58b 57bd 5539 35bc b5e9 ba3d 2f2e 15bc
00000200: b3be d4bc 37a3 8fba 3537 a3bc c5d6 2a3d
00000210: afd1 803d 8316 dfbc 7b1d 6f3d 48f5 6d3d
00000220: f801 2cbd 728f 8b3d a2e3 1bbd 1e33 103d
00000230: 9f31 82bd 7b1a 933b 1318 50bc aa36 0fbd
00000240: 8439 363d 809f 0c3c 8425 5abc 31ba f2bc
00000250: 953e 9ebc f351 883d 4d01 7d3b a8ce adbc
00000260: 7a21 943d faa2 c7bc ee4f 17bd af01 d7bc
00000270: 3bdf 36bc 4206 11bd 5f2b a3bc b0a6 d3bc
00000280: c576 d03d 15d0 6bbd d5b2 983b e3c7 123d
00000290: 8c23 933d 4609 a4bc ba9d 2c3d 268d 4bbd
000002a0: ca01 f0bc 2a27 8d3c 00d2 d43d 41da 863d
000002b0: 638e 13bd d5ef 3abd d55c b63b 43dc b8bc
000002c0: 34af 5ebc b2fb 063a ffb9 ec3c bded 4a3d
000002d0: b533 f9bc 0f25 08bd 3029 ebbc ff44 56bd
000002e0: 9f92 d8bc 1d9d 103d 89a7 d5bb cae8 713d
000002f0: 1cad 13be 75ab bdbc 11ed 403c 2516 93bc
00000300: aab7 033e 321c cc3d e4b0 883d c46d fc3d
00000310: 6152 ab3d edce 093e 07e8 f93d 2dc2 863d
00000320: 3a06 163e fc9c dd3d 4032 c13d cea1 6c3d
00000330: 4a61 2a3e 64a6 c63d d1cb 85ba 56ea 943d
00000340: d298 d83b 3070 4e3d 820a 973d cf0e 4d3d
00000350: becd eb3d 4147 0c3d fc37 c4bc fd98 403d
00000360: 2c0f e83d b2cc 173d 206a 2d3e 7197 1c3d
00000370: 238d 903c 2ad8 ec3d ba66 513d ec2e 193c
00000380: 6ad1 223d 6643 b03d cd7e dabb 6d4b 023d
00000390: 8c10 513e 61e5 c3bb 8e62 333d 4a21 da3c
000003a0: 4c11 703d 3fde c33c 2e56 b53c 8136 a43d
000003b0: 2dd2 393e d040 4f3e db25 e83b 37d9 563d
000003c0: 119a 293d 0bbc 9c3d 302d 9c3d a660 0ebc
000003d0: 4a98 543c 6869 edbc fadd 7c3d b212 efbb
000003e0: 0d75 5c3d 7bb1 f33d 3fd3 983d 8f82 213c
000003f0: 3da2 f7bc b379 6a3d 6979 003d 61de aa3c
-0.033822812 -0.050965767 -0.040092103 -0.032139543 -0.026855575 -0.00835262 -0.028279692 0.09905668
-0.041125238 0.007869681 -0.043916937 0.0006266653 -0.07921257 -0.0031246655 0.02330623 0.07099226
-0.030926405 0.0369637 0.05691914 0.022004025 -0.019598847 0.0007582974 0.019980084 0.050749756
-0.013926176 0.063007005 -0.03984692 -0.020534104 0.09937244 -0.03921207 -0.04012593 0.03935588
0.0030252945 -0.085737474 -0.010519815 0.07615238 0.009286758 0.019995345 -0.01659516 -0.07258439
0.06763388 0.03535129 0.004229933 -0.0100034345 0.025283838 -0.050447218 0.08870341 -0.020306466
0.10885127 0.033040963 -0.068387076 0.046828706 -0.04606039 -0.01401254 -0.033603005 -0.023694577
-0.0338019 -0.03376895 -0.06897006 -0.0009506098 -0.110704534 -0.03414097 -0.012064354 -0.0024975797
-0.030007087 -0.031206718 -0.047715582 -0.031834673 0.04936634 -0.019984484 -0.017605739 -0.00059883134
-0.024550358 -0.001179786 -0.02589031 -0.025063742 -0.03989341 -0.01262025 0.002444363 0.066719644
0.013097843 0.02700357 0.12785159 -0.0251201 -0.019558815 -0.0029494711 0.054360326 -0.020071033
-0.01379492 -0.012952674 0.05605008 -0.02689159 0.05638341 -0.0050411094 0.016869567 -0.017433915
0.07209173 -0.062367056 -0.01686286 -0.012643211 -0.02291148 -0.014668437 0.02938403 -0.045115955
-0.013855209 -0.016506277 0.0048852144 0.00044468473 -0.028634299 0.014061084 -0.0058447355 0.05742727
-0.02637829 0.0061943093 0.08702007 0.017808082 -0.024852257 0.051728938 0.054741845 0.05661722
-0.0009673309 -0.026119119 0.055106636 -0.02672951 -0.05262365 -0.011061032 0.09126607 -0.009105249
-0.025969839 -0.0010958676 -0.019923786 0.041708726 0.06289994 -0.027232414 0.058377724 0.058095247
-0.041994065 0.068144694 -0.038058884 0.035205 -0.06357121 0.0044892407 -0.012701052 -0.03496424
0.044488445 0.00858295 -0.0133146085 -0.029629799 -0.01931695 0.066562556 0.0038605512 -0.021216705
0.07232948 -0.024369705 -0.03694146 -0.02624592 -0.011161621 -0.03540636 -0.019918142 -0.025836319
0.101789035 -0.05757149 0.0046599903 0.035835158 0.071845144 -0.020023953 0.042142607 -0.049695157
-0.029297728 0.017230589 0.10391617 0.065845974 -0.036024462 -0.045638878 0.0055652657 -0.022565966
-0.013591576 0.00051492 0.028897284 0.04954313 -0.030420164 -0.033238467 -0.028706163 -0.052311894
-0.026437102 0.035306085 -0.006520216 0.059059896 -0.14421505 -0.023153046 0.011775271 -0.017954895
0.12863031 0.09966315 0.06674364 0.12325624 0.08365322 0.13457842 0.12202459 0.06580005
0.14650813 0.10820958 0.094334126 0.057771496 0.16638675 0.09699705 -0.0010207837 0.072712585
0.0066100145 0.05039996 0.07375051 0.05006295 0.115138516 0.03424764 -0.023952477 0.0470209
0.11331019 0.037060447 0.16935015 0.038230363 0.017645424 0.115646675 0.05112336 0.009349566
0.039750494 0.08606605 -0.006667948 0.031810213 0.20416468 -0.005978272 0.04379516 0.026627202
0.058610246 0.023909686 0.02213582 0.08018208 0.18146582 0.20239568 0.007084591 0.052453246
0.041406695 0.07653054 0.07625806 -0.008690035 0.012975762 -0.028980926 0.06173513 -0.00729593
0.053822566 0.11899086 0.07462167 0.009857788 -0.030228728 0.057244968 0.031365786 0.020857992

bias f4 [64]
00000000: 22e5 e9bc 12ec bb3a 0cce 06bd 413c 1e3d
00000010: 557a d2bb 8fa7 b9bb bacb b8bc a7dc b3bc
00000020: 531e 1f3d ba67 1cbd 49b4 ac3d 8cb5 0dbd
00000030: 614e c73b a531 b4bc 3245 e0bb 8852 343d
00000040: e609 663b 59ec d5bb d322 63bd 718a b9ba
00000050: 9add cebc 0bc4 f4bc bcb9 393d 77e3 95b9
00000060: ed71 35bd 44fe 823d 6b47 053e 6083 b7bc
00000070: 4036 163d cac9 23bd 0572 fabc 4654 58bd
00000080: 5d6b d3bb b5aa 8b3d 3c79 07bd a982 943d
00000090: d6ad ba3c 785e ba3d 27b6 eebc 7acd d93d
000000a0: 485b 88bb e324 353d 1d4f 133e d24a 6d3d
000000b0: 429f 9c3d dfd6 02bc de66 eabc 597b 45bd
000000c0: f278 b2bc 59f0 753d 5432 653d f481 5b3d
000000d0: 45b0 c6bc be27 d03c 3a84 dcbc 82da d4bc
000000e0: c295 863d 44fd 00bc dbf6 023c cc92 523c
000000f0: 7625 b83d 826a c83a 1351 17bd fb42 1dbc
-0.028551642 0.0014337322 -0.032911345 0.03863168 -0.0064232745 -0.0056657265 -0.022558082 -0.021955801
0.03884728 -0.03818486 0.08432824 -0.034596965 0.0060823415 -0.021996329 -0.006844186 0.04402402
0.0035101115 -0.006528419 -0.055453133 -0.0014155639 -0.025252152 -0.029878637 0.045343146 -0.0002858897
-0.0442981 0.063961536 0.13015525 -0.022401512 0.03667283 -0.039987363 -0.030571947 -0.052814744
-0.0064520077 0.06819669 -0.033074602 0.07251484 0.02278797 0.0910005 -0.029139591 0.10634895
-0.004161272 0.04422463 0.14385648 0.057932682 0.076475635 -0.0079858 -0.028613504 -0.048213337
-0.021786187 0.060043667 0.0559562 0.05359073 -0.024253974 0.025409576 -0.02691852 -0.025983099
0.06571533 -0.007872883 0.007993425 0.012852382 0.0899152 0.0015290531 -0.036942553 -0.009598489

weight f4 [5, 64]
00000000: 42fd 91bb 2ee6 173d d847 c9bc 7f92 0b3d
00000010: 9dde d3ba f2e2 3e3d 9b02 d3bc a4b3 393c
00000020: 759f 90bc 2c39 06bc ce8f 1ebc 8190 8bbc
00000030: cd76 e63d f128 e6bc cc8d d53c 9c6d d6ba
00000040: 3eb2 543d fb4c 50bc 7566 a7bc 051c 9ebc
00000050: 7843 90bc 8558 2bbd 3633 b43d 702a aa3b
00000060: c408 88bc 51b4 603d 6fbf 9a3d 42cc 9cbc
00000070: 5792 803d 9412 04bc 4488 c1bc bf28 bebc
00000080: e1f7 923c c698 56bb 202f 89bc 5488 20bd
00000090: 9169 9bbc 1b6e a03d 7c47 a1ba 730b 9b3d
000000a0: 7372 643d 8ac2 16bc 1da1 4f3d 1176 3dbc
000000b0: 6c5f dfbb bf94 083d 0759 e0bb db75 dcbc
000000c0: 7838 80bc dfb5 013d d1f9 9f3d 9697 96bd
000000d0: 104b a2bc e09e dc3d 23bb f7bc d3dc 8cbc
000000e0: 18f4 993b 56ae 0d3d ac53 223d 7f6e 0f3c
000000f0: 75f8 263d 008a 7bbd e7b2 08bd ca3b 143d
00000100: e095 f53c b52e e63c 1a3a c93d da7f 94bc
00000110: 6c2d 193c 36b7 90bb b564 03bc dcc5 5b3d
00000120: 1e06 103b f2f0 9a3d 93ed 8fbc b7e0 373d
00000130: 2076 c43d cc77 acbc aebe 87bc e8db b03c
00000140: 8df7 23bc ad64 96bc 733d 88bc 3ecc 9bbc
00000150: 7773 173d e577 83bc 0384 b9bc f483 84bc
00000160: d4eb 8abc 1f69 693d 2a03 acbc efd4 84bc
00000170: 31b9 c13d 8b29 4c3d b15a bbbc f4ee 0f3d
00000180: 4a36 6a3c 9423 a7bc 483e 02bc fe42 ca3d
00000190: d5c3 7dbc 10f0 833d 3809 e33c 574b afbc
000001a0: a4d3 b23d 7696 babc f9be 62bc 48d5 90bc
000001b0: 4e15 9a3d ae76 d33d d137 81bc d26c b23d
000001c0: a2ad 91bc 2276 90bc b0ca a0bc 9244 48bc
000001d0: 2c90 ad3d 6293 9bbc 271a 09bb c092 9abc
000001e0: 7d8f 84bc f057 bfbc 7077 2b3d 5536 343d
000001f0: 4547 7ebc f105 943d a0b4 c43d db25 88bc
00000200: 77f5 23bc a579 233d 9443 913d 9816 04bd
00000210: 7643 f5bc ffad 193d e3e6 053d c4a1 9c3d
00000220: b8d4 d8bc e403 db3d cacc 13bc a3d8 133d
00000230: a35b 0bbc 259c b8bc af02 9fbc 7830 8dbc
00000240: c0b0 813d 5544 6e3d be71 afb9 526c b33d
00000250: c694 703d 39aa 90bc 970f 553d 67d4 7a3c
00000260: a3d5 d83d 234b 853c 5537 86bc 35e6 df3c
00000270: 212b 90bc 8f7a aabc 6e0f f73c 52cb 6f3d
00000280: 433e 8ebc c18c 9fbc 06b0 8abb 5784 ce3d
00000290: 467b c13d 109b e53c edf1 a3bc 0618 983c
000002a0: 898e 8ebc bbf8 99bc ee5a ebbc 554f 673d
000002b0: 2af8 9ebb 1cf9 69bc ea29 1a3a d0c9 9f3d
000002c0: 408a 9bbc 1fc9 06bd 7aee b5bc 5fcf 993d
000002d0: 4513 403b 179a b53c d073 633d 1959 8ebc
000002e0: 1623 0cbd 95be c73d 0259 173c 5238 0f3d
000002f0: c762 05bd 2d3d 5a3c f1d3 ff3a 8d07 2b3d
00000300: f59c 903d 9815 ef3d e196 cdbb b7d3 94bc
00000310: 9002 f7bc 88e8 a13d 1ff7 b43d deed 32bc
00000320: f281 f83d d2ba 27bd df0e 87bc f115 f53d
00000330: ce7c 393c 58a4 963d 5857 b43d 8366 2d3d
00000340: f6fb debc bf27 813e 44da 8f3b 43aa 3f3c
00000350: 04bf 2abd 3c80 dd3e 57a4 cebc 4713 a1bb
00000360: bcc9 9cbd d1d1 433d e6c2 62bc 47fb 603d
00000370: e383 9f3c 1631 2ebd 4455 95bb 62bb 8bbc
00000380: a0bc 16bc a1aa 85bc 72be be3d 6c22 51bb
00000390: 2aa1 853b 1299 dabc cb81 10bd 5f19 a3bc
000003a0: 41d8 e63b ca47 db3d 85c4 833c b37b b43d
000003b0: d783 22bd 5567 9a3d faf7 fbbc 8abd 9ebd
000003c0: e0ab f8bb 7c1b a8bc c1e7 bcbc 1b82 123d
000003d0: 75e3 a73b 6feb 633d e198 61bc c1dc 17bc
000003e0: c1d6 aabc f52e f9bc 096f 6b3d 5c69 34bd
000003f0: d2c8 253b 0b4e babd 66b2 6a3d 1a2f 893d
-0.0044552395 0.03708475 -0.02457039 0.034075256 -0.0016164366 0.04660315 -0.025758078 0.011334334
-0.01765416 -0.008192342 -0.00967784 -0.017036678 0.11253128 -0.028095694 0.02606859 -0.001635957
0.051927797 -0.012713666 -0.020434598 -0.01930047 -0.017610297 -0.041832466 0.0879883 0.005193047
-0.016605742 0.054859463 0.07556044 -0.019140366 0.06277912 -0.00806107 -0.023624547 -0.023212789
0.017940463 -0.0032744869 -0.016746104 -0.039192513 -0.018971236 0.07833501 -0.0012304629 0.07570543
0.05577321 -0.009201655 0.05069076 -0.011563794 -0.006816795 0.03334498 -0.0068465504 -0.026911667
-0.015651926 0.031667586 0.078113206 -0.073531315 -0.019811183 0.107724905 -0.0302406 -0.017195141
0.0046982877 0.034590088 0.039630577 0.008754372 0.04076429 -0.061410904 -0.03337374 0.03618983
0.029978693 0.028098444 0.09825535 -0.01812737 0.009349208 -0.0044163717 -0.008019616 0.05365549
0.0021976302 0.07565488 -0.017569339 0.04489204 0.09592843 -0.021053217 -0.016570415 0.021589234
-0.010007751 -0.018358553 -0.016630864 -0.019018289 0.03697535 -0.016048381 -0.022645956 -0.016176201
-0.016958155 0.056985017 -0.020997602 -0.016214816 0.094591506 0.049844306 -0.022870393 0.035139993
0.01429517 -0.020402707 -0.007949419 0.09876059 -0.0154885845 0.06442273 0.027714357 -0.02139823
0.087317735 -0.022776823 -0.013839477 -0.017679825 0.07523595 0.10325371 -0.015773686 0.08712162
-0.01778299 -0.017634455 -0.019627899 -0.01222338 0.08474764 -0.018991176 -0.002092013 -0.018868804
-0.016181702 -0.023357362 0.04186195 0.043997128 -0.015519922 0.07227696 0.09604764 -0.016619613
-0.010007254 0.03991093 0.07092968 -0.03224811 -0.029939394 0.03751945 0.032690894 0.07648042
-0.02646862 0.106941015 -0.0090209935 0.036095273 -0.008505735 -0.022535393 -0.01941046 -0.017235026
0.063325405 0.058170635 -0.00033463346 0.08760895 0.05873563 -0.017659293 0.05201682 0.01530943
0.10587623 0.01627118 -0.016383806 0.027331451 -0.01759869 -0.020810394 0.030158725 0.05854351
-0.017363673 -0.019476296 -0.0042324094 0.100838356 0.09447341 0.028028041 -0.02001282 0.018566143
-0.01740195 -0.018795362 -0.028729882 0.05647214 -0.004851361 -0.014280584 0.00058808795 0.078021646
-0.018986821 -0.032906648 -0.022208441 0.07510256 0.002930836 0.022168202 0.05553037 -0.01737647
-0.034213148 0.097531475 0.00923753 0.03496582 -0.032564905 0.0133202495 0.001951812 0.041755248
0.07061187 0.116740406 -0.0062740897 -0.01816736 -0.03015259 0.0790568 0.08836197 -0.01092097
0.1213416 -0.04094965 -0.016486583 0.119670756 0.01132126 0.07355565 0.08805722 0.04233409
-0.027219754 0.25225636 0.004390033 0.011698308 -0.041686073 0.43261898 -0.025224848 -0.004915628
-0.07655665 0.04780752 -0.013840413 0.054927137 0.019472068 -0.04252728 -0.0045572836 -0.017057125
-0.009200245 -0.016316714 0.09313668 -0.0031911386 0.00407805 -0.026684318 -0.03528003 -0.019909559
0.0070448224 0.10707052 0.016084919 0.08812656 -0.039676514 0.0753924 -0.030757893 -0.077509955
-0.0075888485 -0.020520918 -0.023059728 0.03576861 0.0051235505 0.05564445 -0.013769359 -0.00926894
-0.020854356 -0.030417899 0.05747894 -0.04404579 0.00252967 -0.09096917 0.05729904 0.06698437

bias f4 [5]
00000000: e2b4 0d3d f532 bfbc 2f21 c13c 38a3 153d
00000010: fdf2 f43d
0.03459633 -0.023339728 0.023575393 0.03653261 0.11960409
