pytorch/architecture/t-Q_T-k-TG/with_GC_data/model.pt (torch, 4615 bytes, 8 tensors)

weight f4 [10, 2]
-0.013150908 0.28755724 -0.030564066 0.3408632 -0.0041277003 1.1036036 0.0012865621 0.13190687
0.010066373 -0.3985357 0.0038470817 0.038060762 0.01888756 0.66520226 -0.006738361 1.4669548
-0.00703502 0.89950466 -0.006671685 1.2965821
00000000: e876 57bc b43a 933e 7e61 fabc 9f85 ae3e
00000010: a941 87bb e242 8d3f dca1 a83a 9812 073e
00000020: 6eed 243c df0c ccbe 521f 7c3b 9ae5 1b3d
00000030: 16ba 9a3c b24a 2a3f 78cd dcbb 2dc5 bb3f
00000040: 0686 e6bb f045 663f 269e dabb 67f6 a53f

bias f4 [10]
0.43783367 0.3480314 0.17864406 0.2966206 0.32077852 0.33971357 0.2408447 0.18253724
0.5702288 0.16440651
00000000: bc2b e03e 2c31 b23e 78ee 363e a8de 973e
00000010: 153d a43e f0ee ad3e fe9f 763e 0beb 3a3e
00000020: 84fa 113f 2e5a 283e

weight f4 [10, 10]
-0.054259088 -0.17963243 0.17794505 -0.22928928 0.22175452 0.30920213 0.42232156 -0.0028091106
0.3287542 0.0037750748 -0.14111832 -0.16322786 0.038396206 -0.08217379 0.19617085 0.33795977
0.21112394 0.015922759 0.2981838 0.21626742 0.35125798 0.4347102 0.23638545 0.31848007
0.29451165 0.011213873 0.01852372 0.14026248 0.111418225 0.1364711 -0.031349692 0.13940218
0.17268825 -0.041249085 0.12827107 0.123405404 0.3145284 0.078871325 0.09076774 0.078690715
-0.0072880452 -0.023396388 0.0775654 0.26331154 0.2865354 0.11765248 0.11839275 0.09634254
0.27776745 0.08473616 -0.006263799 0.11700995 0.05663207 -0.014798715 0.09224331 0.38160893
0.2599036 0.061830524 0.0661414 0.17548464 -0.11831663 -0.07135646 -0.0007866789 -0.21343644
0.34888104 0.2210654 0.250386 0.14114046 0.20737702 0.02833006 -0.15439267 0.23149148
-0.07466433 -0.39751142 0.4061722 0.40562528 0.21395381 -0.07374483 -0.031840257 -0.06469067
-0.23798515 0.02422995 -0.06961881 -0.3335802 0.43797985 0.38501912 0.060640626 -0.06880081
0.117642134 -0.06291774 -0.25642395 -0.16966714 0.2906201 -0.31260845 0.2527024 0.33353397
0.43449035 -0.011426185 0.26995718 -0.004912386
00000000: c73e 5ebd 90f1 37be 3a37 363e cfca 6abe
00000010: 9e13 633e be4f 9e3e 883a d83e 0e19 38bb
00000020: 7852 a83e 3f67 773b 5281 10be 3425 27be
00000030: 5745 1d3d bb4a a8bd 03e1 483e 1009 ad3e
00000040: e030 583e 7270 823c 8cab 983e 3575 5d3e
00000050: 16d8 b33e 5692 de3e 070f 723e d20f a33e
00000060: 3bca 963e 64ba 373c 0ebf 973c f8a0 0f3e
00000070: 3d2f e43d 14bf 0b3e 8968 00bd 72bf 0e3e
00000080: 30d5 303e cdf4 28bd 7e59 033e f9bb fc3d
00000090: de09 a13e 4a87 a13d 70e4 b93d 9928 a13d
000000a0: 8ed0 eebb c8a9 bfbc 9cda 9e3d c5d0 863e
000000b0: c5b4 923e c9f3 f03d e677 f23d 3d4f c53d
000000c0: 8937 8e3e 278a ad3d 8e40 cdbb eaa2 ef3d
000000d0: 08f7 673d 4f76 72bc 0fea bc3d 3f62 c33e
000000e0: 1612 853e 0142 7d3d 2475 873d 3fb2 333e
000000f0: fd4f f2bd 5623 92bd 2139 4eba 158f 5abe
00000100: 89a0 b23e f85e 623e 9832 803e 2087 103e
00000110: a45a 543e 7114 e83c 1d19 1ebe 1a0c 6d3e
00000120: 9de9 98bd 9e86 cbbe cdf5 cf3e 1eae cf3e
00000130: b516 5b3e 8807 97bd ee6a 02bd 8b7c 84bd
00000140: 61b2 73be e37d c63c 4f94 8ebd 06cb aabe
00000150: e53e e03e 3a21 c53e 4e62 783d 70e7 8cbd
00000160: 5cee f03d 04db 80bd 004a 83be 39bd 2dbe
00000170: 28cc 943e 370e a0be 3562 813e f7c4 aa3e
00000180: 8575 de3e e534 3bbc d437 8a3e 15f8 a0bb

bias f4 [10]
0.38921204 0.23887989 0.096489646 0.121930726 0.11824953 0.29806826 0.39530545 0.06800154
0.099689014 0.67962664
00000000: cd46 c73e ee9c 743e 5d9c c53d d1b6 f93d
00000010: cf2c f23d 679c 983e 7a65 ca3e 6444 8b3d
00000020: c129 cc3d 03fc 2d3f

weight f4 [10, 10]
0.21433838 0.41417715 -0.16435508 0.22701372 0.2445576 0.19911498 0.25042525 0.8637258
-0.09532008 0.23844224 0.39685437 0.57396644 -0.41225708 0.3994868 -0.06134945 0.49355572
0.49075812 0.534517 0.8026216 0.6344702 0.4904253 0.4430434 0.119298875 0.3323649
0.21456836 0.25236088 0.31875253 0.33816323 0.36462855 0.38651565 0.056914344 0.08767205
0.5563432 0.4289169 0.3892208 0.37820143 0.06146751 0.034770485 0.030591609 0.045630056
0.12116195 0.2685111 -0.93985397 -0.040551953 -0.4712478 0.11432913 0.18349347 0.2679424
0.48946747 0.18884097 0.45855087 0.35080513 -0.4188902 0.24873108 0.22273853 0.5439082
0.5052934 0.35973927 0.28885785 0.6643106 0.26067784 0.5150523 0.1088396 0.5494336
0.48196194 0.4505356 0.48336598 0.422873 0.23146245 0.27912882 0.45106524 0.26190048
-0.6436374 0.23979585 -0.22083488 0.33597398 0.37978205 0.54663795 0.58031106 0.48122406
0.38322827 0.32020992 -0.52057886 0.37067202 -0.08460029 0.65560955 0.502057 0.7904781
0.5210226 0.44682175 0.40166035 0.30041003 -0.11584905 0.45692882 0.322986 0.26866192
0.5686626 0.30617604 0.24878496 0.323728
00000000: 857b 5b3e 070f d43e b34c 28be 4976 683e
00000010: 4f6d 7a3e cce4 4b3e bd37 803e 221d 5d3f
00000020: 2d37 c3bd 342a 743e 7f30 cb3e 77ef 123f
00000030: 5c13 d3be 8989 cc3e 9049 7bbd 56b3 fc3e
00000040: a644 fb3e 1bd6 083f 9c78 4d3f a46c 223f
00000050: 0619 fb3e 96d6 e23e f852 f43d bb2b aa3e
00000060: cfb7 5b3e 7235 813e 8833 a33e bb23 ad3e
00000070: 98b0 ba3e 61e5 c53e 041f 693d 678d b33d
00000080: 826c 0e3f ff9a db3e f347 c73e 9ea3 c13e
00000090: 5bc5 7b3d 7f6b 0e3d 419b fa3c 95e6 3a3d
000000a0: c223 f83d 497a 893e 459a 70bf ce19 26bd
000000b0: 6447 f1be 6425 ea3d b6e5 3b3e bf2f 893e
000000c0: 7b9b fa3e 875f 413e 2ec7 ea3e bb9c b33e
000000d0: c778 d6be 5cb3 7e3e 9215 643e 913d 0b3f
000000e0: e95a 013f bf2f b83e 2de5 933e 4210 2a3f
000000f0: 9177 853e 78da 033f 4ce7 de3d aea7 0c3f
00000100: b7c3 f63e 9aac e63e bf7b f73e cf82 d83e
00000110: 7e04 6d3e f9e9 8e3e 06f2 e63e d217 863e
00000120: 6cc5 24bf 0b8d 753e 8a22 62be c804 ac3e
00000130: cb72 c23e 77f0 0b3f 448f 143f 0063 f63e
00000140: 7f36 c43e 8ef2 a33e a844 05bf b9c8 bd3e
00000150: eb42 adbd 07d6 273f cf86 003f c65c 4a3f
00000160: bd61 053f d2c5 e43e 6da6 cd3e 58cf 993e
00000170: 4442 edbd 93f2 e93e 6c5e a53e 0e8e 893e
00000180: df93 113f 1bc3 9c3e 7cc1 7e3e adbf a53e

bias f4 [10]
0.19747096 0.4886895 0.22938831 0.023991643 0.24809627 0.36067018 0.21951714 0.45001084
0.48554778 0.26928
00000000: d435 4a3e 8335 fa3e c5e4 6a3e 1f8a c43c
00000010: f30c 7e3e c3a9 b83e 1ac9 603e d267 e63e
00000020: b899 f83e 11df 893e

weight f4 [3, 10]
0.0867464 -0.09783661 0.15335713 0.6233853 -0.06573396 -0.05616458 0.13138813 -0.15710732
-0.115651146 0.073610485 5.8141365 5.717354 6.073004 2.4087908 5.4221206 6.0335016
5.8202477 5.580796 5.635862 6.0725455 -0.024181584 0.16610265 -0.0071956636 -0.0086653065
0.00464974 -0.0414461 -0.083998 -0.018160544 -0.083583005 0.12045044
00000000: 19a8 b13d 905e c8bd a709 1d3e 2e96 1f3f
00000010: 879f 86bd d50c 66bd 9c8a 063e bee0 20be
00000020: 82da ecbd 18c1 963d 680d ba40 90f4 b640
00000030: 0c56 c240 a129 1a40 0382 ad40 7212 c140
00000040: 783f ba40 e195 b240 fb58 b440 4b52 c240
00000050: 7518 c6bc d016 2a3e 9ac9 ebbb eef8 0dbc
00000060: d95c 983b 63c3 29bd 2507 acbd 6cc5 94bc
00000070: 912d abbd b8ae f63d

bias f4 [3]
-0.07766244 5.5302534 -0.023538485
00000000: 7c0d 9fbd d6f7 b040 c8d3 c0bc
