pytorch/architecture/t-Q_T-k-TG/with_GC_data/model.pt (torch, 4615 bytes, 8 tensors)

weight f4 [10, 2]
00000000: d4f6 c7ba 8e15 183d 766c 8e3a 4c0b 82be
00000010: 446d abbb 0aaa 873e 468a 92ba ced5 0d3c
00000020: a2ef 023a 16d8 7a3a 1600 d8ba 4493 843e
00000030: 0f42 f9ba dff8 263f 08e9 b7bb 9204 523f
00000040: 02ae 41bc 4851 4c3e 8e94 1e3b 3216 1a3e
-0.0015256056 0.03712993 0.0010866064 -0.25399244 -0.0052315313 0.26496917 -0.0011180125 0.008656932
0.00049948145 0.00095689425 -0.0016479518 0.25893605 -0.0019016879 0.652235 -0.0056124963 0.82038224
-0.011821272 0.19952881 0.0024197432 0.1504753

bias f4 [10]
00000000: 3a4f 233f 1ef5 9a3e 79e6 3d3f 41ef e33e
00000010: a51f 453f 876a b83e de78 583e 1ad0 a43f
00000020: 1c5d 523f b641 61bd
0.63792765 0.30265135 0.741798 0.44518474 0.7700141 0.36018774 0.21139857 1.2876008
0.82173324 -0.054994307

weight f4 [10, 10]
00000000: 03ce 72be ed17 73bf d37d 483e 0835 a7be
00000010: 815d d13d 20d3 443f bfb5 b23e ed2b a5be
00000020: 210c 323e c2ee 8cbe f7de 81be 8945 62be
00000030: 2682 5dbd 1db1 2ebe bb44 2e3e 57fe 903e
00000040: f9ad 223e 786e 1cbe 0518 3f3e bf76 be3d
00000050: 0c92 e33e b0ee 103f 8fe9 6d3e 2cd4 d53e
00000060: 0ac0 8c3e 7900 d0bd 39e4 093d 86cc 0f3e
00000070: 28e3 7b3e 4b3b 323e c461 92be 52dc b93c
00000080: fc55 383d a805 92be 4039 d53d d195 a43d
00000090: a4e0 943e 6264 60be 2efc 04bd d8c6 08be
000000a0: 7420 f4bd 2764 9ebd af54 3bbd 586a 1c3e
000000b0: e4a5 913e e83a 803d 074b e13d a6e9 1abd
000000c0: 5570 4e3e 4030 edb9 5d05 62be 21b4 383e
000000d0: da64 c5bc 6a59 5dbe 7e4c 843d da99 5d3e
000000e0: df44 7f3e d631 74be 52b2 22bd f2fb f7bc
000000f0: 508b a7be 8635 8abd 8228 80bd d616 a7be
00000100: e522 653e 1d01 c13d a8ef a83d fd4a 5fbe
00000110: b3a9 bd3d 8147 5bbe 11a0 73be 2d4f 403d
00000120: e7b9 04bc 4b70 9bbe 00e3 a43e ca5d d43e
00000130: 1c76 743e 66f6 f3bd dea0 cabd 14a6 01be
00000140: 673d 83be a305 93be e768 a93d 6f0d 71be
00000150: a828 c73e 213d ec3e 1983 db3d b914 c6bd
00000160: dd24 4f3e 54be debd 14d9 e9be 84cd dabd
00000170: fc8c e13d 3256 dfbe 0611 f53d 6699 9e3e
00000180: 9da5 1e3e a5d8 bebe d50e 4fbc 236b a8be
-0.237114 -0.9495838 0.19579248 -0.32657647 0.102229126 0.7688465 0.34904286 -0.32260075
0.1738744 -0.27525908 -0.2536542 -0.22096838 -0.054079197 -0.17059751 0.17018406 0.28319046
0.15886678 -0.15276515 0.18661506 0.09299993 0.44447362 0.5661421 0.23233627 0.41763437
0.27490264 -0.1015634 0.033664916 0.14042863 0.24598372 0.17405431 -0.28590214 0.022688065
0.045003876 -0.2851994 0.1041131 0.08036388 0.29077637 -0.21913293 -0.03246706 -0.13357103
-0.119202524 -0.07733946 -0.045735057 0.15274942 0.28446877 0.062612355 0.110006385 -0.03782048
0.20160039 -0.00045240112 -0.22072358 0.18037464 -0.024095941 -0.2161614 0.06459902 0.21640721
0.24928616 -0.23847136 -0.03972084 -0.030271504 -0.32723475 -0.0674849 -0.06257726 -0.3263461
0.22376592 0.094240405 0.08248836 -0.2180595 0.09260883 -0.21413995 -0.23791529 0.046950508
-0.008100963 -0.3035911 0.32204437 0.41477805 0.2387318 -0.11912231 -0.09893964 -0.1266101
-0.25632784 -0.28715238 0.08271962 -0.23540281 0.38898206 0.46140388 0.10718364 -0.09671921
0.20228906 -0.10876146 -0.4567343 -0.1068373 0.11013219 -0.4362045 0.119661376 0.3097641
0.15492864 -0.37274662 -0.012637814 -0.3289424

bias f4 [10]
00000000: 9f30 853e 64ad 423e 1386 083e 9d83 c93d
00000010: 29a7 f43d ac1d 8b3e df08 5f3e aa82 973d
00000020: 2392 f63d 6c84 b33e
0.26013657 0.19011456 0.13332395 0.09839556 0.11945946 0.27171075 0.21780728 0.07397969
0.12039592 0.35061967

weight f4 [10, 10]
00000000: 4544 6a3e e153 cb3e 4171 86be 9aae 9d3e
00000010: e004 583e 42ea 2f3e 2a08 923e 8664 043f
00000020: 82f1 a73e b7c8 ab3e c988 a93e f4e4 963d
00000030: 30b0 40bf acd6 bd3e fe1b 23bf 5e40 013f
00000040: a080 8c3e ea93 0a3f 3649 4a3f 094b d53e
00000050: 1ff7 df3e a090 bc3e 26c6 35be 6ae3 aa3e
00000060: 93b8 d43d 01ad 2a3e 0916 973e e439 503e
00000070: 6e8f b23e af43 d83e 46da 393e 1561 963e
00000080: ce3c 493e d038 213f 8e53 c13e 2c6c ec3e
00000090: 7ec7 8e3e 26f8 243e 617e 1a3e 1307 8a3e
000000a0: 43c4 a23e 3166 7d3d 889a 69bf 6e06 8f3e
000000b0: 4aa0 27bf fd41 dd3e 35b4 873e 86f0 063f
000000c0: 2291 553f 0576 763e 9697 cb3e 5222 c13d
000000d0: 8c1e 0ebf 8c5c 8c3e 66df e0bc 4805 f83e
000000e0: 9b28 bd3e 1079 ae3e 62d8 af3e 7866 1d3f
000000f0: ff01 3a3e d051 cd3e 5d31 a2bd ad33 043f
00000100: 5f41 bd3e 71c4 b23e f90f d83e c9af 903e
00000110: 6833 253e ee76 923e d127 bf3e 9c3d e5be
00000120: a870 09c0 b4b8 033e e1ef a3bf c5a2 a83e
00000130: 6e5a 7b3e 4118 163f 2cd5 0f3f 42ce d43e
00000140: 6054 a73e 1a7c 9ebd a59f 37bf 84b6 cb3e
00000150: f5a8 00bf c66e 303f b989 a93e e06a 4e3f
00000160: 2fed ff3e 8b74 8b3e 56ae ad3e f885 3a3e
00000170: 0fc6 bcbe 14c7 ea3e ab87 4a3e 2a8c 273e
00000180: 0966 023f 4678 553e e441 e43e a15e b33e
0.22877605 0.39712432 -0.2625828 0.30797273 0.2109561 0.17179206 0.28521854 0.51715887
0.32801443 0.3355157 0.3311217 0.07367888 -0.7526884 0.37077844 -0.6371459 0.5048884
0.27441883 0.5413195 0.7901796 0.4165881 0.43743226 0.3682909 -0.17751369 0.33376628
0.10386767 0.16667558 0.29509 0.20334584 0.34875053 0.42239138 0.18149671 0.29370943
0.19652101 0.62977314 0.3775906 0.4617628 0.27886575 0.16110286 0.15087272 0.26958522
0.3179036 0.061865035 -0.9125142 0.27934593 -0.65478957 0.43214408 0.26504675 0.5271076
0.8342458 0.24068458 0.39764088 0.09430374 -0.5551536 0.27414358 -0.027450275 0.4844153
0.36945042 0.34076738 0.34344774 0.6148448 0.18164824 0.4010148 -0.079195715 0.5164135
0.36963937 0.34915498 0.42199686 0.28259113 0.16132891 0.2860636 0.37335065 -0.44773567
-2.147501 0.12863427 -1.280758 0.32936683 0.24546215 0.5863076 0.5618465 0.41563612
0.3268156 -0.07738514 -0.71727973 0.39787686 -0.5025781 0.68919027 0.33112887 0.8063183
0.49985644 0.27237353 0.3392207 0.18215168 -0.36869857 0.4585501 0.19778316 0.16362062
0.50936943 0.20846662 0.4458152 0.35033134

bias f4 [10]
00000000: 4254 093e 5ce1 da3e 6b62 fc3d f9a0 c73d
00000010: e037 e73e cffa 723e a2d4 cd3d 36fb a63e
00000020: ba59 e13e 068f 003e
0.13411048 0.4275006 0.12323459 0.097475 0.45159817 0.23728488 0.10050322 0.32613534
0.44013768 0.12554559

weight f4 [3, 10]
00000000: 8a55 c33d 37fa d1bd 536b 1c3e 0197 b83e
00000010: b379 2dbe 24a4 8fbd 0fd7 223e 1a84 95be
00000020: abe8 f2bd 8dab 9b3d 0f87 f640 c0ae db40
00000030: 11a9 fe40 348e 0441 efcd e040 e906 ee40
00000040: 70e2 fa40 5f36 f840 1d76 d640 af70 f440
00000050: fd12 28be 00fc 8d3d 85ee 08bc 5abe 393e
00000060: 1218 5c3d a6cd d3bd 53d7 06be 317f 733b
00000070: 6784 8dbc c25f 1f3e
0.095378 -0.10252803 0.15275316 0.36052707 -0.16940956 -0.07013729 0.15902351 -0.29202348
-0.11860784 0.0760108 7.7039866 6.865082 7.958138 8.284718 7.0251384 7.4383435
7.8401413 7.756637 6.701918 7.6387553 -0.16413493 0.06932831 -0.008357649 0.1813902
0.053733893 -0.10341959 -0.13168077 0.003715467 -0.017275048 0.15563872

bias f4 [3]
00000000: df22 13bd ed08 c540 cff6 73bc
-0.035921928 6.1573396 -0.014890387
