digital_twin/beluga/pinn_1-2/model.pt (torch, 42045 bytes, 8 tensors)

weight f4 [64, 2]
00000000: fc64 9ebc beb5 02bd 812b 5bbc eb89 30bc
00000010: 3314 b0bc 939b 893e 5f72 4ebc b205 ac3b
00000020: af87 033d 7f8c 4cbd 0afd 453d 2e3e 153d
00000030: 86d8 6b3d ba2d 2f3f 894f 48bc e009 6f3e
00000040: 2849 9fbc f392 653e 1173 83bb c7f2 c23e
00000050: d864 993b de2b f43b 33a1 02bc 9abe 603e
00000060: 0e8d 883d 2d04 bd3e 4c6e a5bc 983f 9abd
00000070: f935 a23c ccd8 4cbd 5ad8 5e3d a7e8 b1bd
00000080: e97e 683c c9e8 07bd d549 363d 3e23 153e
00000090: 3fc4 8a3c 8e5f 40bd ec79 ad3b 6097 0d3c
000000a0: 84a6 75bc 00fc b1bc 89ed 253d d6f4 9c3d
000000b0: 0ffb 24bc 202a c03e 7b0f a1bc aaee d5bc
000000c0: 1903 863c 86b2 083f ff4a 0abb fa25 0f3f
000000d0: c060 aa3c dd1f a43e 7061 813d 1d38 29bd
000000e0: 5434 86bc 8fb3 3dba 1c1f 09bc 8505 9bbc
000000f0: ff76 e1bb be4a 043f 8d12 353b 844f c13a
00000100: 4469 c6bb 3161 d8bd 5b3d d13b 4144 583c
00000110: 121f 9cbb e719 86bd b91d 75bc 6e89 08bc
00000120: 53f1 0bba cb6d e73e c350 3e3d fa65 a33b
00000130: 17ac 84bc e893 e93c 99c9 db3b 0064 243c
00000140: 0d19 49bd 04b8 203f 0599 28bc 8d97 cebc
00000150: aeb7 37bb b442 283f 95c4 ef3c abb6 8f3b
00000160: 2e47 28bd d7d7 ac3e 1ec0 813d f350 353e
00000170: 90fa 86bc bdeb 553c b086 de3c f9a3 c3ba
00000180: 0983 b5bc 4384 d63e bbc2 363c 451e acbb
00000190: 5bc4 1b3d 5f5d da3e ca5f 1cbc 49d6 2ebd
000001a0: b752 fc3c 71d3 4b3f cf18 a63b eefa dc3b
000001b0: 354c c4ba e8ff c23c ac91 4ebb cae0 29bd
000001c0: 655b 54bc 85f3 873c cec2 9a3d 5055 ea3e
000001d0: 1a27 8abc e2ef 79bc 2388 c23b 8b90 813c
000001e0: 6767 9fbc 74bc 583e 1751 d53d 8ddc 0ebc
000001f0: 60e1 82bc b0bd 2c3e 44fc 0ebc 722a e9bc
-0.019335262 -0.031911604 -0.013377071 -0.01077507 -0.021494007 0.26876506 -0.01260051 0.0052497024
0.03211182 -0.049938675 0.04833702 0.036436252 0.05757954 0.6842915 -0.012225994 0.23343611
-0.019444063 0.22419338 -0.0040115197 0.3807585 0.004681211 0.0074515184 -0.007973003 0.21947709
0.06667529 0.36917248 -0.020194195 -0.07531661 0.019801127 -0.05001144 0.054405548 -0.08686953
0.014190414 -0.033180986 0.044504005 0.14564225 0.01693928 -0.046966128 0.0052940752 0.008642048
-0.014993314 -0.021726608 0.040509734 0.07663886 -0.010069623 0.3753214 -0.019660702 -0.02611478
0.016358899 0.53397405 -0.002110183 0.5591732 0.020798087 0.3205556 0.06317413 -0.04131328
-0.016382374 -0.0007236534 -0.008369233 -0.01892353 -0.0068806405 0.5167655 0.0027629465 0.0014748429
-0.006055029 -0.10565413 0.006385488 0.013199867 -0.004764446 -0.06547909 -0.0149607 -0.008333547
-0.00053383893 0.45200953 0.04646374 0.004986522 -0.01619534 0.02851291 0.006707382 0.0100336075
-0.049096156 0.62780786 -0.010290389 -0.02521875 -0.0028033066 0.6572678 0.029268542 0.0043857894
-0.041083507 0.33758423 0.063354716 0.17706661 -0.0164769 0.013056693 0.027163833 -0.0014926187
-0.022157209 0.41897783 0.011154826 -0.005252632 0.038029056 0.42649361 -0.009544322 -0.042684827
0.03080116 0.7961951 0.0050688754 0.0067437803 -0.0014976325 0.023803666 -0.0031519933 -0.04147414
-0.012961243 0.016595611 0.07556687 0.45768213 -0.016864348 -0.015254946 0.005936639 0.015815994
-0.019458486 0.21165639 0.10415857 -0.008719576 -0.015976608 0.16869235 -0.008727137 -0.028462622

bias f4 [64]
00000000: 2893 0a3f cde7 b5bc 7cbc c03e 57d2 803d
00000010: f15b 013e 0c21 72bd 69dc 883e 897f f23e
00000020: 21a1 b43e 65b4 4abd 3f4b 2b3d ac3c 0d3f
00000030: 9dad 233e 99d0 e73e 2f15 9abd b1dd 09be
00000040: 15fa 943e 7ff4 10bd 55ba 88bd 2dfd 233f
00000050: 1427 743e 852e fdbd 3ff1 3bbd a4cd 133f
00000060: d4c6 cd3e bd72 dc3e 96c9 163e 085a 263e
00000070: a497 e33d 9967 073e 2b8c 603f cd44 b33e
00000080: dae6 0a3f a30b 863e b350 b33e 55b6 8bbc
00000090: 1b21 93be 1635 49bd 76dd c4bc 1765 4bbd
000000a0: 42ce 5b3e 6734 5a3e 6302 d93b 76e3 2ebd
000000b0: fa47 553f b7e1 133f 2daf c03e 28de 333f
000000c0: b8b2 3cbd f701 77bd 91aa dc3e 2087 66bc
000000d0: dcae c93d 1b1c 043f 5929 fd3b 1b03 b53e
000000e0: e86e 38bc 2b74 a8bc d431 a03d 21ce 3cbd
000000f0: 7444 363f 3d85 863e 61ad 473e 1c49 a33c
0.5413079 -0.022205258 0.37643802 0.06290119 0.12632729 -0.059113547 0.2673066 0.47362927
0.35279182 -0.049488444 0.041819807 0.551707 0.15984197 0.45276335 -0.07523572 -0.13463475
0.29097047 -0.03538942 -0.06676165 0.6405819 0.23843032 -0.123623885 -0.045884367 0.5773566
0.40190756 0.43056288 0.14725336 0.16245282 0.111129075 0.13223113 0.8771388 0.35013428
0.542585 0.26180753 0.35022506 -0.017054716 -0.28736195 -0.049122892 -0.024031382 -0.049656954
0.214654 0.21309052 0.006622599 -0.042697392 0.8331295 0.5776629 0.3763365 0.7026086
-0.046068877 -0.06030461 0.43098882 -0.014070302 0.09847805 0.51605386 0.0077258763 0.35353932
-0.011256911 -0.020563206 0.07822004 -0.046095017 0.711982 0.26273528 0.19499733 0.019932322

weight f4 [64, 64]
00000000: 600d 85bc 9638 dc3c b826 cf3c f8f1 e83d
00000010: a4b5 783b 3581 aabc 639d e6bc 6742 733d
00000020: 8c4a e6bc eea7 ed3d b733 0abd 91ee 8d3d
00000030: 0d5b c53d ed4e 703d ac5e 3e3d 602a 3c3d
00000040: e20c e2bc ffb9 d6bc 4f16 943c e153 e9bc
00000050: d344 f93c 83ba 4b3d 41a1 3c3d 32d6 a5bc
00000060: f9f9 e8bc 84c6 34bc b5b3 f9bc f57e 783c
00000070: 6ca9 c83c 9285 c53c 9150 2abc 0d66 5f3d
00000080: d4cc bfbc f5dc a23d 7373 153d 4d8f 1a3e
00000090: 3404 7ebc 75ba 88bc 6dde 893d bb0f ffbc
000000a0: 33b8 1f3d 9bc9 9a3d 8615 103d 1536 94bc
000000b0: 4392 143d 0300 e8bc cc7c cc3d d348 e5bc
000000c0: ced5 e83c 2400 d6bc 4d60 e3bc 4936 cb3c
000000d0: 2d5a e6bc b9ee f0bc 547d 843c be5c 933d
000000e0: 2fae 1e3d 69cd e6bc 2204 af3d 8e35 03bd
000000f0: dfe8 673d 40f3 ec3d b004 08bd 988d 343d
00000100: 41c7 633d c89a d23c 294a 46bd 33ea ab3d
00000110: 7723 1b3d a3ab 9abc a7c0 4fbc 74d7 35bc
00000120: b9be b7bc 788b b03b 8303 b8ba 85ea f3bc
00000130: 171a 53bc 6946 febb d106 03bd a71b a73d
00000140: 1668 643c 9cbc c93d d064 a73d 75c2 843b
00000150: cf26 da3b 2a1c 813d ce20 85bd b430 ad3d
00000160: 2115 4bbc 5e12 c63d 6a4a 883b 2a7e 8dbc
00000170: f10d 693c 09e4 f63d b251 0cbd 6bbd c03c
00000180: b8da 373d ac04 c6bc 38b7 c43b 2536 ce3c
00000190: 9937 1ebc 1e7b 4d3d 77f5 753c 8ed0 23bd
000001a0: 5d0f d9bc 3bed 093d 24a8 b03d aa74 813d
000001b0: 536c d7bc 77bb 7c3b 17d3 ec3d 9d4a 313d
000001c0: be37 323b 1725 423d ee18 353d 1730 d83c
000001d0: 2c58 1d3d f356 10bc 6700 173c 2712 55bb
000001e0: 5f57 133e 9bad ce3c ab64 df3c 5af9 233d
000001f0: 49e3 9bbc f8cc 413d a8e5 31bd a9c8 9f3d
00000200: dc2d 3c3c c71e ee3d ee17 283d f2d4 263b
00000210: 0f63 233d 2d7b c1bc 9b5d 933d dd0b aa3d
00000220: b6e3 29bd 4eb8 793d e781 073d 105b 053e
00000230: 349c a0ba 9d9f be3b 9e94 e1bc f684 a4bd
00000240: 2c24 ce3d c338 d73d c3e8 08bd e588 8b3c
00000250: ed4a ce3d 1e72 033c d293 e3bd d5fa 9d3d
00000260: 5fdc 2b3d 8254 a5bb 56ce 51bc 7c78 2fbd
00000270: ec24 32bc 8b0c 683b d121 e6bb a478 843d
00000280: 6358 c03c c805 a5bc 0b07 ccbb 0948 383d
00000290: 9b56 24bd 5644 6bbc 416c e73b a594 7fbc
000002a0: ae3e 8cbd 58e7 d03a 6426 85bc b6af 033c
000002b0: 5ac2 f63c d828 13bc a1ec b3bc cb08 46bc
000002c0: 7aca 663b 64b1 383c 179f c63d fe8e be3d
000002d0: 7e31 e63d 6878 77bc 2209 473d 6984 1dbe
000002e0: c45b 803d 68a2 383d 771d 4a3b 035e 8e3d
000002f0: f0b5 2ebd 0cb3 6dbc 2478 30bd bbf0 0b3b
00000300: ed3c 833d 8101 f73d 1d66 b63c aa03 813d
00000310: 8965 6ebc c481 9b39 43ef 5d3b 6312 553d
00000320: 0ac1 083d 6cad a6bd 4923 74bc e6fd eb3a
00000330: 8bac 90bc de8a 3bbd 492d 4abc 1fdf 1c3d
00000340: 36fc 503c 1363 50bc 4eca 4d3c d813 483c
00000350: 3ec0 d63c e9a0 a23d 3742 983c c0e7 da39
00000360: 0947 98bc 71ea 2bbd 7319 c9bc 57f8 fb3d
00000370: cbaa 113c c6dc 98bb 9f32 783c 5ca7 9abc
00000380: 5c7f 4bbd f92b 7dbc 78f3 e03c 8d88 673c
00000390: f4c1 fbbc 761a 483d 7c15 9f3d 1e5b a43a
000003a0: 5ee6 26bd bab1 a83b 52a5 16bd 983b ad3d
000003b0: b4c5 46bd a531 c6bc 3b38 a83d b8f4 dfbc
000003c0: 1166 30bc f379 dc3d 35a6 91bc 3944 313c
000003d0: 44d3 b53d 6c18 babc ca6a 9f3d 227b 473d
000003e0: 3647 233d 20d4 02bd b4c9 533b d2d6 833a
000003f0: dd38 9dbc 62e7 b63c 6c2c 18bb a56b 313c
-0.01624173 0.026882451 0.025287017 0.11374277 0.0037950063 -0.020813564 -0.02815122 0.059389498
-0.028111719 0.11604296 -0.033740725 0.069302686 0.09636507 0.05866902 0.046477005 0.04593885
-0.027594034 -0.026211737 0.018077044 -0.02848238 0.030428326 0.04973842 0.04605222 -0.020243738
-0.028439509 -0.011033658 -0.030481199 0.015166988 0.02449485 0.024111543 -0.010395185 0.054540683
-0.0234131 0.079523005 0.036487054 0.15093727 -0.015503932 -0.016690472 0.067318775 -0.03113543
0.038994025 0.075579844 0.035176776 -0.018092195 0.0362723 -0.028320318 0.099847406 -0.027988827
0.028422263 -0.026123114 -0.02775588 0.024806159 -0.028119171 -0.029410707 0.016173042 0.071954235
0.038740333 -0.02817412 0.0854571 -0.032033496 0.056618568 0.11569834 -0.033207595 0.044080347
0.055609945 0.025708571 -0.04841057 0.08394279 0.03787562 -0.01888067 -0.012680209 -0.011098731
-0.02242981 0.0053877197 -0.0014039133 -0.029774914 -0.012884638 -0.0077598584 -0.031988923 0.08159571
0.013940832 0.098504275 0.08173525 0.0040515014 0.0066574584 0.063042 -0.065003976 0.08456555
-0.012395174 0.09671472 0.0041592615 -0.017272074 0.014224515 0.12055213 -0.0342576 0.023527822
0.04488632 -0.02417215 0.0060032867 0.025172302 -0.00965681 0.05016624 0.015012137 -0.039993815
-0.026496584 0.033673506 0.0862582 0.0632108 -0.02629677 0.0038563886 0.115637 0.043284047
0.002719387 0.047398653 0.044213228 0.026390119 0.038414165 -0.008809793 0.0092164045 -0.003251204
0.14388798 0.025229266 0.027269682 0.040032722 -0.019029276 0.047314614 -0.043431908 0.07801945
0.011485543 0.11626964 0.041038446 0.0025456515 0.03988939 -0.023618305 0.07195588 0.08303044
-0.041476928 0.060966782 0.03308287 0.13023019 -0.0012253583 0.005817367 -0.027536687 -0.08033173
0.10065493 0.10508873 -0.033425104 0.01703305 0.10072885 0.008022813 -0.11112179 0.07713858
0.04195821 -0.0050454745 -0.012805542 -0.042839512 -0.010873061 0.0035407867 -0.007023074 0.06468323
0.023479646 -0.020144358 -0.0062264255 0.044990573 -0.040121656 -0.014359554 0.0070624654 -0.015599404
-0.06847893 0.0015938086 -0.016253658 0.008037498 0.03012197 -0.008981906 -0.02196342 -0.012087057
0.00352159 0.011272762 0.09698313 0.09304617 0.11239909 -0.015104391 0.048592694 -0.15382542
0.06267503 0.045076758 0.0030840316 0.06951525 -0.042653978 -0.01450802 -0.043083325 0.0021353203
0.06408105 0.12060834 0.022265488 0.06299527 -0.014550575 0.00029660587 0.0033864535 0.052019488
0.03338722 -0.08138546 -0.014900991 0.0018004745 -0.0176604 -0.04578673 -0.012339898 0.038298722
0.012755444 -0.012718934 0.01256044 0.012211762 0.026214715 0.079408474 0.018586261 0.00041752867
-0.01858856 -0.041971628 -0.024548268 0.123032264 0.008890818 -0.00466499 0.015148788 -0.018878631
-0.049682006 -0.015452378 0.027459845 0.014131677 -0.030732132 0.04885336 0.0776777 0.0012539362
-0.04074704 0.00514814 -0.036778755 0.08458632 -0.04852839 -0.024193594 0.0821385 -0.02733837
-0.010766522 0.107654475 -0.017779449 0.010819488 0.08878186 -0.022716723 0.0778404 0.048701413
0.039862834 -0.03194058 0.003231627 0.0010058528 -0.019192154 0.022327129 -0.0023219837 0.010828887

bias f4 [64]
00000000: af58 e5bc cd99 46bc 2a90 763d 6ba9 06bd
00000010: 176d b53c f408 0e3c a8ca 0ebc d30c d5bc
00000020: e73b a43b 29b8 013d 2f5a 5fbc 94ba 99bc
00000030: 8af9 78bc 4841 d03d b986 1a3c 53d1 6abc
00000040: d894 6e3b 317b 0ebd 9d2f b53c baba b3bc
00000050: 4a96 c63c 28e0 fa3c 9b1c 9bbc 513d 533d
00000060: fa19 2f3d 4deb 9e3d 5ea1 7a3d a4e2 02bd
00000070: 3396 80bc bf1d 03bc 9995 a33c e3f8 f93c
00000080: 6ac1 e0bc a0f9 dc3c b39a bc3d dbf6 c53d
00000090: 2a48 bbbb 8669 aabc 271f 723c d8e8 8f3c
000000a0: 0833 b9bc a282 86bc 4c1b ab3d 3777 b9bc
000000b0: 5a32 8abc 0b1c 1d3b bfbc 1c3d db95 413d
000000c0: 1e52 1dbc 03f6 9c3d 31e1 93bc 2897 a6bc
000000d0: 978a 0bbd 7410 5e3d 8c65 8c3a 4a16 13bd
000000e0: 792f aabb 6c66 c9bc 4e2f 353d 699b 78bc
000000f0: 6a03 14bd 6a81 6abc cc55 b0bc 8d82 f6bc
-0.02799639 -0.01212163 0.06019608 -0.032876413 0.022146745 0.008669127 -0.008715309 -0.026007092
0.0050120237 0.03166977 -0.013632341 -0.018765725 -0.0151962135 0.101687014 0.009431534 -0.014332133
0.0036404636 -0.034785453 0.02211743 -0.021939624 0.024241585 0.030624464 -0.018934539 0.051572148
0.042749383 0.07759724 0.061189048 -0.031954423 -0.01569662 -0.0080026975 0.019968795 0.030514186
-0.027435977 0.0269745 0.09209194 0.096662246 -0.0057153897 -0.02080227 0.014777935 0.017567083
-0.022607341 -0.016419712 0.08354816 -0.022639854 -0.016869713 0.0023973014 0.03826594 0.047262054
-0.009602098 0.076641105 -0.018051716 -0.020335749 -0.034067716 0.05421491 0.0010711416 -0.03590993
-0.0051936475 -0.024584971 0.044234566 -0.015173771 -0.03613607 -0.014313081 -0.021525286 -0.030091548

weight f4 [64, 64]
00000000: 17a6 61bc 6732 433d f390 b9bc 891a e0bb
00000010: aa2d d1bc decb d13b be95 07bd 5ee7 b33d
00000020: 71c1 1fbd dee4 c3bc 2ae7 e8bc e3fe 663c
00000030: 68f9 1f3b a10e 32bd 60d2 e83c d059 e43d
00000040: 8084 dd3b e110 453d 3a1b 493d 0fb2 d53c
00000050: 71af 6939 e1bb ac3b f2b3 043d 9ed8 8e3d
00000060: 9061 c1bc 7cb4 673d a90b 15bd be2b db3c
00000070: 0dd5 8f3d eaa0 ebbc 40dd f8bc 6883 0b3d
00000080: 3a6e 23bc ebea 18bd 3d10 07bc 2478 9d3d
00000090: cdfb 8d3c 6749 a03c bd5b 1dbd 5827 1fbd
000000a0: b1a9 943d db96 4f3d 6e42 8ebc f378 46bc
000000b0: 99be 243d d769 eebc d797 d73d 3ea1 8bbc
000000c0: 9aa0 ab3d f9f5 423d 58df 2fbd ef82 f13c
000000d0: 619d 92bc 2bde cebc 292a a5bc e0c4 56bc
000000e0: e57f 87bc c4aa 87bc eef5 5ebd 3ffe 8abc
000000f0: 01fa c43b 5730 bebc 9997 1dbd 90f0 a2bc
00000100: e376 edbc 4ca9 cabc 2d25 b8bc 1b77 c8bc
00000110: 6b01 1dbc a4f1 c4bc a24d a0bc e8bd 3abd
00000120: 87d6 cabc f78c e5bb 8e9f ccbc 9179 e0bc
00000130: 5163 96bc adc3 b4bc 5bfb 143d 604f 3dbc
00000140: 3f79 c23c 003a 063d 5093 c03d e5a9 babc
00000150: d629 3abd e7f9 9cbb 12ef b23c 535f f4bb
00000160: 08c3 13bd 5b84 d5bc f9c2 543d 4ed9 44bd
00000170: e6ed 403d d45b 9abb 8032 00bd 6659 9bbc
00000180: 7dd9 a03d c4f1 3d3c 600b b2bc 900b 18bd
00000190: 59fe c6bc aa34 3abd 69ed 68bc 84f7 90bd
000001a0: c628 1dbc 3f4e cebc 14c7 c8bd c879 45bc
000001b0: 5ff3 b5bc a09f 96bb dd89 95bb e369 a03d
000001c0: 37b7 c4bc 086e 5f3d 67c6 063e 5185 15bd
000001d0: 4901 93bc 3b3c 4b3d c967 573d ccac 4b3d
000001e0: b7dd 93bb de6f afbc 7b3a 373d a246 aabc
000001f0: 8a19 eebc 3b7b 25bc e323 a93d a5c9 4abd
00000200: b900 c1bc 45ab af3c 8c2a 0fbd 2049 583d
00000210: aa3a 6c3d 75c1 cdbc 7811 1b3d 5769 483d
00000220: 20a1 2dbd 6bba ca3d c582 08bd 002d 2a3d
00000230: 772d abbc f5bf 22bd 1cae 953b 6fc8 42bb
00000240: 42b7 603d 4e30 4a3c 1009 d73c 4553 e1bc
00000250: 784c 0fbb 5f00 903d 73f7 71bc efa3 413c
00000260: 487a 853d 221c 07bd a53e 0bbd 574b 3dbc
00000270: 4e13 92bb 4ddc 01bd 4dd7 19bd 33d4 d3bc
00000280: 6bb8 d33d 9a54 0cbd 5ee9 2b3b 3248 423d
00000290: 20a3 953d d375 f7bc 211b 56bc 9d92 bfbd
000002a0: 3ddd d7bc be9b a93c 1ec0 923d bcee 913d
000002b0: 1015 9cbc a08a 2fbd 22c2 1f3c c0d7 f1bb
000002c0: 3c11 aabc 8d2c 713d 231d c8bc 30df d73c
000002d0: 68c4 bcbc 1304 84bc 0faf 02bd ab13 c6bc
000002e0: 90c8 cebc f13f 3e3d b335 53bd 3756 9e3d
000002f0: 72ac 5bbc ec0e aabc fdbc 493b 215c 683c
00000300: 75ff c13d 983a fb3e c0a2 cc3d 21b2 203e
00000310: db90 643e eb5f cd3d b600 153e fb72 8a3e
00000320: f6c1 c03d cbdf 6d3e 0b2c 623d 3961 fc3c
00000330: afee 8c3e 9056 ad3d f713 343e a548 053f
00000340: 87fb e0bd bf0f ea3c 9227 9b3e f3a4 953d
00000350: e99b 193f 1143 8b3e d3aa 193b 397a 0f3e
00000360: ed7c 113f 3952 e53d c190 843e 78cf ca3d
00000370: 6589 8b3e 1adc 183e 0aca 7c3d acce 423d
00000380: 53ad bd3d 665b 0f3e b238 9f3c ad6e 8f3e
00000390: 400b 3e3e 5293 ae3e 4f01 3a3e 6daf 6d3e
000003a0: 30c1 b13d 859c 3b3d 2249 8d3e 7220 2a3f
000003b0: bf60 7f3e 1595 f13d 5c38 7d3d 2534 c73e
000003c0: 38b9 ff3d 28f1 b83e 0a3a 813e d438 a3bc
000003d0: f95a 703c cffd a83d ae98 323d 017b dfba
000003e0: eda6 da3c 8c34 ce3d 9774 1a3e 1d97 683d
000003f0: 34bf bdbd a243 be3d 9b53 aa3d 7426 003f
-0.013772509 0.04765549 -0.022652125 -0.0068391007 -0.02553447 0.0064024767 -0.03310179 0.08784364
-0.03900284 -0.023912843 -0.02843054 0.014098856 0.0024410132 -0.043470982 0.028420627 0.11149943
0.00676018 0.0481118 0.04909823 0.026085882 0.00022285969 0.0052714203 0.03239817 0.0697491
-0.023606092 0.056568608 -0.036388073 0.026754256 0.07023058 -0.028763253 -0.030378938 0.034060866
-0.0099750105 -0.03733341 -0.008243618 0.07688931 0.017331982 0.019566251 -0.038417567 -0.03885588
0.072589286 0.050680976 -0.01736566 -0.0121137975 0.04022083 -0.029103203 0.10527008 -0.01704466
0.08380242 0.04759786 -0.042937607 0.02948138 -0.01789731 -0.025252422 -0.020161705 -0.013108462
-0.016540477 -0.01656092 -0.054433756 -0.016966937 0.006011248 -0.02321641 -0.038474653 -0.0198901
-0.028987354 -0.02473893 -0.022478664 -0.024470856 -0.009582858 -0.024041004 -0.019568268 -0.045591265
-0.024760498 -0.0070053297 -0.024978425 -0.027401717 -0.018357905 -0.022065962 0.036372524 -0.011554569
0.023739455 0.032770157 0.09403098 -0.02278609 -0.045450054 -0.004790533 0.021842513 -0.0074576526
-0.03607467 -0.026064089 0.051943753 -0.0480588 0.047101878 -0.004710654 -0.03129816 -0.018963527
0.078539826 0.011593286 -0.02173394 -0.0371204 -0.024291204 -0.04546038 -0.014216759 -0.0707846
-0.009592241 -0.025183795 -0.09803596 -0.012052961 -0.022210775 -0.0045966655 -0.0045635537 0.07832696
-0.024013145 0.054548293 0.13161622 -0.036504094 -0.017944949 0.049617987 0.05258921 0.04972534
-0.0045125145 -0.021415647 0.044733506 -0.020785633 -0.029064912 -0.010100181 0.08258798 -0.04950871
-0.023559915 0.021443972 -0.034952685 0.052804112 0.057673134 -0.025116662 0.037858456 0.048928585
-0.04238999 0.09898838 -0.033327837 0.04154682 -0.020895703 -0.039733846 0.0045678746 -0.0029721519
0.05486227 0.012340618 0.026249439 -0.027505526 -0.0021865647 0.07031321 -0.014768469 0.01181887
0.06517464 -0.032985814 -0.03399529 -0.011553607 -0.0044578677 -0.031704236 -0.037558842 -0.02585802
0.10337909 -0.03426037 0.0026231627 0.047432132 0.07306504 -0.03020755 -0.0130679915 -0.09354136
-0.026350612 0.020704146 0.0716555 0.07125613 -0.019053012 -0.042856812 0.009750875 -0.0073804557
-0.020760171 0.058880378 -0.024427956 0.026351541 -0.023042873 -0.016115224 -0.03190523 -0.0241793
-0.02524212 0.046447698 -0.051564883 0.07731288 -0.013407813 -0.020759068 0.0030782812 0.0141821215
0.09472553 0.4906814 0.099919796 0.15692951 0.22320883 0.100280605 0.14551052 0.27040848
0.09411995 0.23229901 0.055217784 0.030808078 0.2752585 0.08463776 0.17585741 0.5206397
-0.10985475 0.028571961 0.30303627 0.07306852 0.60003525 0.27199605 0.0023447766 0.14011468
0.56831247 0.11197323 0.25891688 0.09902853 0.2725326 0.14927712 0.061716117 0.04756038
0.092615746 0.1399971 0.019436214 0.28014126 0.18558979 0.3409677 0.18164562 0.23211451
0.08679426 0.045803566 0.27594858 0.6645576 0.2493925 0.11796013 0.061821327 0.3890697
0.124864995 0.36121488 0.25239593 -0.019924559 0.014670127 0.08251535 0.043602638 -0.0017050208
0.026690925 0.10068616 0.15083538 0.056784738 -0.09264985 0.09290244 0.08316728 0.50058675

bias f4 [64]
00000000: 81be 11bd 860e 53bb f196 11bd e903 8c3d
00000010: 0b13 7bbc 63a2 06bc b0ba b7bc fea4 cabc
00000020: 3357 0f3d 54e2 2abd ed80 b93d bc0a 18bd
00000030: 3694 5b3b a1c6 c8bc 676f fbbb 1d53 1f3d
00000040: bcbe 693b 5744 c5bb c91a 7fbd 8fc5 adbb
00000050: 3750 f5bc af1c ecbc 5151 353d fbf1 be3b
00000060: 025c 42bd 79bf 743d 031e 093e ff24 c1bc
00000070: 263c 073d ffde 3fbd c8aa 0fbd cd4f 6abd
00000080: 573e ecbb c4ae a03d 45a6 11bd f2cd 8b3d
00000090: b076 a33c f5f3 ad3d ab56 24bd f039 db3d
000000a0: c193 cabb 78ba 2a3d 8d46 143e bcac 4f3d
000000b0: 922e 8d3d ad3b 26bc 5b0f 31bd 727f 5dbd
000000c0: d167 c3bc 2616 073d 979f 393d 5365 4f3d
000000d0: bd85 dfbc c80b b83c f099 f7bc 9217 cbbc
000000e0: c4c6 743d 4980 0fbc 173a ac3b 5035 ef3b
000000f0: dce9 c73d 890a 13bc d2ed 24bd fa63 3fbc
-0.03558207 -0.0032204702 -0.03554434 0.06836683 -0.015324364 -0.008217427 -0.022427887 -0.024736878
0.03499527 -0.04171975 0.09057794 -0.037119612 0.0033505089 -0.024508776 -0.0076731923 0.038897622
0.0035666665 -0.0060201096 -0.062281404 -0.005303092 -0.029945476 -0.028822271 0.044267002 0.005827186
-0.047451027 0.059752915 0.13390355 -0.023577211 0.033016346 -0.046843525 -0.03507498 -0.05720501
-0.00720958 0.07845834 -0.035558958 0.0682639 0.019954056 0.08493797 -0.040121716 0.1070441
-0.0061821644 0.041681737 0.14480038 0.05070184 0.06893648 -0.010146064 -0.043227535 -0.05407662
-0.023853214 0.032980107 0.045318212 0.05063374 -0.027285451 0.022466555 -0.03022477 -0.024791513
0.05975987 -0.008758613 0.0052559483 0.0073000565 0.09761402 -0.00897468 -0.040265866 -0.011681551

weight f4 [5, 64]
00000000: 1ce0 02bc 9e9b 863d 0a85 61bb 95bf 7a3d
00000010: 5f7f 28bc 6078 e13d 2395 26bd 487d e43d
00000020: a2c2 c5bc 7db0 04bd 53c9 88bb 6937 06be
00000030: a2fa f93d 0dcf 4cbd 2c86 2b3d 88b8 91bc
00000040: 1f4e a63d ddaa 0cbc a1b6 f0bc 142a 0cbc
00000050: 7bdf 02bb 2ce8 d0bc 0a61 fb3d fd55 a03c
00000060: c42c f23b 1eb4 9f3d 8d45 b23d c062 0ebd
00000070: 841b 7f3d f177 57bc 101a cabc 1050 9bbc
00000080: d0d9 873d e8bc 05bc b2c1 a0bc 3de1 8b3e
00000090: baf7 02bd 548b 0c3e 4863 5fbc 8ec0 c53d
000000a0: bab9 f33d 7601 57bd 9f3d 7abc 2f4d 8dbc
000000b0: 2822 d6ba c4ea 073d 386a 89bc cf40 213e
000000c0: 2a3c 07be 88de 503d 801e c53d 8807 3cbc
000000d0: 1606 6fbc 279a 013e 37b7 17bd cb78 76bc
000000e0: 8a67 b4bb 5097 cd3d ab9b a93e 15b4 083e
000000f0: fe3a 24bd 5995 96bc 4165 96bc fc83 283d
00000100: 6ef0 0a3d e557 013d 89b2 e63d f7ec 733b
00000110: 0ff2 c13b 0f15 83bd 8724 faba 19cc 323d
00000120: f587 3dbc 4418 9e3d 85bb a2bc c5ce 303e
00000130: c44b f33d d26b 53bc c79b 9ebc 26ea b83c
00000140: d133 86bc c0df 85bc 6a7a 9abc 0ba2 ee3a
00000150: dfad 1d3d 27b1 95bc 4d62 84bb 2d8b 5fbc
00000160: f86c afbb 20fb 153e 3627 adbc 0cdc a2bc
00000170: faf9 c63d 1fb1 5c3d 5e46 1abd 486e 193d
00000180: 63cb 793c 6aa3 9ebc f040 3fbc b37e 493e
00000190: d18d 94bc 9a27 3e3d 8f20 fa3c 97c8 20bc
000001a0: df4a ee3d 0ecc 003d 37f9 38bd f33f 99bc
000001b0: 1dd1 cb3d 16b8 fc3d 07de 8fbc 4c73 433e
000001c0: 48f8 28bd 2041 9dbc 6410 3ebb c4d9 6b3c
000001d0: 0bb3 c33d 050d 5cbc be67 8f3b cb2f a0bc
000001e0: e7a5 acbc d557 ff3b bebb 02bc 5ad7 393e
000001f0: 293b b4bd c54d 1a3e 81fd 3f3e 98ab 76bc
00000200: fee9 2ebb a8c4 353d 1896 b43d b628 3abc
00000210: 0dd6 cbbc 180e 083e 3c4c 0d3d a613 c13d
00000220: 31c7 f5bb 6fbe e53d 6b00 1dbc 9ef1 103e
00000230: fb51 2cbc 955a d5bc 98cc aabc 3b57 13bd
00000240: caf1 963d e440 783d f8dc 5b39 3e17 dd3d
00000250: 8379 853d 68a6 9cbc 8486 913d 01cf a13c
00000260: 4247 e03d 33db 613c 5ae0 a6bc 5e06 eb3c
00000270: cbb0 68bc 246c 84bc f8e4 823d 9d97 8c3d
00000280: d7c4 d4bc b7f7 b3bc 4adf cdbb 3a0d 6d3e
00000290: 3c82 d03d 9831 a33d ddf4 cabc 98b9 5d3b
000002a0: 293a 1b3b ed3f b9bc 3e13 41bd 755d 703d
000002b0: 2256 95bc 57f3 a0bc 2079 1b3b 80f9 9c3e
000002c0: e516 d33d fdcf 9bbc 5c01 5cbc 5404 e73d
000002d0: 2701 df3b 520b e53c e8cb 873d d8cf a3bc
000002e0: 378a ffbc 5d8c 043e 0163 0b3e 6f12 ed3d
000002f0: 5a7b f4bd 9659 093d e3f3 3abc 3ac8 303d
00000300: b021 c5bc b602 073e 0c1b 2abc e5c8 593c
00000310: 76db a0bc 0c00 ad3d dfdb ee3d 8d37 37bd
00000320: 4a3b 8e3d 070b d6bc ad47 a3bc 9017 77bd
00000330: 6b51 003d 49c7 843d 35f0 da3d 4ac0 4c3d
00000340: 08fa acbc a2d3 73bd 27bc 9d3b 243a 043c
00000350: 34a0 57bd 5f3d 133d 631e bcbc 9da3 aebc
00000360: 1ce6 10bd 9a74 a53d ef23 c6bc 7d89 ae3d
00000370: f780 3f3c 1a01 2cbd ff75 43bd ae01 853b
00000380: 4ff0 a03b 8609 01bd 5eb1 c93d ea74 373d
00000390: 0c30 87bc db13 12bd 103c dbbc 35e3 f1bc
000003a0: 52ad 483c b839 683c a0a8 713b c443 913d
000003b0: f0ea f7bc 2bea 3a3d bb2b bebc ef52 ddbd
000003c0: 1a36 c1bc 286c d83c 4746 d63b d4b9 503d
000003d0: 49ea dbbc 9b4b 933d 138f 16bd 19f0 50bc
000003e0: 6f35 d73b 6ed9 1cbd 51e4 683d ec60 75bd
000003f0: 7047 553b b2e0 80bc 390e 533e 5499 163d
-0.007988002 0.065726504 -0.0034411573 0.061217863 -0.010284274 0.11009288 -0.04066957 0.11156708
-0.02414066 -0.032394875 -0.0041743903 -0.13107075 0.122060075 -0.050002147 0.041876003 -0.017788187
0.08120369 -0.008585659 -0.02938396 -0.008554954 -0.001996963 -0.025501333 0.12274368 0.019572252
0.0073905904 0.077980265 0.08704672 -0.034762144 0.0622821 -0.013151155 -0.02467063 -0.018959075
0.06633341 -0.008162715 -0.019623611 0.2732028 -0.03197453 0.13725024 -0.01363451 0.096558675
0.11900659 -0.052491628 -0.015273481 -0.017248718 -0.0016337084 0.033182874 -0.016774282 0.15747379
-0.13206545 0.050993472 0.09624958 -0.011476405 -0.014588853 0.1265646 -0.03703996 -0.015043448
-0.005505507 0.10038626 0.33126578 0.13349946 -0.04009532 -0.018381761 -0.018358828 0.041141495
0.033920698 0.031577963 0.11264522 0.00372201 0.005918748 -0.06400501 -0.0019084372 0.043651674
-0.011568059 0.07719472 -0.019864807 0.17266376 0.118796855 -0.012904124 -0.01936139 0.022572588
-0.01638213 -0.016342044 -0.0188572 0.0018206252 0.038495895 -0.01827295 -0.0040400387 -0.013644022
-0.0053535663 0.14646578 -0.021136861 -0.019880317 0.09715648 0.053879853 -0.037664764 0.037458688
0.015246245 -0.019365031 -0.011673197 0.19677238 -0.01813403 0.046424486 0.030533103 -0.009813449
0.11635374 0.0314446 -0.045159545 -0.018707251 0.099519946 0.12339799 -0.017561926 0.19086951
-0.041252404 -0.019196093 -0.0029001469 0.014395181 0.09555634 -0.0134308385 0.0043763807 -0.01955404
-0.021075202 0.007792453 -0.007979332 0.18148556 -0.088003464 0.15068729 0.18749048 -0.01505556
-0.0026689763 0.044377 0.088176906 -0.011362245 -0.02488234 0.13286626 0.03449653 0.09427576
-0.007500552 0.11217963 -0.009582619 0.1415467 -0.010517593 -0.02604417 -0.020849511 -0.03597186
0.07370336 0.06060876 0.00020967785 0.10795449 0.06517317 -0.019122317 0.07105735 0.019752027
0.10951091 0.013785171 -0.020370651 0.02868956 -0.014202307 -0.016164847 0.063913286 0.068648554
-0.025972767 -0.021968706 -0.0062827216 0.23149577 0.1018109 0.07968444 -0.024774963 0.0033832546
0.002368579 -0.02261349 -0.04713749 0.058682878 -0.018229548 -0.019647283 0.002372332 0.30659103
0.10307101 -0.019020075 -0.0134280585 0.112801224 0.0068055573 0.0279595 0.06630689 -0.019996569
-0.031193836 0.1294417 0.13611986 0.115757816 -0.1193759 0.0335327 -0.011410686 0.0431597
-0.024063915 0.13184628 -0.010382425 0.013292526 -0.019635897 0.084472746 0.11663031 -0.04473071
0.06944902 -0.026128305 -0.019931639 -0.060325205 0.031327646 0.06483323 0.10690347 0.04998807
-0.021115318 -0.059528 0.0048136893 0.008070502 -0.052643016 0.0359472 -0.022963708 -0.021318251
-0.0353757 0.080788806 -0.024187056 0.085223176 0.011688462 -0.041993238 -0.04771995 0.004059038
0.0049114595 -0.031503223 0.09848283 0.044789232 -0.016502403 -0.035663467 -0.026762038 -0.029527286
0.012248354 0.0141739175 0.003687419 0.070930034 -0.030263394 0.045633476 -0.023214212 -0.10806834
-0.023585368 0.02641876 0.0065391394 0.05095847 -0.026845114 0.07192155 -0.03675754 -0.012752556
0.006567649 -0.038293295 0.056858364 -0.059906885 0.00325438 -0.015732143 0.20610894 0.03676732

bias f4 [5]
00000000: e395 073d 8054 cfbc 93e7 a13c c6ba d93c
00000010: 1134 e73d
0.033101927 -0.025308847 0.019763744 0.026578318 0.11289228
