digital_twin/beluga/pinn_1-4/model.pt (torch, 42045 bytes, 8 tensors)

weight f4 [64, 2]
00000000: 0d0b 80bc efc5 263b bf94 80bc 3ef1 9d3c
00000010: 590d b2bc 93c3 9a3e b1fb f3bb 7a8e d8bb
00000020: 3d40 093c 9315 90bd d3c3 fe3c b68e 533d
00000030: cad4 003e 2a3c b33f 3849 29bc 19c2 753e
00000040: e8f6 74bc ce8c 743e 924b b2ba f948 cb3e
00000050: 0aaa a63b c698 3dbc 2175 14bc 2e15 673e
00000060: 7396 9b3d 9890 c83e 4968 f6bc 587a 1bbd
00000070: 3cdb d13c ee9a 4dbd 5f23 263d 84c5 72bc
00000080: 2e38 363c b6c0 63bd 10ec fc3c b7e5 1e3d
00000090: 6481 393c 2215 6bbd 4e24 893c dcb6 343c
000000a0: 0c25 02bc 08b0 d0bc 83e7 153d d624 373d
000000b0: 9ed0 1fbc 3b9f a73e 6bc3 80bc 4add 903b
000000c0: cc15 53ba 31c1 943e 4470 f73a 0f27 163f
000000d0: c7b7 193c dcd5 ab3e 619d a03d a272 c2bd
000000e0: ec1a cdbc e9b0 2b3d bfa7 62bc 6ced 12bc
000000f0: b7ce 79bb 62bb 043f 4ff5 c03a 3649 773b
00000100: ad03 60bb f39a e0bd f147 803c 7a96 a63c
00000110: 06e6 e0bb 14ee 3fbc 9cb0 edbb f8d7 77bc
00000120: 150f 1bbb 33e8 ed3e 0bb4 1a3c 9751 8cbc
00000130: eb14 5bbc 2ed9 2b3d 22f9 893c 3636 ae3b
00000140: e066 20bd 10db f33e 7964 f8bb 9e68 25bd
00000150: 15d8 e4ba ad77 243f 9dfc db3c c2c7 dd3c
00000160: e204 2abd 6e20 b23e ae3c a53b efda dc3e
00000170: 9729 05bc eb52 923c 8ca5 7f3d b640 7ebd
00000180: 2546 a0bc 076c b73e bf2d 583c bce2 9bbc
00000190: 9a12 593b b42d ee3e 8f2d dfbb a867 0fbd
000001a0: a230 123c b789 453f f479 c33b ab73 2cbc
000001b0: 596c c0ba 8f29 2c3d 09fe b0bb ad61 3ebd
000001c0: a79b 82bc 01b7 0c3d 4329 ab3b 3c29 e73e
000001d0: a97d 0cbc b2ca 113c 3e56 473b 30e3 2e3b
000001e0: daf6 cbbc fe8b 673e b35c eb3d a12a ecbc
000001f0: 13e1 d9bc 671c 2e3e 7956 6bbc dae4 a8bc
-0.01563027 0.0025447567 -0.015695928 0.019280072 -0.02173488 0.30227336 -0.0074457754 -0.0066087814
0.008377132 -0.07035365 0.031099236 0.05164977 0.12581173 1.4002736 -0.010332398 0.23999824
-0.014951445 0.23881838 -0.0013602844 0.3970411 0.005086188 -0.011572069 -0.009061129 0.22566673
0.07597055 0.39172816 -0.030079024 -0.037958473 0.025617234 -0.05019658 0.040561076 -0.014817599
0.011121793 -0.055603705 0.030874282 0.038793292 0.011322353 -0.0573932 0.016740944 0.011029925
-0.007943403 -0.025474563 0.03659774 0.044712864 -0.009754328 0.3273867 -0.015718183 0.004420911
-0.0008052259 0.29053643 0.0018878062 0.5865335 0.009382195 0.335616 0.07842518 -0.09494521
-0.025037251 0.04191676 -0.013833939 -0.008967739 -0.0038117596 0.51848423 0.0014721545 0.0037732846
-0.0034181878 -0.10967054 0.015659304 0.020335425 -0.0068633584 -0.011714477 -0.0072537195 -0.015127175
-0.0023660113 0.46466216 0.00944234 -0.017128749 -0.013371686 0.041955166 0.016842429 0.005316521
-0.03916061 0.4762807 -0.0075803366 -0.040382974 -0.0017459417 0.6424511 0.026853854 0.027072791
-0.041508563 0.34790367 0.005042634 0.43135783 -0.008127592 0.017861804 0.062413737 -0.062073432
-0.019564698 0.35824606 0.0131945005 -0.019029014 0.003312266 0.46519244 -0.006810851 -0.035010964
0.008922728 0.7716326 0.0059654657 -0.010525624 -0.0014680728 0.04203182 -0.005401377 -0.04647987
-0.015943361 0.034354214 0.0052234246 0.45148647 -0.008574882 0.008898424 0.0030416395 0.0026685707
-0.024897981 0.22611997 0.1149229 -0.02882892 -0.026596582 0.17003022 -0.014363878 -0.020616937

bias f4 [64]
00000000: d974 0f3f 8474 5cbc 0228 c13e 1fe7 ba3d
00000010: 1279 ca3d a20e 86be 715d 283f c009 ed3e
00000020: 08b0 c03e e917 45bd f581 243d a564 0d3f
00000030: a632 923e 9805 113f be35 adbd 5256 81be
00000040: f7e9 953e f80e 07be 9ba2 8fbd 23d8 233f
00000050: 9d6d 823e 6f36 c3be f5f2 87bd 0853 233f
00000060: 1c46 263d 8e65 eb3e dce2 583e a8c2 0e3d
00000070: 0b3b 0a3e 4443 093e 037d 673f 0fd5 b03e
00000080: e78a 0d3f 1bab 933e b5a5 c53e 7ef3 97bb
00000090: 7c26 9bbe 4e32 94bd da7f e4bc a285 44bd
000000a0: 62db 313e 951a 753e beef bdbc 229e 89be
000000b0: 1fbe 493f 50a2 7c3f b533 cd3e 333a 2b3f
000000c0: eaaf 8ebd 22b8 8abd d861 e03e 7dc2 e1bc
000000d0: 654b 8d3d 1436 013f 551b 2c3c 4cf3 b63e
000000e0: f5eb 02bd d311 87be 8430 113e d73b 48bd
000000f0: 053d 373f 4020 093f 3a9c 4d3e a20d 0a3b
0.5603767 -0.013455514 0.37725836 0.09126114 0.098863736 -0.2618304 0.6576758 0.462965
0.376343 -0.048118506 0.040163 0.55231696 0.28554267 0.5664916 -0.08457516 -0.2526117
0.29280064 -0.13189304 -0.070134364 0.64001673 0.25474253 -0.38127467 -0.06638137 0.6379857
0.040594205 0.45975918 0.2118029 0.034853607 0.13499086 0.13404566 0.9042513 0.3453755
0.55290073 0.2884148 0.38602987 -0.004637181 -0.303028 -0.07236157 -0.027892996 -0.047979005
0.17368844 0.23935921 -0.023185607 -0.26878458 0.78805727 0.9868517 0.40078512 0.6688568
-0.06967147 -0.06773402 0.4382465 -0.02755856 0.06899146 0.5047314 0.010504563 0.35732496
-0.031963307 -0.26380786 0.14178663 -0.048885193 0.71577483 0.53564835 0.20079127 0.0021065255

weight f4 [64, 64]
00000000: 8d23 a9bc cd95 cf3c f6b1 023d 782f e93d
00000010: c393 993b 2562 12bc ac02 d9bc aba3 443d
00000020: 0846 e5bc 2578 f33d 3036 05bd cc2e a43d
00000030: a314 c93d 1528 383d fc14 5d3d baf2 593d
00000040: 2e9f dabc a646 8abc 731c 8c3c ed2b d8bc
00000050: 614a f93c 3a49 7e3d c8e9 c13c 9493 9dbc
00000060: 6329 d3bc a03b 12bc ffac f0bc 9f99 dc3c
00000070: f5d1 b03c 2cd2 c13c 268d 50bc 3217 733d
00000080: 89bd c9bc dd11 a93d 45a9 173d b5d9 193e
00000090: 07c9 45bc 0394 5fbc 6f25 873d b73c f7bc
000000a0: 1eb0 293d b4d1 9a3d 265c 1a3d ae9b eebb
000000b0: 9d62 363d 7f82 d9bc 98f8 cd3d 2169 bcbc
000000c0: 6000 d83c 21f0 d5bc 0b21 d5bc b2bc bb3c
000000d0: fede d5bc 5d4a e2bc bf16 ec3a d06d 923d
000000e0: 0d65 1b3d f4b8 e1bc 6d47 ad3d 4767 fcbc
000000f0: 6170 8f3d 5168 f63d 8538 10bd a071 2c3d
00000100: 97d0 653d 9aa5 de3c ce07 43bd a3a7 ad3d
00000110: df64 153d 2482 9abc 8875 86bc 5d18 2bbc
00000120: 5abc c5bc 6bff eeb9 20dd f6ba c71f 93bc
00000130: 649b 85bc 1c8a 0bbc 3cce 05bd 960d a73d
00000140: 622d 3f3c a11a c83d fe75 a43d f1dd cd3a
00000150: 3883 e93b cc33 813d e605 88bd 8b5a af3d
00000160: 6c77 68bc 0584 bf3d 142e e939 f037 8abc
00000170: 05b2 7b3c 7df5 f73d 6c0d 17bd 6aa8 bd3c
00000180: 3072 283d 0778 d4bc 6305 b63b c20e d83c
00000190: a407 48bc bd54 493d ab05 8a3c 4d00 27bd
000001a0: ace6 d5bc cdce 0a3d a7b1 aa3d 470d 813d
000001b0: 3073 babc 07ed 9439 9a5b ed3d e8c6 273d
000001c0: 0eeb feb9 9a7d 3e3d f61c 273d 1e8d dd3c
000001d0: 814a 0e3d f330 2dbc f77a a63b 7312 99bb
000001e0: c4fe 143e caf5 ad3c c4ef ea3c 789c 263d
000001f0: 3bd8 88bc 29aa 373d b385 2bbd e674 a13d
00000200: ef87 623c 194b f13d 10fc 1f3d 6c3b 713b
00000210: 2bbe 1f3d 4d32 e2bc 5c14 933d 2a33 a43d
00000220: 25d4 08bd 3b1b 803d 5722 033d 8990 d83d
00000230: 405b 06bb e3d2 3b3c 7570 fdbc 5de8 abbd
00000240: 92cd cc3d 6a86 d03d e8e0 0bbd e9b4 823c
00000250: 45d8 d03d 0ecc 823b 1b60 d8bd 7276 9e3d
00000260: 8206 293d 72ed bbbb e046 5cbc 64c5 48bd
00000270: 7d55 0cbc 8d8c bc3b 0222 0fbc 454b 753d
00000280: 51dc ca3c c991 b3bc b463 92bb 1384 3e3d
00000290: e562 1fbd 1ddf 85bc 0826 fe3b 9473 92bc
000002a0: 47e0 71bd 1db0 6a3b d415 8dbc a1c9 6d3b
000002b0: b53d d53c 7f0c 1abc fac2 b2bc e7ea 61bc
000002c0: 9c5a ac3b 3ecf 1c3c 59bf c53d 8abe c23d
000002d0: cefe e23d a9b5 81bc 694c 6e3d faf0 1abe
000002e0: c5c2 823d ecab 363d a03d 943b 43b4 8e3d
000002f0: de40 3fbd ea86 85bc 4bed 33bd 21ec 943b
00000300: 9afe 813d 8d5c f63d 8de2 a93c 4053 7e3d
00000310: 7f3b 6abc e656 fe3a f20c db3a 3af8 533d
00000320: 656b 043d 8a04 aabd 8687 5ebc f5d7 fa3b
00000330: dfd5 9bbc 389f 44bd 8e45 41bc a7f0 213d
00000340: d151 4e3c 1698 42bc 6103 5b3c 3f64 3e3c
00000350: 7a6b cc3c 3e3b a63d 5154 613c 561c fd38
00000360: f29a 95bc 692a 31bd 43d9 d2bc fbe7 fd3d
00000370: c42a 0a3c 782a bbbb aab9 923c f477 98bc
00000380: 4b50 5dbd 0da8 7dbc c776 d23c 45a5 5d3c
00000390: a0df 03bd 3528 4b3d 4304 9f3d 3122 0b3b
000003a0: 1775 2dbd 7da2 813b 1b9d 1bbd a126 b03d
000003b0: 055b 44bd df21 d3bc 3d6d a43d 34e8 e0bc
000003c0: 24dd 3bbc e952 de3d 4a31 9cbc 4cb0 223c
000003d0: 4a28 b23d 8eee b9bc 695f a13d e222 3c3d
000003e0: c50e 223d 0a04 09bd 60c6 333b 6151 443b
000003f0: bcd5 a4bc 91ba c03c 656e 3abb cbc1 253c
-0.020646835 0.025339985 0.031907998 0.11386007 0.004686804 -0.008934532 -0.026490532 0.04800765
-0.027987495 0.1188815 -0.03252238 0.08016738 0.09818389 0.0449601 0.05397509 0.053209998
-0.02668723 -0.01687939 0.01710341 -0.026388133 0.030430974 0.062081553 0.023671046 -0.01923541
-0.02577657 -0.0089253485 -0.029379366 0.026928721 0.02158449 0.023659788 -0.012728965 0.059348293
-0.02462651 0.0825536 0.037026662 0.15024455 -0.012071854 -0.013646129 0.06598937 -0.030180318
0.041427724 0.07559529 0.037685536 -0.007281742 0.04452764 -0.026551483 0.10057181 -0.022999348
0.026367366 -0.026115479 -0.026016733 0.022917125 -0.026107308 -0.02762335 0.001801215 0.07149851
0.037938166 -0.027554013 0.08460889 -0.030810965 0.070038565 0.120316155 -0.03521015 0.04210055
0.05610713 0.027178574 -0.047614865 0.0847924 0.03647315 -0.018860884 -0.016413465 -0.01044282
-0.024137665 -0.000455852 -0.0018834211 -0.017959489 -0.016309448 -0.008516815 -0.032667384 0.08156888
0.011668535 0.09770704 0.08030318 0.0015706402 0.007126238 0.063087076 -0.0664175 0.085621916
-0.014188629 0.093513526 0.00044475554 -0.016872376 0.015362267 0.1210737 -0.036878034 0.023151595
0.041124523 -0.02593614 0.0055548414 0.026374225 -0.012208853 0.04915308 0.016848406 -0.04077177
-0.02611097 0.033888627 0.08334666 0.063013606 -0.022760004 0.0002840536 0.11589737 0.040961176
-0.00048621785 0.0465065 0.040799104 0.027044829 0.03473902 -0.010570752 0.0050805765 -0.004671389
0.1455031 0.021235365 0.028678782 0.040676564 -0.01670467 0.04484001 -0.041875552 0.07883625
0.013826354 0.11781902 0.039058745 0.00368091 0.038999718 -0.027611876 0.071816176 0.08017571
-0.03340544 0.06255194 0.03201517 0.10574443 -0.0020501167 0.0114638535 -0.030937413 -0.08393929
0.10000147 0.101818874 -0.034150034 0.015955405 0.101975 0.0039916104 -0.10565206 0.077374354
0.041265972 -0.005735093 -0.013444632 -0.04901637 -0.008565304 0.0057540596 -0.008736135 0.059886236
0.024763258 -0.021920102 -0.004467452 0.046512675 -0.038912673 -0.01634174 0.0077559985 -0.017877378
-0.05905178 0.0035810538 -0.017222323 0.003628351 0.0260304 -0.009402393 -0.021821488 -0.013788915
0.005259825 0.009570895 0.09655637 0.09508999 0.110837564 -0.015833693 0.05817834 -0.15130988
0.063848056 0.04459755 0.004523948 0.06967976 -0.04669272 -0.016299684 -0.043927472 0.0045447503
0.063473895 0.120293714 0.02073791 0.062091112 -0.014296412 0.001940456 0.0016712232 0.0517504
0.032328982 -0.08301647 -0.013582116 0.0076551386 -0.01902288 -0.048003405 -0.011796368 0.039536145
0.012592749 -0.01187708 0.013367505 0.01162058 0.024953593 0.08116768 0.013753013 0.00012069258
-0.01826236 -0.043253336 -0.025738364 0.123977624 0.008433048 -0.00571185 0.017910797 -0.018611886
-0.05403165 -0.015481961 0.025691403 0.013528173 -0.032195687 0.04959889 0.07764485 0.0021230096
-0.042347994 0.0039561377 -0.037991624 0.08601118 -0.047938365 -0.025772987 0.08028648 -0.027454473
-0.011466298 0.108556576 -0.019066472 0.009929728 0.08699091 -0.02269676 0.07879526 0.045931704
0.039564867 -0.033451118 0.0027431473 0.0029955732 -0.020121448 0.023526462 -0.0028447148 0.010117005

bias f4 [64]
00000000: e9af d7bc 4aea 81bc b301 763d 5fb2 0dbd
00000010: 1a4a c13c 63b9 1b3b b534 e5bb 706b e0bc
00000020: 60db 573c 02ef 0d3d 31fc e3bb 2cdc 9cbc
00000030: 8c1f 63bc a999 d23d fab2 1e3c 0bea 91bc
00000040: cbc4 6d3b 5c4a 07bd cf30 bc3c cf61 a7bc
00000050: 6581 c63c 63cc ca3c 20ca a3bc 7814 4d3d
00000060: 8c83 213d 3f71 9e3d 85d0 803d b969 08bd
00000070: 384f 6cbc ea13 d5bb f89b 0e3d 0331 0c3d
00000080: 2a37 dbbc 4e92 f53c 4a23 c03d c066 c53d
00000090: 04da e2ba 9c8c cabc 8aa8 823c 564c 793c
000000a0: b0da b1bc 1057 54bc 1886 aa3d d18d bebc
000000b0: 2fd2 79bc a29f 173c 57ca 283d d8cb 413d
000000c0: 296b 11bc 7a34 a03d c023 63bc 1208 adbc
000000d0: ed89 0dbd ba9a 5e3d fa74 373b 5abf 20bd
000000e0: c4ed 31ba f1c2 c1bc e2f7 383d 11d4 60bc
000000f0: db57 0cbd a5da 23bc ad5a 9ebc 188a 12bd
-0.026328998 -0.015858788 0.060060214 -0.034593936 0.023594905 0.0023761622 -0.0069948086 -0.02739498
0.013174862 0.034651764 -0.006957554 -0.019147955 -0.013862502 0.102832146 0.009686226 -0.017811796
0.0036280628 -0.0330299 0.022972493 -0.020432381 0.024231622 0.024755662 -0.019993842 0.05006835
0.039432094 0.07736444 0.06289772 -0.03330395 -0.014423184 -0.006502618 0.034816712 0.03422643
-0.026759703 0.02997699 0.09381731 0.09638739 -0.0017307405 -0.02472525 0.015949506 0.015215954
-0.021710724 -0.01296021 0.083263576 -0.023260983 -0.015247866 0.009254368 0.04120859 0.04731354
-0.008875647 0.07822509 -0.013863504 -0.021122012 -0.034555364 0.054346777 0.0027993307 -0.039244987
-0.0006787444 -0.023652526 0.045158274 -0.013722436 -0.034263473 -0.010000859 -0.019330347 -0.035776228

weight f4 [64, 64]
00000000: 1bef 68bc 1ef3 0c3d 6d22 a9bc 8f4f b5bb
00000010: c2b0 e0bc 44b3 c53b 49b2 fcbc e18b 613d
00000020: be39 23bd 5e6d 8dbc 757f e7bc 5a50 1d3c
00000030: df78 353b 9ea6 31bd 712e 043d a9a9 c93d
00000040: a3f0 713b c2f2 4d3d abc3 4e3d 310d d73c
00000050: 3c54 81bb 3dc4 5c3b ee8f 043d bfcf 893d
00000060: 7995 ecbc 10e2 603d 6266 10bd 6ad5 b03c
00000070: c4c7 aa3d 5e8c e7bc 31e6 04bd 1a77 093d
00000080: 5c31 04bc 70f6 16bd 283b 14bc 4074 9f3d
00000090: 08db 8d3c 73e1 8d3c 9cc6 20bd 1998 3cbd
000000a0: 13a9 963d 15ea 6d3d aaab debc b158 e7bb
000000b0: 31b7 2b3d 5c0c f6bc ef36 d43d f4f8 e2bc
000000c0: 5245 cf3d 708f 503d 4927 c7bc 7ccf d43c
000000d0: 65bc a1bc dc0b 90bc ca21 a4bc b234 98bc
000000e0: 26be 8dbc 95ce 6bbc a56c 39bd 47cb 9bbc
000000f0: c957 afbb 62af c0bc 7c6f 10bd d675 e9bc
00000100: bd97 fcbc 4587 cfbc 46ea aabc 8c8b f4bc
00000110: 248c dabc 7828 c6bc 6147 cebc 3a7d 353c
00000120: 1ee8 b9bc a0f2 d0bc e1c2 d9bc 990f fabc
00000130: 82b5 abbc 01b9 dcbc 6d4f ca3b dd70 b2bc
00000140: caff 203d 0b7c e23c e3c6 813d 1eff a5bc
00000150: 8e47 8fbd acc9 2dbc d49c 573d 0161 f4bc
00000160: cd28 4cbd a8f3 9ebc 1d52 323d a650 8cbd
00000170: 0a97 823d 7c24 d5bb c056 25bd b011 94bc
00000180: 45b3 a83d 14de 9d3b 8bb2 7abc 6713 66bd
00000190: b793 cdbc 8a0f 72bd 6952 74bc c01a b9bd
000001a0: 1dbb 2dbc 37ac babc b5d0 25be 5572 5bbc
000001b0: 3d75 b7bc e3a0 38bc fc8b 6f3a 4494 143e
000001c0: abb0 73bd 006f 413d e50f 133e 42a1 05bd
000001d0: 482a 95bc a765 613d 9561 503d e3e2 663d
000001e0: 7c77 60bb 2b10 e6bc b12d a13c 7279 61bc
000001f0: cd7a 05bd 3702 3dbc 20f6 893d ad82 a0bd
00000200: db20 cbbc 1ced ed3b cb66 bfbc 8dfe 5e3d
00000210: e17b 6a3d b06f d7bc 3613 183d c993 4d3c
00000220: f4d1 36bd 932e d23d 5746 0ebd 7420 093d
00000230: aa8c b4bc 55df 2abd 73d0 b13b 40b3 b4bc
00000240: b05c 4d3d 1b67 513c 4445 923c 628e f0bc
00000250: da26 ebbb 8bcc 8e3d 3d24 12bc eeae 8abc
00000260: 88d9 6d3d 16a9 febc ae25 13bd 98af 0cbd
00000270: 0fbe 4cb8 21a3 06bd 6f07 1ebd b589 cebc
00000280: 8f73 db3d 5143 18bd d13c 9a3b 43db 353d
00000290: 5982 923d 2f8c 10bd a2cc 85bc ed1a c4bd
000002a0: f842 e0bc 06cc c33c ca80 943c 9ef7 993d
000002b0: 96d3 aebc 5515 39bd 0cd3 103c 41f9 e7bb
000002c0: efa2 75bc e38f 693d bf7a bd3b a574 c13c
000002d0: 8316 eabc 1303 69bc 9d1c 09bd 6839 efbc
000002e0: 7927 dabc 3852 383d 24e0 1dbd 1dbc a63d
000002f0: 6e25 1dbd 5de0 bcbc 89a0 183b 74fa 84bc
00000300: 36ed cd3d f84f e23e 2bc6 843d a726 0f3e
00000310: 6d7c 773d 756c e83d c931 f83d 2966 c93e
00000320: 82d0 d23d 6ded 253e 472e 753d a46a 383d
00000330: b8f0 673e 5abb 913d cb67 003e 84b3 b63e
00000340: e816 d8bd 8050 013d 1e17 883e f50b 273d
00000350: f15f 043f 564c 773e 02c4 27be bdd2 bb3d
00000360: 1a59 003f fea5 c23d d711 763e 87b3 683d
00000370: d663 1c3e 66f0 143e 9689 c53d e21a ff3c
00000380: 932d 5d3d 33b8 fd3d a73d 9a3b cbdb 713e
00000390: baa7 413e 3c82 9a3e fa25 0c3e ff6e 063e
000003a0: 97e7 b03d 1827 163d 57b9 8a3e 9198 183f
000003b0: fa52 6c3e c244 1f3e 983b 983d 6721 9c3e
000003c0: 5e96 ef3c e4ea 8d3e 52a0 2e3e f198 3ebd
000003d0: a359 b63c f503 323d a309 573d 6174 0bbc
000003e0: 0b0a 143d d4a4 d63d f6b6 993d 842e 313d
000003f0: 48d5 05bd a559 a53d 35d3 3bbe 3f88 cf3e
-0.014217163 0.034411542 -0.020646298 -0.0055331658 -0.027428035 0.006033333 -0.030846732 0.05506504
-0.03984999 -0.017264064 -0.028259018 0.009601677 0.0027690453 -0.04337179 0.032270852 0.09846813
0.0036917112 0.05028034 0.050479572 0.026251407 -0.003946809 0.0033686303 0.032363825 0.067290775
-0.028879868 0.05490309 -0.03525389 0.021586139 0.083388835 -0.028265174 -0.03244609 0.03356085
-0.008068409 -0.036856115 -0.009047307 0.07785845 0.017316356 0.017319417 -0.03925191 -0.04604349
0.07356467 0.058084566 -0.027181465 -0.0070601334 0.04192275 -0.03003519 0.1036204 -0.0277066
0.10120644 0.050918043 -0.024310725 0.025977843 -0.019743154 -0.01758378 -0.020035643 -0.018579815
-0.017302584 -0.014392515 -0.045269627 -0.019017829 -0.005351041 -0.023521129 -0.03526257 -0.028498571
-0.030834073 -0.025333056 -0.020863663 -0.029851697 -0.026678152 -0.024189219 -0.02518052 0.01107722
-0.02269369 -0.025506318 -0.026582183 -0.030525016 -0.020960573 -0.026943685 0.006174019 -0.021782333
0.03930644 0.027647039 0.06336763 -0.02026325 -0.0699607 -0.010607164 0.052639797 -0.029831411
-0.0498436 -0.019403294 0.04353534 -0.0685132 0.06376465 -0.0065045934 -0.040365934 -0.01807484
0.08237318 0.0048177335 -0.015301357 -0.056170847 -0.02509485 -0.05909685 -0.014912226 -0.09038305
-0.010603693 -0.022787197 -0.16192897 -0.013393958 -0.02239477 -0.011268827 0.0009137986 0.14509684
-0.059494656 0.047225 0.14361532 -0.03262449 -0.018208638 0.055028584 0.05087431 0.05636872
-0.0034250906 -0.028083881 0.019675108 -0.013761865 -0.032587815 -0.011536173 0.06736398 -0.078374244
-0.02479594 0.0072609317 -0.023364445 0.054441977 0.057247046 -0.026298374 0.037127696 0.012547442
-0.04463382 0.102627896 -0.03473505 0.033478215 -0.02203973 -0.041716892 0.0054264604 -0.02205813
0.05013722 0.01278093 0.017855294 -0.029364768 -0.0071762623 0.06972607 -0.008919773 -0.016929116
0.058068782 -0.031086486 -0.035924606 -0.034347147 -4.8814396e-05 -0.032870416 -0.038581308 -0.025212148
0.107154004 -0.037173573 0.004706957 0.044398557 0.07153768 -0.03528994 -0.016332928 -0.09575448
-0.027375683 0.023900997 0.018127818 0.07517932 -0.021341126 -0.04518636 0.00883938 -0.007079274
-0.01499246 0.057021987 0.0057824547 0.02361519 -0.028575188 -0.014221924 -0.033474553 -0.029202178
-0.02663015 0.045000285 -0.038543835 0.081413485 -0.038365774 -0.023056203 0.0023289046 -0.016232707
0.1005501 0.44201636 0.0648311 0.13979588 0.060421396 0.113488115 0.12118871 0.39335755
0.10293676 0.16203852 0.059858587 0.045023575 0.2265042 0.071158126 0.12539594 0.35683835
-0.10551244 0.03157091 0.26580137 0.040782887 0.51708895 0.24150214 -0.16383365 0.091710545
0.5013596 0.09504317 0.24030243 0.056811836 0.1527246 0.1454483 0.09645383 0.031140748
0.05399854 0.12388649 0.0047070566 0.23619 0.18911639 0.30177486 0.13686362 0.13128279
0.08637922 0.036658376 0.27094528 0.596078 0.23078528 0.15553573 0.074332416 0.30494234
0.029246505 0.2771827 0.17053345 -0.046532575 0.022259539 0.043460805 0.052499425 -0.008511634
0.03614239 0.10480657 0.075056 0.04325725 -0.032674104 0.08073739 -0.18342288 0.40533635

bias f4 [64]
00000000: 5608 1bbd c660 a139 6a23 17bd 55b0 603d
00000010: 932f 6cbc 0b76 c4bb 19ce c5bc 61ee bcbc
00000020: ea11 053d a0e5 2fbd a46a b33d 8091 24bd
00000030: 8156 de3b d105 cebc 4abb 92bb 4d92 1b3d
00000040: 7d46 af3b 68b3 85bb 876c 83bd 7079 c3bb
00000050: cc1e 0bbd 8a83 dabc 202d 3a3d d1ab 0b3c
00000060: 7890 45bd ebcb 743d 8a33 0d3e 82f7 a7bc
00000070: 2b37 093d 718a 48bd 2ebd 11bd 5591 6fbd
00000080: b8f7 cbbb 7fa6 a63d c801 11bd 26eb 903d
00000090: 00bb 9a3c b572 b13d 6767 2ebd 140d de3d
000000a0: 1c82 35bb 2822 233d 0445 143e 52dd 4c3d
000000b0: 67dc 883d 908c 35bc 621c 26bd b8d3 57bd
000000c0: a557 dabc 72a9 cf3c b05e 263d 0dd7 403d
000000d0: b56c e7bc 28af cc3c 6efd f8bc 6881 cbbc
000000e0: 4103 533d 4385 ffbb b413 e53b 020b 113c
000000f0: 519b c33d cabd 2ebc f423 28bd 076b 0fbc
-0.037849747 0.00030780415 -0.036899008 0.054855663 -0.014415639 -0.005995517 -0.024146127 -0.023062887
0.032487787 -0.042943597 0.087605745 -0.040177822 0.0067852144 -0.025149258 -0.004477893 0.03798132
0.005348979 -0.004080225 -0.06417184 -0.005965404 -0.033964917 -0.02667405 0.04545319 0.008524851
-0.04823348 0.059764784 0.13789192 -0.020503763 0.033499878 -0.048960153 -0.035580806 -0.05848821
-0.0062245987 0.08137225 -0.03540209 0.07076101 0.018887997 0.08664457 -0.04257908 0.10842338
-0.002769596 0.039827496 0.14479452 0.050015755 0.066826634 -0.011080876 -0.04055441 -0.052692145
-0.02665312 0.025349353 0.040617645 0.04708009 -0.028250078 0.024985865 -0.030394282 -0.02484198
0.051516775 -0.0077978685 0.006990874 0.008852722 0.09551109 -0.010665366 -0.041049913 -0.008753545

weight f4 [5, 64]
00000000: 7a54 b5bb b67b 713d b59b fcbb 2607 6a3d
00000010: 047d 16bc 226a 973d df06 1fbd 84b3 bc3d
00000020: 6f91 b0bc 547b 01bd 5b2e dfbb 86b7 00be
00000030: 4cc2 f23d 116a 37bd 8e97 173d 519f 6fbc
00000040: c7ab 863d 1b67 2fbc 102f e4bc e2c9 8dbc
00000050: 3e22 44bb 7221 bdbc 0eea e53d 8a47 893c
00000060: c2aa 983b dad4 a23d 3d18 ad3d 213c f9bc
00000070: 49ff 7e3d 42af 3ebc bab0 a9bc c402 a4bc
00000080: bce3 1b3d 01c4 e7bb 459a 9abc 4334 813e
00000090: 053b fabc 29ea 093e 9dd6 3cbc d6a8 a33d
000000a0: b89a ce3d d4bd 0fbc 150b 17bc 7cb8 8dbc
000000b0: fdfe 65b9 016f f33c f129 82bc a929 f63d
000000c0: ceac e5bd f91e 4d3d e796 c13d 3516 a0bc
000000d0: 076d 73bc 7a5e ec3d 63e2 87bd cbb6 84bc
000000e0: b5bd 7fbb ad9c bb3d 326e 8c3e 684a 003e
000000f0: 16ea 02bd 06f3 7cbd d222 8bbc 0b64 1e3d
00000100: af88 c83c 8fb3 0e3d a9bd e73d 5d94 263c
00000110: b7b9 c03b 4527 03bd eed9 9ebb 4cf8 633d
00000120: c938 5cbc ae1a 9d3d f583 9abc c412 2b3e
00000130: ca8d f33d 2628 88bc 0dec 8abc 5a97 a83c
00000140: c3c7 eebb 8833 7bbc 09cd a0bc cf7d 683b
00000150: 4ec5 1e3d 4dd0 bcbc c743 d33a 3e21 4abc
00000160: c416 47bb 1550 0f3e cfa1 a4bc d58c b8bc
00000170: c449 c43d 6829 563d 42da 1ebd ca70 193d
00000180: 4742 a93c e074 a9bc 00a3 48bc efab 533e
00000190: c589 96bc a50b 463d 3614 f13c d1b4 213b
000001a0: a701 db3d 5873 203c 69d7 3bbd 0c1e 94bc
000001b0: 877d ca3d 9579 f53d de33 8ebc ccf9 4d3e
000001c0: f25d 2fbb ee3e a4bc ff7a 1cba 2056 823c
000001d0: 3492 c03d 8351 e4bb 1d92 ce3b 43ab 9fbc
000001e0: e08f b1bc a4b3 5f3c ab25 c23c 584e 3d3e
000001f0: 4d75 b7bd defa 083e a706 3b3e 5df2 5fbc
00000200: 5030 bcba 926d 303d 5b7c b13d 4609 76bc
00000210: 11bf cdbc 1e6f fb3d f563 1b3d 1826 9e3d
00000220: 2bba babb e532 e03d f2e4 1dbc 7a3a 0f3e
00000230: 8a2e 14bc d2ee abbc 552b a9bc 225b 02bd
00000240: 2895 8a3d 21a6 753d cadb 0e38 a4f4 c73d
00000250: 5b50 803d 1119 65bc 27c1 833d 9c49 9c3c
00000260: 9c6b d73d 7e40 fa3c 59c8 adbc 0a83 fe3c
00000270: 94e6 58bc 5b96 86bc 155f 5e3d 037b 893d
00000280: 64b3 a3bc 7f48 aabc b414 b1bb df04 5d3e
00000290: d04c c93d 15c5 993d 5085 c2bc 4930 1abc
000002a0: c3f7 243c 67b2 223c 66c4 3ebd 47a0 663d
000002b0: da6a 9dbc 2f4f 88bc 4184 963a 76a6 973e
000002c0: 2301 6a3d 6274 c0bc 5bdd adbc 413b e53d
000002d0: efeb fe3b 6fd6 ce3c e5c8 193d 835d 9abc
000002e0: c395 00bd 3779 f63d 19ab dc3d 1dfd d83d
000002f0: 6694 f0bd 66c2 093d 2f63 96bb e21c 2e3d
00000300: 0a8c 943c 0bfb 353e 5ca6 703c b98c f33c
00000310: ad70 1cbd c2ab 603e 39c9 033e ef32 7fbd
00000320: a379 5e3d 3181 29bd 5ba2 ee3b e064 cabd
00000330: 4110 e63d b391 b23d fb72 0e3e e84a 853d
00000340: 4d83 2f3d bf48 2abd 17be 85bb d510 693d
00000350: 089f 8fbd a142 313d 0c34 adbc fa45 71bb
00000360: f818 53bd 24e7 1b3e b234 08bc 2c6d 0a3e
00000370: debf e93c f171 7ebd f467 7ebe 93f5 c7bb
00000380: 987a 073d f077 c0bc 33b2 c43d b483 303e
00000390: 863f 2bbd 2384 40bd b434 49bd ea2d 2dbb
000003a0: 64e4 133e 4d84 91bd 1d1b f2bc 7e5e 6a3d
000003b0: c2d7 5dbd 7fdb a83d b37f 25bd 8440 89bd
000003c0: 51f9 08be ece6 033d 506e 753c 845e da3d
000003d0: 3bef afbb 1273 003e 4362 40bc a5a5 e8ba
000003e0: d943 1bbb 5249 44bd e881 e73d 5151 4bbd
000003f0: 25b2 0abd 1209 923d 3948 8e3e 2142 733d
-0.005533752 0.05895587 -0.0077089914 0.057135724 -0.0091850795 0.0739329 -0.038824912 0.092139274
-0.021553723 -0.031611755 -0.006810946 -0.12570009 0.118534654 -0.044778887 0.03700977 -0.014625386
0.06575733 -0.010705735 -0.027854472 -0.01730818 -0.0029927636 -0.023087237 0.11226283 0.016757745
0.004659028 0.079507545 0.08451889 -0.03042418 0.062255178 -0.011638464 -0.020714153 -0.02002085
0.03805898 -0.007072926 -0.01887239 0.25235185 -0.03054572 0.13468231 -0.011525777 0.07991187
0.10088104 -0.008773286 -0.009218951 -0.017299883 -0.00021934132 0.029716017 -0.01588914 0.12019665
-0.112146005 0.050078366 0.094526105 -0.01954184 -0.014857537 0.115414575 -0.06634977 -0.016200444
-0.0039022986 0.09160743 0.27427822 0.12528384 -0.031961523 -0.061755203 -0.016984377 0.038669627
0.024479238 0.03483921 0.11315472 0.0101672085 0.005881514 -0.032019872 -0.0048477566 0.055656716
-0.013441273 0.07671104 -0.01886175 0.16706377 0.118922785 -0.016620707 -0.01695826 0.020579983
-0.007286997 -0.01533211 -0.019629018 0.0035475378 0.038762383 -0.023048544 0.0016118222 -0.012337027
-0.003037856 0.13995393 -0.020096688 -0.022528091 0.09584382 0.05228558 -0.038782366 0.03746108
0.020661486 -0.020685613 -0.0122458935 0.20671056 -0.01837624 0.04835095 0.029428583 0.0024674425
0.106936745 0.009793125 -0.045859728 -0.018080734 0.09887224 0.119860806 -0.017358717 0.20114821
-0.0026758877 -0.020049538 -0.00059692556 0.015910208 0.09402886 -0.0069677248 0.006304039 -0.019490844
-0.02167505 0.0136536695 0.023699602 0.18486917 -0.0895792 0.13376948 0.18264256 -0.013668624
-0.001435766 0.043073244 0.08666297 -0.015016859 -0.025115522 0.12277053 0.037937123 0.077221096
-0.0056984625 0.10947207 -0.009637104 0.13987151 -0.009044299 -0.020987902 -0.020650545 -0.031825192
0.067667305 0.059972886 3.4060133e-05 0.09763458 0.062653266 -0.013983027 0.06433325 0.019078068
0.10518572 0.03054833 -0.021213697 0.031068344 -0.013238568 -0.016429117 0.054289896 0.06712916
-0.019983001 -0.020786522 -0.0054040793 0.2158389 0.09829104 0.075082935 -0.023745209 -0.009410926
0.010068837 0.00993023 -0.04657402 0.056305196 -0.01921599 -0.01663932 0.0011483507 0.29619187
0.05712999 -0.023492996 -0.021223715 0.111929424 0.0077795903 0.025248734 0.037545104 -0.018843418
-0.031392824 0.12034839 0.10774822 0.105951525 -0.11747055 0.03363266 -0.0045894603 0.042508014
0.018133182 0.17771547 0.014688101 0.029730188 -0.038193393 0.2194052 0.12869729 -0.062304433
0.05431522 -0.041382972 0.007282538 -0.09882522 0.11233569 0.08719196 0.13911049 0.06508428
0.042849828 -0.041573282 -0.0040814984 0.056900818 -0.07012755 0.043276433 -0.021142982 -0.003681539
-0.051537484 0.15224892 -0.008313345 0.13518208 0.028533872 -0.06212038 -0.24844342 -0.006102273
0.0330759 -0.02349469 0.09604301 0.17237741 -0.041808628 -0.047001015 -0.049122527 -0.0026425072
0.14442593 -0.071053125 -0.029553944 0.05721902 -0.05416084 0.082449906 -0.040404987 -0.067017585
-0.13376357 0.032202646 0.014979914 0.10662559 -0.0053690947 0.12543896 -0.011742177 -0.0017749561
-0.0023691563 -0.047921486 0.113040745 -0.049638096 -0.033861298 0.07130636 0.27789477 0.059389237

bias f4 [5]
00000000: cb9a 103d 12a5 dbbc de68 a73c 84ce 103d
00000010: 2991 0c3e
0.035303872 -0.02681211 0.020435747 0.0353532 0.13727249
