digital_twin/pinn_7/model.pt (torch, 34671 bytes, 6 tensors)

weight f4 [80, 2]
0	0xbc7416b9	-0.014897996
1	0x3b2db18d	0.0026503534
2	0xbc448fcd	-0.011997175
3	0x3a2b777a	0.0006540936
4	0xbd29e4c5	-0.041477937
5	0x3eb6d082	0.35705954
6	0xbbcbaab0	-0.006215416
7	0x3beaeb2f	0.0071691494
8	0x3c5facc5	0.013652031
9	0xbd2fd041	-0.042923216
10	0x3e40fb71	0.18845917
11	0xbdb45e10	-0.088070035
12	0x3c70d3d8	0.014698945
13	0x3f6864b0	0.90778637
14	0xbc6c56cb	-0.01442499
15	0x3eba63be	0.36404222
16	0xbcb3bd4b	-0.021940848
17	0x3ed1d34d	0.40981522
18	0xbcaf2e88	-0.021384493
19	0x3f14eb21	0.5817128
20	0x3cdc040f	0.026857404
21	0xbcf83dda	-0.03030293
22	0xbc3186a9	-0.010835328
23	0x3e6022f3	0.21888332
24	0x3dc27bdb	0.0949628
25	0x3e96e742	0.2947331
26	0xbcb5b220	-0.022179663
27	0x3c944656	0.018099945
28	0x3c2c6b01	0.010523559
29	0xbcf04416	-0.02932934
30	0x3bd6a4ad	0.0065503926
31	0xbcbb30f4	-0.022850491
32	0x3d41c1aa	0.047303833
33	0xbd677f7e	-0.05651807
34	0x3ceee247	0.029160632
35	0x3e5f5340	0.21809101
36	0x3d1690e9	0.03675929
37	0xbc9af0f0	-0.018913716
38	0x3cfd6abf	0.03093469
39	0x3c86176d	0.016368592
40	0xbc7f5344	-0.015583817
41	0x3c711ce0	0.014716357
42	0x3cbe4841	0.023227813
43	0x3e146e07	0.14495097
44	0xbc854114	-0.016266383
45	0x3ea59d00	0.32346344
46	0xbbc2496c	-0.0059291627
47	0xbc7b7acb	-0.0153491
48	0x3d09975d	0.033591617
49	0x3f7c913a	0.986591
50	0x3d4d0a33	0.050058555
51	0x3f9e5da8	1.2372332
52	0xbac74b30	-0.0015204903
53	0x3ea9df6c	0.3317827
54	0x3ccce05f	0.025009332
55	0xbd65d44a	-0.056110658
56	0xbd09d1af	-0.033647235
57	0xbd8c51a3	-0.068515085
58	0xbbf64607	-0.007515672
59	0xbc0defeb	-0.008663158
60	0xbae10e27	-0.0017170355
61	0x3ed39a91	0.41328862
62	0x3cd51145	0.026009211
63	0x3d143f1e	0.036193006
64	0xbc17339c	-0.009228613
65	0x3b81fb2d	0.00396671
66	0x3cf44773	0.029819226
67	0x3c091031	0.008365677
68	0xbb8e1762	-0.0043362835
69	0xbcee42e6	-0.029084634
70	0xbcc42cb6	-0.023947101
71	0x3c0adfbb	0.008476193
72	0xbbb03da6	-0.005378443
73	0x3f27a3e3	0.65484446
74	0x3d35fa73	0.0444283
75	0xbd54390d	-0.05181222
76	0xbc9309e4	-0.017949052
77	0x3d82c0c1	0.06384421
78	0x3c1bee5f	0.009517281
79	0xbcb53b5d	-0.022123033
80	0xbc3d0886	-0.011537677
81	0x3eb0a88a	0.34503585
82	0xbcca6c4a	-0.02470984
83	0x3b883fc6	0.004157993
84	0x3d33f51b	0.043934923
85	0x3f8ae1ca	1.0850155
86	0x3c53e13c	0.012932118
87	0xbdb6dfd2	-0.08929409
88	0xbbd29dc6	-0.0064274995
89	0x3e60d2fb	0.21955483
90	0x3d1af084	0.03782703
91	0xbd388c3d	-0.045055617
92	0xbc311f25	-0.010810648
93	0xbc8969f5	-0.016774157
94	0x3d0395ec	0.0321254
95	0xbce8e7de	-0.028430875
96	0xbd0e313a	-0.034714915
97	0x3ed6074b	0.4180244
98	0x3c090270	0.008362398
99	0xbd22262d	-0.03958719
100	0x3d5f9b43	0.05459143
101	0x3f6d2a3f	0.9264259
102	0xbbe3eaa7	-0.006955463
103	0xbbe0067e	-0.0068367114
104	0x3d8b3928	0.06798011
105	0x3f2352ed	0.6379841
106	0x3c1da619	0.00962212
107	0xbd011c61	-0.031521205
108	0xbc51f1e3	-0.012814018
109	0x3ce6f0a0	0.02819091
110	0xbbcefd8b	-0.006316846
111	0xbc92b02b	-0.017906269
112	0xbbcf3acc	-0.006324148
113	0xbc206334	-0.009789277
114	0x3c2b3197	0.010448835
115	0x3eda3d28	0.42624784
116	0x3abee8db	0.0014565246
117	0xbbcae86b	-0.006192257
118	0x3cb77233	0.022393322
119	0x3c49016a	0.012268404
120	0xbcb2a1c9	-0.02180566
121	0x3e9de304	0.30837262
122	0x3d702544	0.05862929
123	0xbc2d5623	-0.010579619
124	0xbc17d75e	-0.009267656
125	0x3e3c88e1	0.1841159
126	0xbcd9619f	-0.026535807
127	0xbc48de99	-0.012260103
128	0x3c2c2207	0.01050616
129	0xbd85b82d	-0.06529269
130	0xbb480be3	-0.0030524663
131	0x3d846c83	0.064660095
132	0x3d055679	0.03255317
133	0xbc1ea239	-0.009682232
134	0xbbe53f88	-0.006996099
135	0x3ef4633f	0.4773197
136	0x3da8b566	0.08237724
137	0xbd890b6b	-0.06691631
138	0x3c1e3f57	0.009658656
139	0x3f849744	1.0358663
140	0xbcac79cd	-0.021054173
141	0x3efe65a1	0.49686912
142	0xbbd5a9b4	-0.0065204743
143	0xbc9027e3	-0.017597144
144	0x3c37eac5	0.011225407
145	0xbd06faae	-0.03295391
146	0xbbcb2ab3	-0.0062001585
147	0x3f55962d	0.83432275
148	0x3c34dc71	0.011038885
149	0xbd1a3b48	-0.03765419
150	0xbc68c23e	-0.014206467
151	0x3f073198	0.5281005
152	0x3de5999f	0.112109415
153	0x3f6d59b4	0.92715
154	0xbca06f66	-0.019584369
155	0x3e4d8b4d	0.2007267
156	0xbb294e0c	-0.0025833873
157	0x3dd1901e	0.10232566
158	0x3bdbc35b	0.006706638
159	0x3ed53a7c	0.41646183

bias f4 [80]
0	0x3f0421c1	0.51614004
1	0x3eb5bb87	0.35494635
2	0xbd903a10	-0.070423245
3	0x3bfde57f	0.0077483053
4	0xbd16469b	-0.03668843
5	0x3f3b86ad	0.73252374
6	0x3ed7aa4b	0.4212211
7	0xbe22b213	-0.15888242
8	0x3ebdf69a	0.37102205
9	0xbd5ff32c	-0.054675266
10	0xbe4ae276	-0.1981295
11	0x3c58c098	0.013229512
12	0x3ed504f1	0.41605332
13	0x3f1cd381	0.6126023
14	0x3e9dc888	0.30817056
15	0x3f2c15f7	0.67221016
16	0xbd385f16	-0.045012556
17	0x3d61bd59	0.055112217
18	0xbe2c2e7a	-0.16814604
19	0xbe37e8e8	-0.1795994
20	0x3d200081	0.03906298
21	0x3f0c3fc9	0.5478483
22	0xbcc1ae8b	-0.023642799
23	0x3eba5e2b	0.3639997
24	0x3f061c41	0.5238686
25	0x3f068787	0.5255055
26	0x3e82d5f4	0.25553858
27	0xbde67eab	-0.11254629
28	0x3f3a4c8e	0.72773063
29	0x3c289dde	0.010291545
30	0x3dfcc258	0.12341756
31	0xbdf7fcc7	-0.1210876
32	0xbbf96dce	-0.0076119667
33	0xbd92b405	-0.07163242
34	0x3ea31204	0.31849682
35	0x3f1254fa	0.57160914
36	0xbf347696	-0.7049345
37	0xbda300b5	-0.07959119
38	0x3ad200cd	0.0016021967
39	0x3f09c204	0.5381167
40	0xbd3d521b	-0.04622088
41	0x3f31ba8d	0.6942528
42	0x3ed6f873	0.41986427
43	0x3f0d1554	0.5511067
44	0x3f37a7e1	0.7174054
45	0x3ec07ba4	0.3759433
46	0x3edce6ba	0.4314478
47	0x3e4765fb	0.19472496
48	0xbec1ad6a	-0.37827617
49	0xbd87a0a3	-0.06622436
50	0x3f77944d	0.96710664
51	0x3c819c88	0.01582171
52	0x3dabdcfc	0.08391759
53	0x3ec314f3	0.3810192
54	0x3cbdbb93	0.023160731
55	0xbbb29f6f	-0.005451135
56	0x3b994ee3	0.0046785935
57	0xbe6e290d	-0.23257847
58	0xbcea46b3	-0.028598165
59	0x3d8b5482	0.06803228
60	0x3c8b0b19	0.016973065
61	0xbd6243d8	-0.055240482
62	0x3d8ec660	0.06971431
63	0x3f489d84	0.7836535
64	0xbd89165c	-0.06693718
65	0x3f1ebaba	0.6200367
66	0x3dc95c86	0.098321006
67	0x3f5290f3	0.82252425
68	0x3da4c795	0.0804588
69	0x3ea9784c	0.33099592
70	0x3dd80a0c	0.10548791
71	0x3c83af4d	0.0160748
72	0xbd47403e	-0.04864525
73	0x3f1a5b07	0.60295147
74	0x3ea06465	0.31326595
75	0xbdf8de22	-0.121517435
76	0x3f4e5b67	0.8060822
77	0x3d1630b1	0.03666753
78	0x3eee5df8	0.46556067
79	0x3d97ce78	0.07412428

weight f4 [80, 80]
0	0xbc73f405	-0.014889722
1	0xbc46704f	-0.012111737
2	0xbca21022	-0.019783083
3	0x3d13ddc0	0.03610015
4	0xbd0620a1	-0.03274596
5	0xbb3f118d	-0.0029154748
6	0xbcf3a226	-0.029740404
7	0xbd01a0ae	-0.031647377
8	0xbcc4d2fc	-0.024026386
9	0xbc93d32e	-0.018045034
10	0x3d047e05	0.032346744
11	0xbcf140eb	-0.0294499
12	0x3d18b91f	0.03728592
13	0x3db3e217	0.087833576
14	0xbd1a6f7d	-0.03770398
15	0xbc89cd26	-0.016821455
16	0x3d058fce	0.032607846
17	0xbc95074f	-0.018191962
18	0xbc478e62	-0.012179943
19	0x3cdbf3b7	0.02684961
20	0x3db41e5c	0.08794853
21	0xbcdf1ef8	-0.027236447
22	0xbca53d46	-0.020170819
23	0xbc6b3ceb	-0.014357786
24	0xbbde022c	-0.0067751613
25	0xbd03c32e	-0.03216856
26	0xbccfce0b	-0.025366804
27	0xbcb1b38b	-0.021692058
28	0xbca90e61	-0.02063674
29	0x3d138e28	0.036024243
30	0xba41fb91	-0.0007399852
31	0x3d861e70	0.06548774
32	0x3d869344	0.065710574
33	0x3daa1e29	0.08306534
34	0x3db81d69	0.089899845
35	0x3acac7c1	0.0015470908
36	0x3d29fe97	0.04150256
37	0x3d21a227	0.03946128
38	0x3cb5b552	0.022181187
39	0x3d4cdafb	0.050013524
40	0xbc2356bb	-0.009969409
41	0x3da1f9f8	0.07909006
42	0xbc8aaad9	-0.01692717
43	0xbd0f7cd4	-0.035031155
44	0xbcd61fc2	-0.02613819
45	0x3d68ec71	0.056866113
46	0x3a4413df	0.00074797677
47	0x3c40d672	0.011769878
48	0x3c9cbce0	0.019133031
49	0xbcfbe6c7	-0.030749692
50	0xbce81686	-0.028331053
51	0x3d157685	0.036489982
52	0xbd067357	-0.03282484
53	0x3d16313b	0.036668044
54	0x3d090a8b	0.03345732
55	0x3cf236c3	0.029567128
56	0x3d0fe41a	0.035129644
57	0xbc43b46e	-0.011944873
58	0x3e0796fb	0.13241188
59	0x3d6a365c	0.057180747
60	0xbd0ca9e2	-0.0343417
61	0x3c788660	0.015168756
62	0x3d9a0ed6	0.07522361
63	0x3c9af7c2	0.018916968
64	0xbd0231b4	-0.03178568
65	0x3c472628	0.012155093
66	0x3cb83318	0.0224853
67	0xbca79117	-0.020454926
68	0x3ccb7685	0.024836788
69	0xbcbb4c69	-0.022863584
70	0xbb3ada57	-0.0028511488
71	0x3d11f556	0.03563436
72	0x3d97d6a3	0.074139856
73	0xbb1a6b4c	-0.002356249
74	0xbd05dd15	-0.032681543
75	0x3d485ea0	0.048918366
76	0xbc0b5c67	-0.008505917
77	0x3cd93293	0.026513373
78	0xbd4354ff	-0.04768848
79	0x3c826742	0.015918378
80	0x3c37637d	0.011193153
81	0x3da45f52	0.080259934
82	0x3d0821c1	0.033235315
83	0x3c35caaa	0.011095682
84	0x3d1a1ea8	0.037626892
85	0xbb8ae081	-0.0042381887
86	0x3d50c9b1	0.050973598
87	0xbcc59449	-0.02411856
88	0xbce176cb	-0.027522465
89	0x3d948a2b	0.07252916
90	0x3a2ca5c1	0.00065859786
91	0xbbf0bd18	-0.0073467605
92	0xbc3889ef	-0.011263355
93	0xbc72f76c	-0.014829498
94	0xbca64f03	-0.020301348
95	0xbccaef19	-0.024772214
96	0x3db14a86	0.08656792
97	0x3dc36837	0.09541362
98	0xbca4129e	-0.020028409
99	0x3bb092d3	0.0053885966
100	0x3dd7681c	0.10517904
101	0x3b059859	0.0020384996
102	0x3cb78213	0.022400891
103	0x3d54beac	0.05193965
104	0x3ccc808a	0.024963636
105	0xbcc8d022	-0.024513308
106	0xbc9ab9f1	-0.018887492
107	0xbcd53983	-0.0260284
108	0xbd0123d9	-0.031528328
109	0x3c75cbb3	0.015002179
110	0xbcae5fd3	-0.021285927
111	0x3d53acc3	0.05167843
112	0x3d0cae38	0.034345835
113	0xbca2761b	-0.019831708
114	0xbca4ca33	-0.020115947
115	0x3c7d1390	0.015446559
116	0xbd29584b	-0.04134397
117	0x39fe4229	0.00048495948
118	0x3c8e7b11	0.017392667
119	0xbc455c23	-0.012045893
120	0xbc8bcb41	-0.017064692
121	0xbcb77f86	-0.022399675
122	0xbcac1728	-0.021007136
123	0x3c9b1ea1	0.018935503
124	0xbbc1b29d	-0.005911185
125	0xbc8ead9e	-0.017416772
126	0xbd0b3cd8	-0.033993572
127	0xbcbe9b9d	-0.023267562
128	0x3c8b3909	0.01699497
129	0x3c8dcb5f	0.017308889
130	0x3da07b35	0.07836
131	0x3daea9ff	0.08528518
132	0x3daedf7f	0.08538722
133	0xbcca84cf	-0.024721531
134	0x3c1f8d84	0.00973833
135	0x3cd785fa	0.026309002
136	0x3d88c425	0.066780366
137	0x3cda2008	0.026626602
138	0x3c3a82b1	0.011383698
139	0x3d874126	0.06604223
140	0xbcda17cf	-0.026622681
141	0x3c298ce9	0.010348537
142	0xbcba7359	-0.02276008
143	0xbcc4de91	-0.02403191
144	0x3d86c185	0.0657988
145	0x3e05510d	0.130192
146	0x3cb08619	0.021548318
147	0x3d68b1c3	0.05681015
148	0xbc492632	-0.012277173
149	0xbcc5e419	-0.024156617
150	0xbc48ba6d	-0.012251479
151	0x3ddea084	0.1087046
152	0x3ccd314a	0.025047917
153	0xbc8d32e9	-0.01723619
154	0xbcc5ff5f	-0.024169622
155	0x3d038e5a	0.03211818
156	0xbccafbe1	-0.024778308
157	0xbcb22926	-0.021748137
158	0xbc4e55e0	-0.012593716
159	0xbc0fcdf2	-0.0087771285
160	0x3cae4a41	0.021275641
161	0xbb21a325	-0.0024663892
162	0xbacc785d	-0.0015599836
163	0x3d3ee85a	0.046608306
164	0x3cd9bb93	0.0265787
165	0x3d5a161e	0.05324375
166	0xbc83785f	-0.016048608
167	0x3ce190d2	0.027534876
168	0x3c0c7b83	0.008574369
169	0xbc8c44c1	-0.017122628
170	0xbc62f0c0	-0.013851345
171	0x3dd42897	0.103593044
172	0xbc591d7e	-0.01325166
173	0xbc2edf65	-0.010673379
174	0xbc6e19a2	-0.0145324785
175	0xbc98e280	-0.018662691
176	0xbc7ce315	-0.015435
177	0xbc8d2337	-0.017228706
178	0x3d267cbe	0.040646307
179	0xbc7abda3	-0.015304002
180	0x3c442664	0.011972044
181	0x3d016559	0.031590793
182	0x3ce78da5	0.028265784
183	0xba8ba8d0	-0.0010655168
184	0xbc84d74f	-0.016215948
185	0x3b27acf1	0.002558526
186	0xbc8e05c5	-0.017336736
187	0x3d8320ff	0.06402778
188	0xbc364dda	-0.01112696
189	0x3c3b1c29	0.011420288
190	0x3daaa20f	0.083316915
191	0xbc69c33b	-0.014267738
192	0x3c3ed196	0.011646649
193	0x3db06c01	0.0861435
194	0xbacfe1d6	-0.0015860151
195	0xbc3fc4f5	-0.011704673
196	0x3d59b7e6	0.053153895
197	0xbc747c88	-0.014922269
198	0x3d7ab7c6	0.061210416
199	0x3cf4fbbc	0.029905193
200	0xbca14db9	-0.019690381
201	0xbc3c021f	-0.011475115
202	0xbc5ab8a1	-0.013349683
203	0xbc9deaf8	-0.01927708
204	0xbd1e551e	-0.038655393
205	0xbc79a94d	-0.015238118
206	0x3b719aac	0.0036865873
207	0xbc881053	-0.016609346
208	0xbca9d5c8	-0.020731822
209	0xbc120e49	-0.008914539
210	0xbc829681	-0.015940906
211	0x3d0719be	0.032983534
212	0x3bcfdfd0	0.006343819
213	0x3dbfd9be	0.09367703
214	0x3c546f98	0.012966059
215	0xbca3e37f	-0.02000594
216	0x3c580505	0.0131847905
217	0xbc91916a	-0.017769534
218	0xbc062131	-0.008186624
219	0xbb397e9f	-0.0028304232
220	0x3cefe00d	0.02928164
221	0xbb9b78d8	-0.0047446303
222	0x3c88e0dc	0.016708784
223	0x3b458f2c	0.0030145152
224	0xbc7608c2	-0.015016736
225	0xbd3b1568	-0.04567471
226	0x3c22def4	0.0099408515
227	0x3ca8d07a	0.020607222
228	0xbc9e7b83	-0.019346004
229	0x3d85cdf9	0.06533427
230	0xbd018f05	-0.031630535
231	0x3d395c22	0.04525388
232	0xbc799542	-0.01523334
233	0x3d379c74	0.04482694
234	0x3d90318e	0.07040702
235	0x3d6d4cf9	0.057934735
236	0x3cd8c010	0.02645877
237	0xbbec5a1d	-0.007212891
238	0xbca34eca	-0.01993503
239	0xbc8a1e9a	-0.016860295
240	0xbcc1b180	-0.023644209
241	0xbccbd16a	-0.02488013
242	0x3ca0b5aa	0.019617874
243	0x3d9ec18c	0.0775176
244	0xbc5bf8dd	-0.013426033
245	0x3ba47576	0.0050188852
246	0xbd0db006	-0.034591697
247	0xbcf37062	-0.029716674
248	0xbcebbe4f	-0.02877727
249	0x3d1db6ca	0.0385044
250	0xbc3a5553	-0.011372882
251	0x3c81e203	0.015854841
252	0x3d7b2e7d	0.06132363
253	0xbd1c0b5b	-0.038096767
254	0xbcebdaac	-0.028790794
255	0x3cd18e0a	0.025580425

bias f4 [80]
0	0x3d2ae03c	0.041717753
1	0x3dafbea6	0.08581285
2	0xbc87c412	-0.016572986
3	0xbd2733c7	-0.040820863
4	0x3d068fb2	0.032851882
5	0x3d6a1fd7	0.05715927
6	0x3dcb3017	0.09921282
7	0xbce79519	-0.028269337
8	0x3a77f5ab	0.00094589096
9	0xbc143d8e	-0.009047879
10	0xbc55d66b	-0.0130516095
11	0x3c7e66af	0.015527411
12	0x3ccaf927	0.024777008
13	0xbcbebab4	-0.023282386
14	0xbcf21ad0	-0.0295538
15	0xbc34235e	-0.01099476
16	0xbccc7a14	-0.024960555
17	0x3d05f649	0.03270558
18	0x3cd8d168	0.02646704
19	0xbca3aa18	-0.019978568
20	0xbc86962c	-0.01642903
21	0x3d8d47ff	0.06898498
22	0x3bdc2f50	0.0067195073
23	0xbc53da8b	-0.012930523
24	0xbcc2a9a7	-0.023762537
25	0x3cdfc7f1	0.02731702
26	0xbc39c5fe	-0.011338709
27	0xbc84ed03	-0.016226297
28	0x3c6f57c9	0.014608332
29	0xbba778df	-0.0051108445
30	0xbcd45905	-0.025921354
31	0xbd285533	-0.041096877
32	0x3d4be7e8	0.04978171
33	0x3d208c22	0.03919614
34	0xbcb565a0	-0.022143185
35	0xbcb48e35	-0.022040466
36	0xbccc1fd8	-0.024917528
37	0x3d1007dc	0.035163745
38	0x3c88f642	0.016718987
39	0x3dcdff09	0.1005841
40	0xbcd89424	-0.026437826
41	0xbd0a18e9	-0.033715162
42	0x3cdc111a	0.026863623
43	0xb9b0f8a0	-0.00033754576
44	0xbd23df22	-0.040007718
45	0x3d9143c5	0.07093004
46	0xbcfe2c76	-0.03102706
47	0xbca6e914	-0.020374812
48	0xbc82db1e	-0.015973624
49	0xbc99a6fd	-0.018756384
50	0xbcefc072	-0.02926657
51	0x3d3d0d36	0.046155177
52	0x3c927e5a	0.017882515
53	0x3cb1fa3a	0.021725763
54	0x39e48ed8	0.00043593976
55	0xbce7c59e	-0.028292473
56	0xbca0b87b	-0.019619217
57	0xbc81c39b	-0.015840342
58	0xbd17d8e0	-0.037072062
59	0xbcac75f6	-0.021052342
60	0xbca852d9	-0.020547317
61	0x3d593b74	0.053035215
62	0x3d690e29	0.05689827
63	0x3b980003	0.0046386733
64	0xbcf42246	-0.0298015
65	0x3d9e974d	0.07743702
66	0x3d062958	0.032754272
67	0xbca49ea2	-0.020095173
68	0x3c897eb7	0.016784055
69	0x3cc2286d	0.023700917
70	0x3d632eb1	0.05546445
71	0xbca25984	-0.019818075
72	0x3d9486b3	0.07252254
73	0x3d6acfe3	0.057327162
74	0x3c2605cd	0.010133219
75	0xbc6fb08a	-0.014629493
76	0x3de592a2	0.112096086
77	0xbc9df968	-0.019283965
78	0xbd06f9b1	-0.032952968
79	0x3d6bfe64	0.057615653

weight f4 [5, 80]
0	0xbc5c8be3	-0.013461086
1	0xbd02be82	-0.031919964
2	0x3c6c5eb6	0.014426878
3	0xbc987e85	-0.018615017
4	0xbce424fb	-0.027849665
5	0xbc383e0f	-0.011245265
6	0x3d20d999	0.039270017
7	0xbc92e1cd	-0.017929936
8	0x3d558ca8	0.052136093
9	0x3d7366a0	0.059424043
10	0x3db81486	0.089882895
11	0xbc981c03	-0.018568045
12	0xbd8b9eef	-0.068174236
13	0xbc842c68	-0.016134456
14	0x3cbf3dc3	0.02334488
15	0x3c4e3c5d	0.012587634
16	0xbc25d507	-0.01012159
17	0xbc6dce06	-0.014514452
18	0x3dad5691	0.08463777
19	0xbc1ef747	-0.00970251
20	0x3d7d118a	0.061784305
21	0xbd509d16	-0.05093106
22	0x3d2733e7	0.040820982
23	0xbc9c19f3	-0.019055342
24	0x3d5394d9	0.051655624
25	0x3d813389	0.06308658
26	0x3db73201	0.08945084
27	0xbdfa04ab	-0.122079216
28	0xbb9549fe	-0.0045559397
29	0x3d292f2a	0.041304745
30	0xbe1aef6c	-0.15130395
31	0xbc40b22f	-0.011761232
32	0x3bdac939	0.0066768196
33	0x3d45972d	0.048239876
34	0xbb8359b6	-0.004008497
35	0xbc8eb2b9	-0.017419206
36	0xbcbb81d3	-0.022889053
37	0xbd670456	-0.05640062
38	0x3d8eec64	0.06978682
39	0x3d3a3fec	0.045471117
40	0xbd09cde0	-0.033643603
41	0xbc6d670e	-0.014489902
42	0xbc4cdfbe	-0.012504516
43	0x3e2404c7	0.16017447
44	0xbc5df65a	-0.013547504
45	0xbc37ded7	-0.011222563
46	0xbcc7b491	-0.024378093
47	0xbc750172	-0.014953958
48	0x3c49f031	0.0123253325
49	0xbc2ae803	-0.0104312925
50	0x3d1ab1d7	0.037767258
51	0xbc617a4f	-0.013762071
52	0x3b2f136e	0.0026714462
53	0x3ba9af6b	0.005178382
54	0x3db0e114	0.0863668
55	0xbcb40e5e	-0.021979507
56	0xbc9c70da	-0.01909678
57	0x3d68a2dc	0.05679594
58	0xbca8a3f3	-0.02058599
59	0xbc34fbcc	-0.011046361
60	0xbcf0fe9c	-0.029418282
61	0x3c4d524c	0.012531828
62	0x3cf27977	0.029598935
63	0x3d6dc3b1	0.058047954
64	0xbcb2900c	-0.021797203
65	0x3d9d68e2	0.076860204
66	0x3ac78502	0.0015222135
67	0xbc876e78	-0.016532168
68	0xbc2f5e88	-0.01070369
69	0xbcca5b2c	-0.024701677
70	0xba86a9da	-0.0010274008
71	0xbc5e6a02	-0.013575079
72	0x3c0ec83c	0.008714732
73	0x3de6004a	0.11230524
74	0x3d57166c	0.052511618
75	0x3c059846	0.008153981
76	0x3a69c135	0.0008917035
77	0x3dfcad0e	0.12337695
78	0xbc626616	-0.0138182845
79	0xbce08cc4	-0.027410872
80	0x3c70ca8e	0.01469673
81	0x3b1a6730	0.002356004
82	0x3cce3da5	0.025175879
83	0x3da7da49	0.081959315
84	0x3cb8fa49	0.022580283
85	0x3d51157e	0.051045887
86	0xbcbbd7b8	-0.022930011
87	0x3c32fd82	0.010924699
88	0xbb68919d	-0.0035487183
89	0x3a4645e6	0.0007563516
90	0x3b53dfbb	0.0032329399
91	0xbc94e378	-0.018174872
92	0xbcd500b1	-0.026001306
93	0x3c94fef6	0.018187981
94	0x3dd69389	0.10477359
95	0x3c99ce53	0.01877514
96	0xbcc43e35	-0.023955444
97	0x3d8b4303	0.06799891
98	0xbcc247a3	-0.0237158
99	0xbc603225	-0.01368383
100	0x3d07bb23	0.03313745
101	0xbcd99456	-0.02655999
102	0xbc98161c	-0.01856523
103	0xbb0cbafe	-0.002147376
104	0x3d2127ea	0.039344706
105	0xbc82e136	-0.01597653
106	0x3cd11d15	0.025526563
107	0xbc89df7e	-0.016830202
108	0xbb4264a2	-0.0029662033
109	0x3d966582	0.0734358
110	0xbdbcbd99	-0.092158504
111	0x3da9bdb9	0.0828814
112	0xbc74162b	-0.014897863
113	0x3c4b8727	0.01242236
114	0x3d1d399a	0.03838501
115	0xbc9c5093	-0.01908139
116	0x3dd219cc	0.102588266
117	0x3da89b7a	0.0823278
118	0x3d8aefa5	0.0678399
119	0xbcbcd41b	-0.023050359
120	0x3c675416	0.014119169
121	0xbc33f368	-0.010983326
122	0x3d41522c	0.047197506
123	0x3d9ec715	0.07752816
124	0xbbbf7259	-0.0058424887
125	0xbcc325c0	-0.023821712
126	0x3d9b0dec	0.07571015
127	0xbc7d500b	-0.015460978
128	0xbc77ebc8	-0.015131898
129	0xbc32a6f9	-0.010904067
130	0x3d28372b	0.041068237
131	0x3ca73790	0.020412236
132	0x3d3fb8ad	0.04680698
133	0xbce3810a	-0.027771492
134	0x38ba0d12	8.871606e-05
135	0xbc300bc5	-0.010744994
136	0xbbe55e0c	-0.0069997367
137	0x3cba063d	0.022708053
138	0x3d4154ef	0.04720014
139	0xbc8d326b	-0.017235955
140	0xbc95fb81	-0.018308403
141	0xbca4d261	-0.020119848
142	0xbbc21109	-0.005922441
143	0xbc991659	-0.018687414
144	0xbc974723	-0.018466538
145	0x3dde02d2	0.10840382
146	0xbc864f9c	-0.016395383
147	0x3cc8ef08	0.024528041
148	0xbc97b06f	-0.018516747
149	0xbcdd92d8	-0.02704756
150	0x3dcad961	0.09904743
151	0x3d8be5d6	0.06830947
152	0xbc8225f6	-0.015887242
153	0xbc3a7d11	-0.011382357
154	0x3d593ee5	0.053038497
155	0x3c53818e	0.012909306
156	0xbc989ddb	-0.018629959
157	0x3e210c65	0.15727384
158	0x3d0bb08f	0.034103926
159	0x3d8ec4b7	0.06971114
160	0xbc325b6a	-0.010886053
161	0x3d1388d0	0.036019146
162	0x3caf5795	0.021404067
163	0xbc5e2615	-0.013558884
164	0x3d3c2d7a	0.045941807
165	0xbc5b4b89	-0.013384708
166	0xbd1d5b7f	-0.038417336
167	0xbca9a968	-0.020710662
168	0xbd25b0c9	-0.0404518
169	0x3d9a3a7b	0.075306855
170	0x3d4bc963	0.049752604
171	0xbc7538b3	-0.014967131
172	0xbc21ea74	-0.009882558
173	0x3c24f56d	0.01006828
174	0x3e27b264	0.16376644
175	0x3c37b091	0.01121153
176	0xbca3e3e3	-0.020006126
177	0xba8309f5	-0.0009997474
178	0xbcb2a0fd	-0.02180528
179	0xbc1b2c1a	-0.009470964
180	0xbc936289	-0.017991321
181	0xbade9927	-0.0016982899
182	0xbc36d48c	-0.011159074
183	0xbcdbcc92	-0.026830945
184	0xbd0fc973	-0.035104226
185	0xbc8b7f40	-0.017028451
186	0xbd1f58de	-0.03890311
187	0x3d1fa653	0.03897698
188	0x3ab18c96	0.0013545926
189	0x3aca242b	0.0015422156
190	0xbd549958	-0.051904052
191	0xbc715b3a	-0.014731223
192	0xbcbccb9e	-0.023046311
193	0xbd38e6f1	-0.045142118
194	0xbc085f6e	-0.008323533
195	0xbc8ef0ee	-0.017448869
196	0x3e0ed4d1	0.1394837
197	0x3d0e3762	0.034720786
198	0x3b286418	0.0025694426
199	0x3d8e8d51	0.06960548
200	0x3d8e9588	0.069621146
201	0x3d9e5d21	0.07732607
202	0xbcc82840	-0.024433255
203	0x3d05b770	0.032645643
204	0x3daf98c1	0.08574057
205	0xbc8ccc9a	-0.017187405
206	0x3d04e389	0.032443557
207	0xbc77132c	-0.0150802545
208	0xbc56df12	-0.013114708
209	0xba9751df	-0.0011544785
210	0xba668130	-0.0008793054
211	0x3d439016	0.047744833
212	0xbc98c196	-0.018646996
213	0xbd2bf4c9	-0.041981492
214	0x3ca8dc0c	0.020612739
215	0xbc6dd189	-0.014515289
216	0xbc53d951	-0.01293023
217	0x3d99a95d	0.075030066
218	0x3de04469	0.10950548
219	0xbc0d1048	-0.008609839
220	0xbc0259e2	-0.007956
221	0x3d9427a5	0.07234124
222	0x3d5216c0	0.051291227
223	0xbcc38cc3	-0.023870831
224	0x3c10500a	0.008808145
225	0x3d81780e	0.06321727
226	0xbcb645f1	-0.022250148
227	0xbc104425	-0.008805309
228	0xbc623a7a	-0.013807887
229	0xbc6e53a4	-0.014546309
230	0x3cb3967d	0.021922344
231	0xbc9c815a	-0.019104648
232	0xbb1df138	-0.0024100076
233	0xbce1ad9f	-0.02754861
234	0xbc490a7f	-0.012270569
235	0x3bc72c10	0.0060782507
236	0xbcbf16e8	-0.023326352
237	0x3d98c671	0.07459725
238	0x3d1a5339	0.037677024
239	0x3d9a3a84	0.07530692
240	0x35985777	1.1350338e-06
241	0x3d52bbd4	0.051448658
242	0x3cf3ed14	0.029776134
243	0xbcbcfa3b	-0.023068538
244	0xbcab6862	-0.020923797
245	0x3d71823b	0.058962088
246	0xbc1446f1	-0.009050117
247	0x3db75081	0.08950902
248	0xbd0faf0e	-0.035079055
249	0xbcd2f121	-0.025749745
250	0xbcc15fc6	-0.023605239
251	0xbc4970ad	-0.01229493
252	0x3bec3fd4	0.0072097573
253	0x3d4a3526	0.049367093
254	0xbc8531ee	-0.01625916
255	0x3bc6bbb2	0.0060648555

bias f4 [5]
0	0x3d4e0799	0.050300214
1	0x3d8d33f5	0.06894676
2	0xbcabfe7c	-0.020995371
3	0x3da0fe3b	0.078609906
4	0x3c93a360	0.01802224
