digital_twin/pinn_0/model.pt (torch, 29856 bytes, 8 tensors)

weight f4 [50, 2]
0.09326202 -0.049127657 0.050760906 0.11898549 -0.036119085 0.41208723 0.0067447196 -0.0075980723
0.10933749 0.05527383 0.01834374 0.2318069 0.001818583 0.25506112 0.012103674 0.18382284
0.00051600294 0.14581315 -0.011805338 0.49559203 0.0051138457 0.004651888 0.0014126769 0.123355694
-0.018851236 0.51672715 0.0065361345 -0.0112959705 3.2777672 0.0056865234 0.098832145 0.12842537
0.0051552528 0.0035127623 0.0066448334 0.16283648 0.050641272 -0.18355507 0.005434821 -0.0002415249
0.008763038 -0.021933798 0.03737913 0.2357125 0.02060944 0.3770583 0.005276886 0.0043247887
-0.033079576 0.5426001 0.04028375 0.51629704 0.029803671 0.54299974 0.0056670327 0.0021818387
0.05296558 0.037900966 0.0052572107 0.0022270123 -0.037384383 0.87651974 -0.058127675 -0.12718217
-0.003840436 -0.046396937 0.0054380507 0.0024761683 0.0056289677 0.002676215 0.43310672 -0.09491256
0.0011005608 0.24289 0.004944156 0.0050040027 0.0027974076 0.0431866 -0.00287815 -0.0914282
0.001154326 0.36261427 0.09653498 0.15703396 -0.017259993 0.8397543 0.0064341025 -0.005537206
0.016465927 0.32115662 0.010389436 0.13891596 0.0047188015 0.006257343 -0.04338757 0.057312053
0.018930217 0.287191 0.002924131 0.04461744
00000000: 2800 bf3d 153a 49bd abea 4f3d aaae f33d
00000010: 9bf1 13bd 19fd d23e cf02 dd3b 40f9 f8bb
00000020: 55ec df3d d066 623d 9c45 963c ca5e 6d3e
00000030: 855d ee3a 5f97 823e 7d4e 463c 0e3c 3c3e
00000040: 5f44 073a 0b50 153e 2d6b 41bc 3dbe fd3e
00000050: 0c92 a73b dd6e 983b 9229 b93a e9a1 fc3d
00000060: e86d 9abc 3b48 043f 122d d63b bc12 39bc
00000070: f0c6 5140 0456 ba3b 8268 ca3d f181 033e
00000080: 65ed a83b 5f36 663b e7bc d93b 9bbe 263e
00000090: 396d 4f3d dcf5 3bbe 9516 b23b d941 7db9
000000a0: d892 0f3c 82ae b3bc dc1a 193d 9e5e 713e
000000b0: 21d5 a83c c90d c13e bae9 ac3b f5b6 8d3b
000000c0: 737e 07bd d7e7 0a3f 9300 253d 0b2c 043f
000000d0: d426 f43c 0802 0b3f 84b2 b93b 2efd 0e3b
000000e0: 70f2 583d 0b3e 1b3d ae44 ac3b 11f3 113b
000000f0: 5e20 19bd 9963 603f 4917 6ebd 0b3c 02be
00000100: d3af 7bbb b70a 3ebd ad31 b23b 3647 223b
00000110: 3473 b83b 7063 2f3b 2ac0 dd3e 8461 c2bd
00000120: b140 903a 28b8 783e 9602 a23b 9ef8 a33b
00000130: b654 373b 6fe4 303d 589f 3cbb b53e bbbd
00000140: c14c 973a 94a8 b93e 22b4 c53d 83cd 203e
00000150: d464 8dbc 23fa 563f 2ad5 d23b 7371 b5bb
00000160: 8de3 863c a46e a43e 7438 2a3c fc3f 0e3e
00000170: 2da0 9a3b 660a cd3b 2ab7 31bd 0bc0 6a3d
00000180: 8b13 9b3c b30a 933e c7a2 3f3b c7c0 363d

bias f4 [50]
0.12394909 0.39119524 -0.03403508 -0.11787311 0.5645843 0.7599801 -0.0366116 -0.22139347
-0.21119832 -0.15389803 -0.11256232 -0.19059621 -0.11296641 -0.1151993 0.6688964 0.7830736
-0.111972846 -0.2168458 0.08870797 -0.10976528 -0.09544755 0.21523654 0.6655465 -0.10622235
-0.07355291 0.022267904 -0.1960003 -0.10477729 0.5415838 -0.10877854 -0.029419055 -0.092353895
0.28356528 -0.099149615 -0.100356035 0.35831147 -0.30535772 -0.09567559 -0.11136854 0.5936565
-0.07278054 0.60402775 -0.600402 -0.11224426 0.29489127 -0.15076086 -0.116625935 0.76667875
0.14593588 -0.13907751
00000000: 05d9 fd3d be4a c83e 5e68 0bbd 7567 f1bd
00000010: 9988 103f 0e8e 423f 0cf6 15bd f8b4 62be
00000020: 5f44 58be 7297 1dbe 1387 e6bd a72b 43be
00000030: ef5a e7bd 9ced ebbd cb3c 2b3f 8377 483f
00000040: 0552 e5bd d30c 5ebe 86ac b53d 9ecc e0bd
00000050: 017a c3bd f866 5c3e 4161 2a3f 1a8b d9bd
00000060: e8a2 96bd 2e6b b63c 4db4 48be 7a95 d6bd
00000070: 3ca5 0a3f 48c7 debd 3b00 f1bc 0a24 bdbd
00000080: 782f 913e f40e cbbd 7787 cdbd 9a74 b73e
00000090: d957 9cbe 90f1 c3bd 3015 e4bd dff9 173f
000000a0: f70d 95bd 90a1 1a3f f2b3 19bf 52e0 e5bd
000000b0: fdfb 963e 0e61 1abe 94d9 eebd 0f45 443f
000000c0: 3770 153e 566a 0ebe

weight f4 [50, 50]
-0.35383072 0.012651764 0.121309794 0.12253058 -0.07478116 0.009681882 0.014617939 0.04449952
0.16613996 0.15027495 0.13123927 0.09722984 0.12142538 0.03170293 -0.07260307 -0.06766845
0.025923247 0.0276731 -0.2400069 0.05673871 0.0070665414 -0.023213092 0.11225154 0.13757505
0.13198328 0.11380117 0.08182253 0.029794704 -0.07685541 0.040922474 0.11381024 0.0398472
-0.115018785 0.09098198 0.024764622 -0.14886191 0.01642801 0.017708097 0.06711141 -0.23539649
0.06051983 -0.071997896 0.17160153 0.02338491 0.04706706 0.12014405 0.069116175 0.050100245
-0.0081493575 0.11837391 0.3476291 0.061801385 -0.05114644 0.17697673 0.08745595 0.03583694
0.023020692 0.006762914 -0.040137526 -0.057280414 0.112083085 -0.036838826 -0.036544446 0.14518929
-0.019181574 -0.06700156 0.052874677 -0.026288753 0.02494892 0.074167006 0.05169227 -0.051829014
-0.042924397 0.1555601 -0.062679805 0.062102865 -0.024811639 0.19951677 -0.05026472 0.068374656
-0.014882488 -0.026155645 -0.12868007 0.12543531 0.12056859 0.22456135 0.04589041 0.04737848
0.0098175155 -0.22794671 -0.05735254 -0.05992162 -0.062138755 0.057587575 -0.056781784 -0.04367782
0.061985444 -0.084601484 -0.04699318 -0.023792233 -0.52399117 -0.10823028 0.0015903325 0.23593342
-0.11385005 -0.08332552 -0.009084216 -0.0630258 -0.051967956 0.0048365975 0.16433327 -0.049150407
-0.08226536 0.115383685 -0.07206902 -0.11567363 0.09566977 -0.05746988 -0.043852285 0.087267555
0.103716865 0.018424004 -0.062476326 0.22169092 0.024779478 -0.07731925 -0.0830547 0.17818423
-0.11440341 0.21000452 -0.15203147 0.23789033 -0.25009912 0.08445196 0.0994901 -0.07394111
-0.06284367 0.13773529 0.06415731 -0.28881443 -0.087750725 -0.115518406 -0.10989811 0.19266511
-0.090390936 -0.054043416 0.09661839 -0.055233523 0.02739606 0.103249654 -1.0648036 -0.019716615
0.20942816 0.047087505 -0.041642606 0.07220231 0.06593921 0.029531727 0.104588665 0.103055574
-0.007946919 0.052768808 0.22632714 0.028811155 -0.035249937 0.052082438 0.019859407 0.10759749
-0.17078854 0.03505662 0.015731147 0.12955092 0.06462808 -0.0046635563 0.15499331 -0.009129627
0.15613104 -0.008577992 -0.04527831 0.12962216 0.07102723 -0.0798743 -0.3279197 0.004482697
-0.003343364 -0.107081644 0.1428429 0.1306652 0.44673103 -0.33002988 0.13730426 -0.012987892
0.19333164 0.09069571 0.06418078 0.03825749 -0.003225731 0.09228565 0.0077524143 0.2018552
0.122840516 0.08356291 0.019349948 0.024611447 -0.011429838 0.03378517 -0.011638822 0.023379857
0.011906719 0.0081640445 0.017676897 0.0005792691 -0.009992597 0.083656974 0.027323244 -0.016272912
0.010606705 -0.002621393 0.014472319 0.04794777 0.15510365 0.08784842 0.12585902 0.015015648
-0.013251788 0.0315529 0.05932637 0.07713835 -0.01000827 0.13371615 -0.011030317 -0.070464864
-0.01330132 0.005588575 0.12601678 0.2741525 0.04309976 0.06865849 -0.11425938 -0.09967792
0.028113449 0.107275315 0.045542743 0.02354548 -0.008416098 0.044959214 0.014116143 -0.027482789
-0.0077826553 0.0008929172 -2.2122045 -0.18330392 -0.03466728 0.30255494 -0.17375748 -0.08105599
00000000: 4d29 b5be 5849 4f3c 4571 f83d 50f1 fa3d
00000010: dd26 99bd c2a0 1e3c 1480 6f3c 2145 363d
00000020: 9820 2a3e ade1 193e 9663 063e 7020 c73d
00000030: dfad f83d eeda 013d ebb0 94bd c295 8abd
00000040: fd5c d43c b2b2 e23c 5ec4 75be d966 683d
00000050: 728e e73b 6229 bebc 23e4 e53d 79e0 0c3e
00000060: a026 073e 9610 e93d 9292 a73d 0614 f43c
00000070: 5f66 9dbd 539e 273d 5815 e93d d136 233d
00000080: f88e ebbd c354 ba3d 2ddf ca3c 426f 18be
00000090: 0994 863c 9210 913c b571 893d c70b 71be
000000a0: a4e3 773d a273 93bd 50b8 2f3e b691 bf3c
000000b0: 64c9 403d 150e f63d c88c 8d3d ea35 4d3d
000000c0: e284 05bc 056e f23d 71fc b13e 7323 7d3d
000000d0: ee7e 51bd 6339 353e 1b1c b33d c1c9 123d
000000e0: e495 bc3c 6f9b dd3b 3f67 24bd de9e 6abd
000000f0: d18b e53d 4fe4 16bd a1af 15bd 80ac 143e
00000100: ad22 9dbc 1d38 89bd 1e93 583d 835b d7bc
00000110: ad61 cc3c dfe4 973d 46bb 533d a94a 54bd
00000120: 7ed1 2fbd 264b 1f3e 455e 80bd 935f 7e3d
00000130: c741 cbbc 204e 4c3e 61e2 4dbd 0308 8c3d
00000140: aed5 73bc 5d44 d6bc b5c4 03be 1d72 003e
00000150: aaec f63d 69f3 653e 95f7 3b3d f00f 423d
00000160: a5d9 203c dd6a 69be 7fea 6abd 5f70 75bd
00000170: 3585 7ebd f3e0 6b3d 0494 68bd 84e7 32bd
00000180: 73e4 7d3d 8b43 adbd ec7b 40bd eee7 c2bc
00000190: 4924 06bf d6a7 ddbd b472 d03a 8898 713e
000001a0: 372a e9bd 92a6 aabd f7d5 14bc ac13 81bd
000001b0: 5adc 54bd 527c 9e3b fb46 283e f051 49bd
000001c0: be7a a8bd 484e ec3d ec98 93bd 4ce6 ecbd
000001d0: 83ee c33d 8965 6bbd 749e 33bd 55b9 b23d
000001e0: 8269 d43d f0ed 963c 2de7 7fbd f202 633e
000001f0: 55fe ca3c 8e59 9ebd 9518 aabd ed75 363e
00000200: 564c eabd 6d0b 573e 23ae 1bbe 8699 733e
00000210: fe0c 80be 26f5 ac3d 77c1 cb3d 706e 97bd
00000220: 2fb4 80bd 7b0a 0d3e e864 833d 7cdf 93be
00000230: a7b6 b3bd ea94 ecbd 4312 e1bd 014a 453e
00000240: e21e b9bd a15c 5dbd dddf c53d 8c3c 62bd
00000250: b46d e03c 8e74 d33d 7c4b 88bf bd84 a1bc
00000260: 5674 563e d4de 403d 7091 2abd cede 933d
00000270: 230b 873d 85ec f13c 9532 d63d cd0e d33d
00000280: cb33 02bc 1b24 583d 4dc2 673e 5f05 ec3c
00000290: 3d62 10bd 6554 553d 32b0 a23c 135c dc3d
000002a0: 31e3 2ebe 8897 0f3d 9bde 803c ffa8 043e
000002b0: ba5b 843d bfd0 98bb 91b6 1e3e 6e94 15bc
000002c0: d1e0 1f3e b58a 0cbc c075 39bd acbb 043e
000002d0: b976 913d 2395 a3bd 17e5 a7be 97e3 923b
000002e0: 571c 5bbb 9f4d dbbd 6945 123e 19cd 053e
000002f0: eeb9 e43e adf9 a8be 7d99 0c3e 2bcb 54bc
00000300: bbf8 453e acbe b93d 3671 833d e3b3 1c3d
00000310: c966 53bb 4200 bd3d f707 fe3b 21b3 4e3e
00000320: cf93 fb3d 0823 ab3d c883 9e3c f29d c93c
00000330: 3744 3bbc 5262 0a3d c2b0 3ebc 1d87 bf3c
00000340: 6614 433c 7cc2 053c 24cf 903c 17da 173a
00000350: fdb7 23bc 5954 ab3d ffd4 df3c c54e 85bc
00000360: bfc7 2d3c adcb 2bbb 4e1d 6d3c e264 443d
00000370: 7ed3 1e3e dfe9 b33d 30e1 003e 3104 763c
00000380: 071e 59bc 9d3d 013d 3500 733d b6fa 9d3d
00000390: baf9 23bc e3ec 083e 81b8 34bc e24f 90bd
000003a0: c8ed 59bc 5d20 b73b 8b0a 013e b75d 8c3e
000003b0: 6089 303d d39c 8c3d d200 eabd f023 ccbd
000003c0: 2d4e e63c 29b3 db3d 078b 3a3d 73e2 c03c
000003d0: ace3 09bc 2727 383d 6547 673c 9623 e1bc
000003e0: a505 ffbb a912 6a3a c294 0dc0 06b4 3bbe
000003f0: 47ff 0dbd 7be8 9a3e 7bed 31be af00 a6bd

bias f4 [50]
-0.038839847 -0.06585389 0.023834469 -0.01492966 -0.016265463 -0.19493811 0.047272205 -0.04059455
-0.09916334 -0.034118943 -0.07405448 -0.017093929 -0.08082241 0.12176075 0.023684895 -0.079291224
0.14783807 -0.05199982 -0.04226985 0.098777145 -0.08167051 0.0041306717 0.06684518 0.15039793
0.22848007 -0.0748581 0.13276841 0.033150833 -0.10705425 0.08596289 0.11906653 -0.08003235
-0.10880807 -0.0018744114 -0.061539028 -0.007564277 0.036858346 0.011774608 -0.094044946 0.06686552
-0.014220742 0.06834121 -0.0644189 0.06545556 0.03026092 0.14821655 -0.014202595 0.012637634
0.078637004 0.0400204
00000000: 8816 1fbd 67de 86bd 8140 c33c 889b 74bc
00000010: 263f 85bc db9d 47be 80a0 413d 7946 26bd
00000020: 2616 cbbd 4ec0 0bbd e0a9 97bd 9108 8cbc
00000030: 3886 a5bd b35d f93d d306 c23c 7063 a2bd
00000040: dd62 173e c3fd 54bd 2623 2dbd ac4b ca3d
00000050: de42 a7bd 965a 873b 20e6 883d ea01 1a3e
00000060: aef6 693e 344f 99bd 71f4 073e 2bc9 073d
00000070: 423f dbbd 500d b03d 27d9 f33d 00e8 a3bd
00000080: c4d6 debd cfae f5ba 5910 7cbd c1dd f7bb
00000090: c7f8 163d 49ea 403c a39a c0bd caf0 883d
000000a0: 1dfe 68bc 7af6 8b3d 0eee 83bd 910d 863d
000000b0: c0e5 f73c 14c6 173e 00b2 68bc 140e 4f3c
000000c0: 700c a13d 6eec 233d

weight f4 [50, 50]
0.21392721 -0.044771306 0.08274808 0.09487024 -0.0075968136 0.47851425 0.06377332 0.4276885
0.0027350467 0.024483407 -0.04415936 0.13608932 -0.20634583 0.02827922 0.04907679 -0.013622479
0.13953768 0.073953606 0.08721776 0.15875274 -0.07071006 0.09988996 0.045429494 -0.05894989
-0.012345225 -0.06681808 0.02715224 0.078048535 0.098615095 0.08057945 0.5203921 -0.049882334
-0.12191496 0.14486606 -0.04986109 0.15990901 0.41346833 0.036145188 -0.21305312 0.11430956
0.51319504 0.116725095 -0.20050633 0.04833537 0.042331953 0.09788984 0.11789864 -0.040980984
0.035077665 0.10620068 0.04786596 0.083392166 0.030059054 0.23127618 0.046072155 0.054117825
0.06877277 -0.024535403 0.01161204 0.00359605 0.13459948 0.15054461 -0.064728424 0.09092863
0.22452264 0.0036573352 0.08637235 -0.024647268 0.026185282 0.088202156 -0.04519556 0.11604515
0.16162899 0.0934184 0.05212901 0.054224964 0.1662933 0.12879582 0.13385886 0.077536434
0.11081237 0.011348263 0.05337111 0.083327785 0.0009805316 0.088558964 0.0010801414 0.090795524
-0.017188966 0.21765238 0.088883564 0.10146036 -0.062025454 0.088258766 0.14861709 0.07550945
0.08885422 0.0011747434 0.16330913 0.023538383 0.0311735 0.07943499 0.06927642 0.09552396
0.08623923 0.03614404 0.09857386 0.13847858 0.0086984355 0.070196785 0.027015693 0.12818015
0.05637988 0.2129777 0.23643832 -0.033328094 0.10839653 0.057428803 0.009982022 0.10449323
-0.039483465 0.12103385 0.12006322 0.09954698 0.21545756 0.029914036 0.11555189 0.11421899
0.08461258 0.10873694 0.21060607 0.032201983 -0.015327165 0.10325931 -0.013770611 0.18785647
0.073696 0.11650255 -0.009023256 0.11497353 0.078720205 0.11635271 0.05338386 0.2303428
0.21909218 0.20333062 0.2198551 0.019351264 0.10344155 0.022058463 0.15111683 0.035941716
0.017123185 0.1242799 0.15471515 0.049832392 0.25838882 0.114337064 0.016866807 0.024618017
0.055734582 0.123553686 -0.035349946 0.28481296 0.17017485 0.036637772 0.14726049 0.28180084
0.016309185 0.23011996 0.023915097 0.15354931 0.16700016 0.18344042 0.13089585 0.056431636
0.1616337 0.15492573 0.014984315 0.26762095 0.09594514 0.067796 -0.024873657 0.14153494
0.03377285 0.20687942 0.22503534 0.16182035 0.09245179 0.15855609 0.095835775 0.20908642
-0.0027154174 0.16090086 0.2780719 0.15393536 0.20852168 0.04811996 0.16524024 0.17164154
0.04637323 0.03754261 0.10855856 0.21135803 0.20729978 0.024738688 0.14865008 0.016535675
-0.022138787 -0.017187996 0.05981647 0.16602065 -0.07708285 0.24045286 0.1555522 0.059580985
0.18230231 0.056053728 -0.009863149 0.10562368 0.07899428 0.11526746 0.17763948 0.1850601
0.07999065 0.051955458 0.20396174 0.115385406 -0.017014774 0.13737425 0.20356211 0.13570897
-0.083408 0.10486498 0.025546212 0.112692766 0.05174951 0.118145935 -0.048268154 0.15213972
0.08303327 0.13955921 0.048784032 0.116704375 0.24799728 0.106815 0.093127914 0.013607942
0.23857547 0.026144907 -0.088861436 0.17905957 0.1113596 -0.007148402 -0.046707097 0.16266689
00000000: bc0f 5b3e 1e62 37bd d377 a93d 544b c23d
00000010: b1ee f8bb d2ff f43e 969b 823d fdf9 da3e
00000020: 783e 333b 6d91 c83c 72e0 34bd 005b 0b3e
00000030: 524c 53be d3a9 e73c bf04 493d d130 5fbc
00000040: f7e2 0e3e fd74 973d 3a9f b23d 1490 223e
00000050: 70d0 90bd 1b93 cc3d 4714 3a3d 7175 71bd
00000060: a043 4abc ebd7 88bd 606e de3c e9d7 9f3d
00000070: b6f6 c93d d706 a53d 6b38 053f 6b51 4cbd
00000080: 8dae f9bd c557 143e 243b 4cbd 30bf 233e
00000090: 1fb2 d33e fa0c 143d 992a 5abe 211b ea3d
000000a0: c060 033f 910d ef3d 8851 4dbe 4ffb 453d
000000b0: 4564 2d3d 787a c83d d874 f13d addb 27bd
000000c0: 99ad 0f3d be7f d93d 190f 443d 83c9 aa3d
000000d0: 683e f63c aad3 6c3e 28b6 3c3d a7aa 5d3d
000000e0: bdd8 8c3d 78fe c8bc 6d40 3e3c b5ab 6b3b
000000f0: 72d4 093e 5e28 1a3e 5690 84bd ca38 ba3d
00000100: 43e9 653e e7af 6f3b fde3 b03d 11e9 c9bc
00000110: 8482 d63c 55a3 b43d fb1e 39bd 14a9 ed3d
00000120: 1282 253e 2552 bf3d 3b85 553d ff1a 5e3d
00000130: ca48 2a3e 0de3 033e 4c12 093e 6ccb 9e3d
00000140: 99f1 e23d 11ee 393c aa9b 5a3d c2a7 aa3d
00000150: 2e85 803a 675e b53d 8893 8d3a 01f3 b93d
00000160: e0cf 8cbc 44e0 5e3e 9608 b63d 73ca cf3d
00000170: 670e 7ebd 03c1 b43d 142f 183e b3a4 9a3d
00000180: 34f9 b53d d9f9 993a 823a 273e 91d3 c03c
00000190: 915f ff3c d0ae a23d cce0 8d3d 11a2 c33d
000001a0: 329e b03d c60b 143d 18e1 c93d 54cd 0d3e
000001b0: e283 0e3c 55c3 8f3d 0450 dd3c a841 033e
000001c0: 97ee 663d d416 5a3e e31c 723e 0a83 08bd
000001d0: 00ff dd3d 773a 6b3d a38b 233c 8c00 d63d
000001e0: 6ab9 21bd 98e0 f73d b5e3 f53d 49df cb3d
000001f0: e8a0 5c3e 480e f53c 78a6 ec3d a5eb e93d
00000200: 5c49 ad3d 79b1 de3d 1ea9 573e 3ae6 033d
00000210: ca1e 7bbc 9e79 d33d 219e 61bc 725d 403e
00000220: eeed 963d e498 ee3d 47d6 13bc 3e77 eb3d
00000230: 0f38 a13d 544a ee3d 09a9 5a3d fcde 6b3e
00000240: b359 603e e735 503e b221 613e 8b86 9e3c
00000250: 2ad9 d33d f3b3 b43c 5fbe 1a3e 9f37 133d
00000260: ec45 8c3c 7686 fe3d a66d 1e3e 0d1d 4c3d
00000270: 8a4b 843e 8d29 ea3d 422c 8a3c b9ab c93c
00000280: f249 643d b709 fd3d 1bcb 10bd 01d3 913e
00000290: 5142 2e3e 7d11 163d 74cb 163e 3348 903e
000002a0: d79a 853c 91a4 6b3e 98e9 c33c 083c 1d3e
000002b0: 1702 2b3e ced7 3b3e 9009 063e dc24 673d
000002c0: 4e83 253e daa4 1e3e c680 753c 9d05 893e
000002d0: e37e c43d a1d8 8a3d d7c3 cbbc 89ee 103e
000002e0: 6655 0a3d 33d8 533e aa6f 663e 3cb4 253e
000002f0: 5d57 bd3d 875c 223e 8c45 c43d c01a 563e
00000300: 25f5 31bb 32c3 243e 715f 8e3e 3ba1 1d3e
00000310: b586 553e 6f19 453d bd34 293e cdc2 2f3e
00000320: dbf1 3d3d 48c6 193d f353 de3d 3d6e 583e
00000330: 6546 543e caa8 ca3c ba37 183e d375 873c
00000340: 675c b5bc d7cd 8cbc 1d02 753d 5101 2a3e
00000350: 9ddd 9dbd 4639 763e 1349 1f3e 310b 743d
00000360: 75ad 3a3e 9898 653d 0c99 21bc 3a51 d83d
00000370: c1c7 a13d 5911 ec3d 20e7 353e 6580 3d3e
00000380: 23d2 a33d 3fcf 543d 59db 503e 2f4f ec3d
00000390: 9162 8bbc d6ab 0c3e 9672 503e 4bf7 0a3e
000003a0: d0d1 aabd 73c3 d63d 4a46 d13c 77cb e63d
000003b0: 4bf7 533d 7ff6 f13d d4b4 45bd 84ca 1b3e
000003c0: 590d aa3d 9ce8 0e3e c4d1 473d b402 ef3d
000003d0: 00f3 7d3e d3c1 da3d d9b9 be3d d8f3 5e3c
000003e0: 214d 743e d82d d63c fcfc b5bd 645b 373e
000003f0: 8110 e43d 243d eabb f14f 3fbd 2692 263e

bias f4 [50]
0.13303773 0.09939359 0.12436638 0.22740068 0.24799758 -0.01086816 0.09434637 0.10254249
0.120418794 0.24633951 0.25577244 -0.051895067 0.1441118 0.06795235 -0.0024173672 0.14095426
0.18163681 0.12060946 0.19132859 0.09014275 0.16449706 0.017249033 0.14680822 -0.028994132
-0.049498938 0.13434651 -0.0108889695 0.12673593 0.14261039 0.179481 -0.012152855 0.21976489
0.18132456 0.19005679 0.009946808 0.18327634 0.03257938 0.17870365 -0.0038455257 0.14179239
0.122729726 0.16348834 0.14954849 0.0822032 0.25464788 0.0011180517 0.14496835 0.21809885
-0.0026682545 0.17375462
00000000: 0b3b 083e de8e cb3d cdb3 fe3d b9db 683e
00000010: 14f3 7d3e 5e10 32bc ab38 c13d cc01 d23d
00000020: 219e f63d 6d40 7c3e 9bf4 823e ec8f 54bd
00000030: 0b92 133e 9a2a 8b3d b16c 1ebb 5056 103e
00000040: 00ff 393e 1802 f73d a4eb 433e c39c b83d
00000050: eb71 283e d84d 8d3c e554 163e 1a85 edbc
00000060: 66bf 4abd 2292 093e a667 32bc 10c7 013e
00000070: 7508 123e dec9 373e c51c 47bc 0c0a 613e
00000080: 25ad 393e 3f9e 423e f0f7 223c cbac 3b3e
00000090: f571 053d 17fe 363e 3705 7cbb 0632 113e
000000a0: b959 fb3d 7d69 273e 3d23 193e 275a a83d
000000b0: 3561 823e 978b 923a 9572 143e 4e55 5f3e
000000c0: e2dd 2ebb bbec 313e

weight f4 [6, 50]
0.0124020325 -0.16650614 0.018113978 0.031234847 -0.013840464 0.010494974 0.4459508 -0.043853607
0.017442478 0.07002808 0.093108304 -0.11138613 -0.036359478 -0.020936238 0.1537159 0.0662866
0.07310696 -0.029568257 0.00536239 -0.07507053 0.0035193074 -0.026386047 -0.010145333 -0.039181985
-0.094674736 -0.047030084 -0.049751963 -0.08533249 -0.012036138 0.10112251 0.011539608 0.014512586
0.10618619 0.1538234 -0.22003624 -0.08091668 -0.14713533 0.09749895 -0.019749075 -0.036511578
-0.04130996 0.0745846 -0.014782056 -0.21134058 0.084666304 -0.2163439 0.0010368082 0.0027123187
-0.020044472 0.009895789 0.01683697 -0.030468155 -0.052319445 -0.05155235 -0.03898495 -0.025240365
-0.24773112 0.033581737 -0.033603106 -0.050499428 -0.009666288 -0.011436912 0.020814514 -0.0070962165
-0.019904135 -0.04753401 -0.06616286 0.09168399 0.044780996 -0.07735829 -0.045349687 -0.031216014
-0.026582489 0.05190886 0.052296843 0.0021716142 0.09537917 -0.026096279 0.05240904 -0.04410251
0.016348775 0.0917513 -0.06768386 -0.019704448 0.14107573 -0.005393818 0.03416818 0.07849766
0.031502068 -0.010550467 0.04727439 0.080143824 0.007154303 0.040791526 0.073898576 0.0025321252
0.047401316 -0.0144853 -0.075097606 0.034561858 0.028300513 0.05588492 -0.016855722 0.09116682
0.08413197 0.04030365 -0.17954399 0.022736168 0.028840654 -0.03269275 -0.038157806 -0.02095614
0.048698552 -0.0129176555 -0.13537 -0.033176143 -0.043234702 -0.016586913 -0.04517492 0.041954793
0.11414113 0.058242865 -0.033691686 0.06948118 0.0838758 -0.039558306 0.05976782 -0.021819532
-0.03485215 -0.025724815 0.022570103 -0.029403245 -0.036974404 -0.028822642 0.07166182 -0.025573537
0.072682664 0.03628517 -0.03240533 -0.008024505 0.012376035 -0.037938606 0.08971162 0.007123026
-0.038518663 0.048637696 -0.031569835 0.017391682 -0.07474327 -0.035399325 -0.03973698 0.10216777
-0.031606436 0.024911124 -0.0074409377 0.02813886 -0.010082587 -0.03796204 0.025275154 -0.031889908
0.011936651 -0.016356435 -0.036960617 -0.016070182 0.08501461 -0.03211455 0.0032942167 -0.006608688
-0.036343 -0.02805762 -0.02902944 -0.045499872 -0.024752397 -0.039530534 0.04650084 0.008729673
0.0965268 -0.0304034 -0.025106823 0.06908912 0.024844812 -0.043133616 -0.007887208 0.09388406
-0.013597951 0.11328514 -0.051279765 -0.036676902 0.032625537 0.06991954 -0.029480858 -0.030338898
-0.033257365 -0.028968204 -0.035414483 -0.081209004 0.0071019335 -0.033924323 -0.04362637 0.07441223
-0.0071292887 -0.021573873 -0.023960523 -0.014310846 0.0041163755 0.0073562087 -0.02902424 -0.019949496
-0.019616367 0.044318646 0.09404848 0.048782315 -0.019988196 0.002752341 0.04845495 -0.02068036
0.029562676 0.033708964 -0.02049944 0.07000321 -0.024137575 0.011848141 -0.0023474782 -0.01945806
-0.0344508 -0.019866224 -0.026465734 0.020876223 -0.0099941995 -0.015804648 -0.008983782 -0.011266216
0.008424103 -0.016255923 0.0853859 0.07570199 -0.031714473 0.0074594966 -0.009190985 -0.021101596
-0.019684698 -0.019097015 -0.017258978 -0.021804059 -0.021680854 -0.053840004 -0.017359396 -0.016184786
0.0010312862 0.03885328 1.2397006 1.3369951 1.4051409 1.2522302 1.2571484 1.7197448
00000000: e531 4b3c 9680 2abe c463 943c 39e0 ff3c
00000010: 1dc3 62bc 1df3 2b3c aa53 e43e d79f 33bd
00000020: 87e3 8e3c e26a 8f3d 91af be3d 691e e4bd
00000030: aded 14bd 7982 abbc b367 1d3e 45c1 873d
00000040: 1ab9 953d 2139 f2bc fdb6 af3b 94be 99bd
00000050: 2ea4 663b 8d27 d8bc 9c38 26bc 4a7d 20bd
00000060: d4e4 c1bd 9ea2 40bd b7c8 4bbd cdc2 aebd
00000070: 3933 45bc 5219 cf3d a010 3d3c 33c6 6d3c
00000080: 2578 d93d e283 1d3e 2e51 61be a5b7 a5bd
00000090: a5aa 16be 88ad c73d d0c8 a1bc 2a8d 15bd
000000a0: a234 29bd d0bf 983d 7030 72bc aa69 58be
000000b0: 8765 ad3d 4189 5dbe 83e5 873a 28c1 313b
000000c0: 4e34 a4bc f321 223c afed 893c 5a98 f9bc
000000d0: ea4c 56bd 8f28 53bd afae 1fbd e2c4 cebc
000000e0: 3aad 7dbe 018d 093d 69a3 09bd 7dd8 4ebd
000000f0: 5a5f 1ebc e361 3bbc 3383 aa3c 6187 e8bb
00000100: ff0d a3bc 06b3 42bd 6580 87bd d1c4 bb3d
00000110: 476c 373d 066e 9ebd 98c0 39bd bab8 ffbc
00000120: 85c3 d9bc 639e 543d 3735 563d a451 0e3b
00000130: 2756 c33d ddc7 d5bc ddaa 563d d5a4 34bd
00000140: deed 853c 1be8 bb3d d69d 8abd 396b a1bc
00000150: 2876 103e a0be b0bb eff3 0b3d 62c3 a03d
00000160: 5008 013d dedb 2cbc caa2 413d 7222 a43d
00000170: a56e ea3b 0415 273d 2358 973d 03f2 253b
00000180: e227 423d c053 6dbc c6cc 99bd bc90 0d3d
00000190: 7ad6 e73c 96e7 643d 0315 8abc abb5 ba3d
000001a0: 624d ac3d 7115 253d 61da 37be 3341 ba3c
000001b0: 3c43 ec3c d5e8 05bd 5c4b 1cbd 36ac abbc
000001c0: 2278 473d 93a4 53bc 6f9e 0abe b5e3 07bd
000001d0: df16 31bd 47e1 87bc 5609 39bd cad8 2b3d
000001e0: d3c2 e93d 1290 6e3d 4b00 0abd 264c 8e3d
000001f0: 13c7 ab3d e407 22bd 1acf 743d e0be b2bc
00000200: 21c1 0ebd d9bc d2bc f0e4 b83c 13df f0bc
00000210: 7972 17bd 761d ecbc 6fc3 923d 987f d1bc
00000220: a6da 943d c29f 143d 74bb 04bd 3779 03bc
00000230: dac4 4a3c 8365 1bbd baba b73d 4668 e93b
00000240: bfc5 1dbd 5238 473d 5f4f 01bd 0079 8e3c
00000250: 0013 99bd e2fe 10bd 3ec3 22bd 563d d13d
00000260: c075 01bd 6a12 cc3c 1cd3 f3bb 7783 e63c
00000270: 6f31 25bc 167e 1bbd d70d cf3c fe9e 02bd
00000280: f191 433c eefd 85bc 0464 17bd 9da5 83bc
00000290: 241c ae3d 8c8a 03bd c9e3 573b b18d d8bb
000002a0: 66dc 14bd 18d9 e5bc 26cf edbc 135e 3abd
000002b0: 8ac5 cabc c5ea 21bd aa77 3e3d e706 0f3c
000002c0: d8af c53d 8d10 f9bc d3ac cdbc 997e 8d3d
000002d0: 5987 cb3c e0ac 30bd 5939 01bc 4946 c03d
000002e0: f1c9 5ebc 0a02 e83d bb0a 52bd 853a 16bd
000002f0: 5ba2 053d fa31 8f3d d781 f1bc 4889 f8bc
00000300: e038 08bd ba4e edbc c70e 11bd e850 a6bd
00000310: 56b7 e83b 3bf4 0abd 91b1 32bd 7065 983d
00000320: cf9c e9bb b1bb b0bc dc48 c4bc 0a78 6abc
00000330: a9e2 863b 5a0c f13b 3ec4 edbc 206d a3bc
00000340: 81b2 a0bc 7887 353d 7d9c c03d f7cf 473d
00000350: 49be a3bc 9f60 343b b378 463d dc69 a9bc
00000360: 6d2d f23c 6912 0a3d 71ee a7bc d85d 8f3d
00000370: 2abc c5bc b51e 423c 26d8 19bb 8266 9fbc
00000380: 481c 0dbd 7ebe a2bc abce d8bc 9d04 ab3c
00000390: b6be 23bc c078 81bc b630 13bc ef95 38bc
000003a0: 4005 0a3c 242b 85bc cede ae3d a509 9b3d
000003b0: 09e7 01bd cb6e f43b c995 16bc 41dd acbc
000003c0: ce41 a1bc 5871 9cbc b362 8dbc 6d9e b2bc
000003d0: 0c9c b1bc 5687 5cbd 4b35 8ebc f595 84bc
000003e0: 392c 873a 9e24 1f3d 82ae 9e3f a822 ab3f
000003f0: a8db b33f 1449 a03f 3dea a03f 9920 dc3f

bias f4 [6]
0.24956466 -0.022402111 -0.025021516 0.07718335 -0.0048735077 1.1674553
00000000: e18d 7f3e a284 b7bc ecf9 ccbc 4e12 9e3d
00000010: f2b1 9fbb 2d6f 953f
