digital_twin/pinn_0/model.pt (torch, 28777 bytes, 8 tensors)

weight f4 [50, 2]
0	0xbc2c2afe	-0.010508297
1	0xbc9cc2db	-0.019135883
2	0xbc596680	-0.013269067
3	0xbca7218d	-0.02040174
4	0x3c6a9e47	0.014319963
5	0x3d3b5845	0.045738477
6	0xbd4a65c4	-0.049413458
7	0x3a560282	0.0008163826
8	0x3d515a08	0.05111125
9	0xbdbdde98	-0.09270972
10	0x3e8e721a	0.27821428
11	0x3e40a30f	0.18812202
12	0x3ec70354	0.38869727
13	0x3ee8492f	0.45368335
14	0x3c3d8995	0.011568447
15	0x3c752f9f	0.014964967
16	0x3af709a2	0.0018847475
17	0xbe0eccf0	-0.13945365
18	0x00000000	0.0
19	0x3ea777c6	0.32708567
20	0x3c5a6aab	0.013331096
21	0xbd297244	-0.041368738
22	0x3c674c68	0.014117338
23	0xbd887d51	-0.06664527
24	0x3f28e522	0.6597463
25	0x3eadbde6	0.33933944
26	0xbc8d4563	-0.017245
27	0xbd5b6e53	-0.05357201
28	0x3ea8b379	0.32949427
29	0x3cb99c63	0.022657579
30	0x3c571f87	0.013130075
31	0xbdff0d93	-0.12453761
32	0x3decaa3c	0.11555907
33	0xbc9876e1	-0.018611373
34	0xbc3ddf52	-0.011588888
35	0x3d9f58b8	0.07780594
36	0x3e9a616b	0.3015245
37	0xbba2258e	-0.0049483245
38	0x3f1982b1	0.59965044
39	0x3c80b6eb	0.015712222
40	0xbd1d5819	-0.038414095
41	0xbd261b81	-0.040553574
42	0x3ac07630	0.001468366
43	0x3ddca069	0.10772783
44	0x00000000	0.0
45	0x3e965cf3	0.2936779
46	0xbcd82a6a	-0.026387412
47	0xbcaadb09	-0.020856397
48	0x3f0af97a	0.5428692
49	0x3edf3842	0.4359761
50	0x3eb70caf	0.35751864
51	0x3f10646c	0.5640323
52	0x3e8520fd	0.2600173
53	0x3ec07e0a	0.3759616
54	0x3ea1282b	0.31475958
55	0x3b5cec7a	0.0033710287
56	0xbc3e652c	-0.011620801
57	0xbca14e32	-0.019690607
58	0xbcaf36a8	-0.021388367
59	0xbc94cb15	-0.018163243
60	0x00000000	0.0
61	0x3ecf7963	0.40522298
62	0x3d088b9a	0.03333626
63	0xbd0162e6	-0.031588458
64	0xbcd3ce65	-0.025855253
65	0xbc77a906	-0.015115982
66	0x3e1bceff	0.15215681
67	0x3c1c4c42	0.009539666
68	0xbc886c6a	-0.016653258
69	0xbd23a330	-0.03995055
70	0xbc338829	-0.010957756
71	0xbca80773	-0.020511365
72	0x00000000	0.0
73	0x3f214932	0.6300231
74	0x3db0ccca	0.086328104
75	0xbd40e4f8	-0.04709336
76	0xbc2ae408	-0.010430343
77	0xbc5453db	-0.012959446
78	0x3e5fccd9	0.21855487
79	0xbcda389e	-0.026638325
80	0x00000000	0.0
81	0x3e976e99	0.29576567
82	0xbc963a4f	-0.01833835
83	0xbca98ddd	-0.020697528
84	0x00000000	0.0
85	0x3f27e615	0.6558545
86	0x3dcc428b	0.099736296
87	0xbc9bc5eb	-0.019015273
88	0x3c88d6ad	0.016703928
89	0x3e5bd809	0.2146913
90	0x3c516f7c	0.012782928
91	0xbda96e3a	-0.08272977
92	0xbc5c4a75	-0.013445486
93	0xbcfa1f2e	-0.030532446
94	0x3e3346a8	0.17507422
95	0xbcd65f73	-0.02616856
96	0x00000000	0.0
97	0x3e9f354d	0.31095353
98	0x3d2200e0	0.039551616
99	0x3dbb7dca	0.09154852

bias f4 [50]
0	0x3e96a04d	0.29419175
1	0x3ede13ae	0.4337439
2	0xc01cceaa	-2.4501138
3	0x3dc69260	0.096958876
4	0x3f782898	0.9693694
5	0x3f476ece	0.7790345
6	0x3ea7b263	0.32753286
7	0xbf93b28b	-1.1538862
8	0xbebb5953	-0.36591586
9	0x00000000	0.0
10	0xbd78a90c	-0.06070809
11	0xbeac61d8	-0.336684
12	0x00000000	0.0
13	0xbd5c4c4e	-0.053783707
14	0x3f34f8e8	0.706923
15	0x3f045a53	0.51700324
16	0xbe14f0a9	-0.1454493
17	0xc015011f	-2.3281934
18	0x3ec01e10	0.37522936
19	0x3d7c11db	0.061540466
20	0xbd772ff2	-0.06034846
21	0x3dd96f87	0.10616975
22	0x3f2d4cb6	0.67695177
23	0xbcc305ca	-0.023806471
24	0x00000000	0.0
25	0x3e1d06fa	0.15334693
26	0x00000000	0.0
27	0xbd863c82	-0.0655451
28	0x3f1f4e41	0.6222878
29	0xbc92245d	-0.017839605
30	0x3ed32fe4	0.41247475
31	0xbe118fe4	-0.14215046
32	0x3e25b346	0.16181669
33	0xbd36387b	-0.044487458
34	0xbd638e72	-0.05555577
35	0x3f1ac68a	0.60459197
36	0x3ea60dc4	0.32432377
37	0xbe37ad87	-0.17937289
38	0x3e1cfab6	0.15330014
39	0x3edf85d3	0.43656787
40	0x00000000	0.0
41	0x3f166511	0.58747965
42	0x00000000	0.0
43	0xbe840228	-0.25782895
44	0xbcbc293b	-0.022968879
45	0xbed35c3c	-0.41281307
46	0xbcf64133	-0.030060386
47	0x3f30ad24	0.6901419
48	0x3e824cec	0.25449312
49	0x3d4f6ae0	0.050639033

weight f4 [50, 50]
0	0xbbee1db7	-0.007266726
1	0x3db5a28c	0.08868894
2	0x3bce3e0f	0.006294019
3	0x3db499cc	0.08818397
4	0x3ccbfdb1	0.024901243
5	0x3cd7a60c	0.026324295
6	0x3c31fbd2	0.010863261
7	0xbc04eb79	-0.008112782
8	0x3e375c39	0.17906274
9	0x3d82ce40	0.06386995
10	0x3e759663	0.23983149
11	0x3dffecbd	0.12496326
12	0x3d38673e	0.045020334
13	0x3b976f92	0.0046214545
14	0xbc715617	-0.014729998
15	0x3daa610d	0.08319292
16	0xbd306c0b	-0.043071788
17	0xbe419e0b	-0.18907945
18	0x3d25fc63	0.040523898
19	0x3cd116ba	0.025523532
20	0x3b77c2eb	0.003780539
21	0xbc5fc994	-0.0136589
22	0x3dff9b1b	0.12480756
23	0x3dd78917	0.10524195
24	0x3d586f42	0.05284048
25	0x3e00949e	0.12556693
26	0xbc6c3488	-0.014416821
27	0xbc55c775	-0.013048043
28	0xbce33538	-0.027735338
29	0xbb6ef513	-0.0036461994
30	0xbc6c3488	-0.014416821
31	0x3e130c76	0.14360222
32	0xbc02ef79	-0.007991665
33	0x3cae2663	0.021258539
34	0x3b4340e5	0.0029793319
35	0xbd1925d1	-0.03738958
36	0x3b891791	0.0041837175
37	0xbca7084f	-0.020389704
38	0x3d477493	0.04869516
39	0xbd012ac1	-0.031534914
40	0x3cf19cd7	0.029493732
41	0xbd097c85	-0.033566017
42	0xbc6c3488	-0.014416821
43	0xbcccdf24	-0.025008745
44	0x3d4e5b79	0.050380204
45	0x3e686909	0.22696318
46	0x3d1204c4	0.035649076
47	0xbcb2713a	-0.021782506
48	0xbc6c34a6	-0.014416849
49	0x3dc2b3c4	0.09506944
50	0x3bdd3f95	0.0067519643
51	0x3dbe724a	0.09299143
52	0xbdd791bd	-0.10525844
53	0x3df6d357	0.120520286
54	0x3e87ae5f	0.26500222
55	0x3da8a339	0.08234257
56	0x3d88372a	0.06651147
57	0x3b54607f	0.003240615
58	0xbc5d3357	-0.01350101
59	0xbc538d04	-0.012912039
60	0x3d503849	0.050834928
61	0xbd8524b5	-0.06501142
62	0x3c302aa2	0.010752352
63	0x3da8a5be	0.08234738
64	0xbca70c3c	-0.020391576
65	0xbd5aad0b	-0.053387683
66	0xbcb078bd	-0.021541947
67	0xbd0ab1ca	-0.03386096
68	0xbd0824d6	-0.033238254
69	0xbbdfddf1	-0.0068318774
70	0xba70cdfa	-0.00091859663
71	0xbc6ec0e5	-0.014572357
72	0x3b88dbe9	0.004176606
73	0x3dc0e339	0.09418339
74	0xbc6f3456	-0.01459988
75	0x3ddffb6a	0.10936625
76	0x3ca58674	0.020205714
77	0x3dd186bc	0.10230777
78	0xbc3d70a1	-0.011562497
79	0xba8387ab	-0.0010034939
80	0x3d08b8d2	0.033379383
81	0x3cc3381d	0.023830468
82	0xbc08685b	-0.0083256615
83	0x3d02bb15	0.031916697
84	0x3d894155	0.06701914
85	0x3ca3af75	0.019981125
86	0x3db282c4	0.08716348
87	0xbd152b95	-0.036418516
88	0x3dd5b8d7	0.10435646
89	0xbcd44c3a	-0.025915254
90	0xbc6f3456	-0.01459988
91	0xbcc5c955	-0.024143854
92	0xbc6f3456	-0.01459988
93	0xbcf5094c	-0.02991166
94	0xbc735a29	-0.014853039
95	0xbb484743	-0.0030560053
96	0xbb088f3b	-0.0020837325
97	0xbd13b668	-0.036062628
98	0xbbda524c	-0.0066626426
99	0xbc6cbc9e	-0.014449267
100	0x3d9d6c58	0.076866806
101	0x3b8ccee2	0.0042971233
102	0x3dc9a151	0.09845222
103	0x3e15b9e4	0.14621693
104	0x3d7086c6	0.05872228
105	0x3c39f035	0.011348774
106	0x3d968f04	0.07351497
107	0xbc92ea5b	-0.017934015
108	0xbbae7383	-0.0053238287
109	0x3d71ee0c	0.05906491
110	0x3b6be844	0.0035996595
111	0xbd152510	-0.0364123
112	0xbb92378d	-0.0044621886
113	0x3bc6a1ed	0.0060617835
114	0xbbda0d35	-0.0066544064
115	0x3a9acb08	0.0011809776
116	0xbd6e8ef0	-0.058241785
117	0x3ceeea11	0.029164346
118	0xbd464fbe	-0.04841589
119	0xbd690d7b	-0.05689762
120	0x3bddd104	0.0067693014
121	0x3dd551ea	0.104160145
122	0x3d05ee56	0.032697998
123	0x3e0bf3f5	0.13667281
124	0x3dfc5f22	0.12322833
125	0x3c98cbdf	0.0186519
126	0xbb92378d	-0.0044621886
127	0x3d5cee2c	0.053938076
128	0xbb31b38d	-0.0027115077
129	0x3dec4dba	0.11538263
130	0xbb92378d	-0.0044621886
131	0x3e34277c	0.17593187
132	0x3cf9dab9	0.030499803
133	0xbd87b4b5	-0.06626264
134	0x3c04ac1c	0.008097675
135	0x3dc99268	0.09842378
136	0x3c644703	0.013932946
137	0x3cdd86be	0.02704179
138	0xbbba9c3a	-0.005694893
139	0xbd9280f7	-0.07153504
140	0xbb92378d	-0.0044621886
141	0x3c030fae	0.007999344
142	0xbb92378d	-0.0044621886
143	0x3d1817c4	0.03713204
144	0xbb912c73	-0.0044303476
145	0x3ca82584	0.020525701
146	0x3c1f5650	0.009725168
147	0xbd207b3d	-0.03918003
148	0x3dde07ca	0.108413294
149	0x3dc8fda8	0.09814006
150	0xbc1221ad	-0.008919162
151	0xbbdf1e87	-0.006809059
152	0x3e04c889	0.12967123
153	0x3d7e0bd4	0.062023
154	0xbd4b6f95	-0.04966696
155	0x3d720009	0.059082065
156	0x3d22cab0	0.03974408
157	0x3c16bb03	0.0091998605
158	0x3da00546	0.07813506
159	0xbc5c9163	-0.013462397
160	0x3bd12ded	0.0063836486
161	0x3cdd737b	0.027032604
162	0x3dde135d	0.10843537
163	0x3d62151f	0.055195924
164	0xbd1330b2	-0.03593511
165	0x3e157ffa	0.145996
166	0xbbf2af4c	-0.007406151
167	0x3d323a24	0.04351248
168	0xbd0bb46c	-0.03410761
169	0x3cb3d991	0.02195433
170	0x3d5d68e7	0.05405512
171	0x3dcc260f	0.099681966
172	0x3d4ca584	0.049962536
173	0x3bb048f6	0.0053797914
174	0x3d4a81e8	0.049440295
175	0xbcca1c3e	-0.02467167
176	0x3d8cfa7d	0.06883714
177	0xbd19ab3e	-0.037516825
178	0xbd4ddb58	-0.05025801
179	0x3e08265a	0.1329588
180	0x398147c1	0.00024658258
181	0xbcbc9d6b	-0.023024281
182	0x3bf4fca0	0.0074764043
183	0xbd61e29c	-0.055147752
184	0x3c85f06b	0.016349992
185	0xbcd3da69	-0.025860982
186	0x3de50c4f	0.11183988
187	0x3dddfc36	0.10839121
188	0xbd46f6ba	-0.04857514
189	0xbc141659	-0.009038531
190	0x3dbce1e5	0.092227735
191	0xbc444738	-0.0119798705
192	0x3d141c5e	0.036159866
193	0x3db4e4a2	0.08832671
194	0x3d128095	0.035767157
195	0x3ccbb36e	0.024865832
196	0x3be27c33	0.0069117784
197	0xbcd6b34e	-0.026208546
198	0xbcca1c30	-0.024671644
199	0xbce37370	-0.027765006
200	0xbb56250f	-0.0032675897
201	0x3dbad90f	0.09123432
202	0x3cc76843	0.024341708
203	0x3be14442	0.006874592
204	0xbc1ef7e1	-0.009702654
205	0x3d0fec00	0.035137177
206	0xbc378e16	-0.0112033095
207	0x3d2e69a5	0.04258122
208	0xbc9dfe7a	-0.019286383
209	0x3bd14fc2	0.0063876817
210	0xbd2e4fa2	-0.042556413
211	0x3b8f9a9e	0.0043824455
212	0xbc378e16	-0.0112033095
213	0x3d562772	0.05228371
214	0xbc1efcaa	-0.0097037945
215	0xbd20c9c8	-0.039254934
216	0x3ca46b68	0.020070747
217	0x3d27ae25	0.04093756
218	0x3d2b40ef	0.041809972
219	0x3d2a134d	0.041522313
220	0x3dfe3877	0.124131136
221	0x3da73819	0.08164997
222	0x3e024471	0.12721421
223	0x3b43e341	0.0029890093
224	0xbc378e16	-0.0112033095
225	0x3d0646ac	0.03278224
226	0x3d6dff52	0.05810482
227	0x3d79ba10	0.06096846
228	0xbc4c857a	-0.012482995
229	0x3deb09c5	0.11476473
230	0xbc378e16	-0.0112033095
231	0x3d6e4b73	0.058177423
232	0xba4ae26e	-0.0007739429
233	0x3c203c19	0.009779953
234	0x3de2c39e	0.11072467
235	0x3e0806b0	0.13283801
236	0x3d330796	0.043708406
237	0x3dbded0b	0.09273728
238	0xbb5cfcd5	-0.0033720036
239	0xbbf98420	-0.0076146275
240	0x3cd24b44	0.025670655
241	0x3e0101be	0.12598321
242	0x3d44d41c	0.048053846
243	0x3ce03550	0.027369171
244	0xbc3d57d7	-0.011556587
245	0x3ab05877	0.0013454099
246	0x3a4e2478	0.00078637106
247	0xbc41e7dd	-0.011835066
248	0xbc378e07	-0.011203296
249	0x3b8a8e1b	0.004228366
250	0x3d438be8	0.047740847
251	0x3b413381	0.0029480162
252	0x3bdd5612	0.006754645
253	0x3d0bfc95	0.034176428
254	0xbb1e28a1	-0.0024133103
255	0x3de1b3c5	0.110206164

bias f4 [50]
0	0xbc6c349e	-0.014416842
1	0xbc6f341d	-0.014599827
2	0x3e0257d1	0.12728812
3	0xbc8b4bdd	-0.017003948
4	0xbc378dfd	-0.011203286
5	0x3c94ad8b	0.018149158
6	0xbc9c88c8	-0.019108191
7	0x3a3aaf28	0.0007121437
8	0xbd186611	-0.037206713
9	0x3ce441eb	0.027863463
10	0xbc95f7d2	-0.018306646
11	0x3bd4d3da	0.0064949812
12	0xbc9f243f	-0.019426463
13	0x3d9252ce	0.071447
14	0x3d0706a3	0.032965314
15	0xbc3dbd47	-0.011580772
16	0x3da33e65	0.07970885
17	0xbcd92304	-0.026505955
18	0x3d705a4e	0.05867987
19	0x3da94309	0.08264739
20	0x3c6c6739	0.014428907
21	0xbc060133	-0.008178997
22	0x3d510035	0.051025588
23	0x3d987346	0.07443862
24	0x3db12aa8	0.08650714
25	0xbd8f4880	-0.0699625
26	0x3df4b633	0.11948814
27	0x3c4435fb	0.011975761
28	0xbb9649dc	-0.0045864414
29	0x3d655578	0.055989712
30	0x3e327b05	0.1742974
31	0xbd08f635	-0.033437926
32	0xbbf2903e	-0.007402449
33	0xbc133f8f	-0.0089873215
34	0xbcf415fe	-0.029795643
35	0xbd000165	-0.03125133
36	0x3d2ccbe0	0.042186618
37	0xbc1607a2	-0.009157093
38	0x3bddde4b	0.006770884
39	0x3d360122	0.044434674
40	0x3bbb120c	0.0057089385
41	0x3cdadef1	0.026717635
42	0xbca1945d	-0.019724065
43	0x3d5614c9	0.052265916
44	0xbc743625	-0.014905487
45	0x3dbe6993	0.092974804
46	0x3d195856	0.03743776
47	0x3d29f0fc	0.041489586
48	0x3d844f85	0.0646048
49	0x3d95a0dd	0.07306073

weight f4 [50, 50]
0	0x3abf310d	0.0014586762
1	0x3e483582	0.19551662
2	0xbd04dcaf	-0.032437023
3	0xbc0f1416	-0.008732816
4	0xbdda707e	-0.106659874
5	0x3e103cef	0.14085744
6	0xbdbbd799	-0.09171981
7	0xbd8948ce	-0.067033395
8	0xbc34cadd	-0.0110346945
9	0x3cd22c6d	0.02565595
10	0x3d1ad5d0	0.037801564
11	0xbc2174de	-0.009854523
12	0x3d15aeb8	0.036543578
13	0x3d02536b	0.031817835
14	0xbd69df34	-0.05709763
15	0x3e0a8a8d	0.13529415
16	0x3e40d0b1	0.1882961
17	0x3d28dc6a	0.04122583
18	0x3c7af71f	0.015317707
19	0x3dbc2223	0.091861986
20	0xbc6e12a2	-0.01453081
21	0x3d4dc9e3	0.050241362
22	0xbddc66f8	-0.10761827
23	0xbe1b51f3	-0.1516798
24	0x3cd2266e	0.02565309
25	0x3e82f757	0.2557933
26	0xbd6b1c6f	-0.057400163
27	0xbe1602c7	-0.14649497
28	0xbdd5111b	-0.10403653
29	0xbd42a84c	-0.04752378
30	0x3e00ae03	0.1256638
31	0x3dc9e7ec	0.09858689
32	0x3ddff6c7	0.10935741
33	0x3df60e78	0.120144784
34	0x3d147aff	0.03625011
35	0x3e46b7a5	0.19405992
36	0x3e5b6dfd	0.21428676
37	0xbd4a24e8	-0.049351603
38	0xbe296b41	-0.1654482
39	0x3d865506	0.06559186
40	0x3df022c3	0.1172538
41	0xbad5574c	-0.0016276627
42	0xbd9227af	-0.07136475
43	0xbdb2fc55	-0.08739535
44	0x3c328ff8	0.010898583
45	0x3e941865	0.28924862
46	0x3c52186b	0.0128232045
47	0xbd8df6ba	-0.06931825
48	0x3c9c0153	0.0190436
49	0xbcc2b49f	-0.023767767
50	0x3c84d3a9	0.016214209
51	0x3dbb71c0	0.091525555
52	0xbce70c20	-0.028204024
53	0x3dd4427a	0.10364242
54	0xbc81f4af	-0.015863745
55	0xbccaf09b	-0.024772933
56	0xbcdd7e7d	-0.027037853
57	0xbafd98b7	-0.0019347881
58	0xbc9b09f0	-0.018925637
59	0xbc4eaf4a	-0.012615034
60	0x3e01630a	0.12635437
61	0x3c97b255	0.018517653
62	0x3d03dde0	0.03219402
63	0xbd3aa567	-0.045567896
64	0x3dba9493	0.091103695
65	0xbb07147e	-0.002061158
66	0xbd0ce960	-0.03440225
67	0xbd5e7e3d	-0.05431961
68	0xbb7f7cc1	-0.0038984271
69	0xbc4e3a67	-0.012587166
70	0xba09ed34	-0.0005261481
71	0xbc54e10a	-0.012993107
72	0x3c91ac67	0.017782403
73	0x3ca5bb3e	0.020230886
74	0xbcf04c24	-0.029333182
75	0x3cd4fb00	0.025998592
76	0x3d53668a	0.05161146
77	0x3c9c2117	0.019058747
78	0x3d8f9b30	0.070120215
79	0x3cb33b93	0.021878993
80	0xba944381	-0.0011311622
81	0xbd5cfc10	-0.053951323
82	0x3dc53ecb	0.096311174
83	0xbd09fd88	-0.033689052
84	0x3d5aa664	0.05338134
85	0xbc95acb2	-0.018270824
86	0xbcb46ef8	-0.02202557
87	0xba63dc37	-0.00086921774
88	0x3c515799	0.012777233
89	0x3de3d89f	0.111253016
90	0xbcc68277	-0.024232132
91	0xbd310417	-0.04321679
92	0xbd73524a	-0.05940465
93	0xbd0a6d34	-0.03379555
94	0x3cc7d91a	0.024395514
95	0xbcbb9a3c	-0.022900693
96	0xbcfa9150	-0.030586869
97	0xbd0e1eae	-0.034697227
98	0x3d31b312	0.043383665
99	0xbcec95ef	-0.028880088
100	0xbcea941e	-0.02863508
101	0x3d3a0bce	0.045421414
102	0x3d323e95	0.043516714
103	0xbcd8e219	-0.026475
104	0x3d59d690	0.05318314
105	0xbd4bbcb1	-0.049740497
106	0xbd305ea6	-0.043059014
107	0x3d683f39	0.05670092
108	0xbcfcdeb1	-0.030867906
109	0x3d7705e7	0.060308363
110	0x3ca45efa	0.02006482
111	0x3c44264c	0.011972021
112	0x3dc7f348	0.09763199
113	0x3d2bac6c	0.04191248
114	0x3e04f9c7	0.12985907
115	0x3c7bec51	0.015376166
116	0xbc511e3c	-0.012763556
117	0x3d226c86	0.039654277
118	0xbc1d2fe0	-0.009593934
119	0x3c9a8eb9	0.018866884
120	0xbd25853b	-0.04041026
121	0xbced4fb7	-0.028968675
122	0xbd97e858	-0.07417363
123	0x3d1f2887	0.03885701
124	0x3e119eaf	0.14220689
125	0xbda12eb1	-0.07870234
126	0xbcc3dfd6	-0.023910444
127	0x3ce5d723	0.028056687
128	0x3cfce347	0.030870093
129	0x3c467a2e	0.012114091
130	0x3dd55da8	0.10418254
131	0xbd982e0d	-0.074306585
132	0x3c2cd590	0.010548964
133	0xbd5184b5	-0.05115195
134	0xbc97fba5	-0.01855261
135	0x3bc3160e	0.005953557
136	0xbc5537c8	-0.013013788
137	0xbc24e8f0	-0.010065302
138	0x3d7e41e9	0.062074576
139	0x3d093773	0.033500146
140	0xbcdbcb3f	-0.026830314
141	0xbb89dc3f	-0.0042071636
142	0x3e2c39eb	0.16818969
143	0x3d43509c	0.047684297
144	0x3daefbb3	0.085441016
145	0x3c9e2aa5	0.019307444
146	0x3dc1c57a	0.09461494
147	0xbc0e72bb	-0.008694346
148	0xbd2c1527	-0.04201236
149	0xbaa472c2	-0.0012546408
150	0x3d94e055	0.072693504
151	0xbd8de263	-0.069279455
152	0xbd593bf0	-0.053035676
153	0xbd176d89	-0.036969695
154	0xbcd33f9f	-0.025787173
155	0xbcef8903	-0.029240137
156	0x3d77e92f	0.060525116
157	0x3beed153	0.007288137
158	0xbc8541eb	-0.016266784
159	0x3c0108f0	0.007875666
160	0x3bdb4151	0.006691136
161	0xbd1e59e2	-0.038659938
162	0xbcd37d01	-0.025816442
163	0x3db0ec02	0.08638765
164	0xbb109726	-0.0022062748
165	0xbd038060	-0.03210485
166	0xbd0d4d80	-0.034497738
167	0x3e0a531d	0.13508268
168	0xbce0631a	-0.027391005
169	0x3dae18e5	0.08500842
170	0xbd0b2b63	-0.033976924
171	0xbd21ac2c	-0.039470837
172	0xbd585357	-0.052813854
173	0xbb6f4913	-0.0036512061
174	0xbd1b60c7	-0.03793409
175	0xbd2f0f80	-0.04273939
176	0xbcbc93a9	-0.023019629
177	0xbc81e22d	-0.01585492
178	0xbd19914a	-0.037492074
179	0x3dd984a0	0.10620999
180	0xbd046e6d	-0.032331873
181	0xbd06d1d3	-0.032914948
182	0xbd0d259c	-0.034459695
183	0xbd3004f8	-0.04297349
184	0xbacbdf19	-0.0015554159
185	0x3cb969cf	0.022633461
186	0x3dd9de01	0.10638047
187	0xbd136831	-0.035988037
188	0x3dc114dd	0.094278075
189	0xbc9e9583	-0.019358402
190	0xbd1737c2	-0.03691841
191	0x3c11a39a	0.008889103
192	0xbcda515c	-0.026650123
193	0xbcd1c061	-0.025604429
194	0x3d741feb	0.05960075
195	0xbcc7e8ea	-0.024403054
196	0x3d5e7558	0.054311126
197	0xbc9dddf1	-0.019270869
198	0xbc8b0bdf	-0.016973434
199	0x3df2fa38	0.11864132
200	0x3d2c22c2	0.042025335
201	0xbd4788e7	-0.048714545
202	0x3d98c270	0.07458961
203	0x3dba7699	0.09104652
204	0xbd6d7953	-0.057977032
205	0xbb3ba1a2	-0.0028630276
206	0xbdfe9dd5	-0.12432448
207	0xbe691607	-0.22762309
208	0xba2efc60	-0.000667518
209	0xbc8c53ca	-0.017129797
210	0x3e0f488f	0.13992523
211	0x3dbc17c7	0.09184223
212	0xbe066545	-0.13124569
213	0x3dd4937f	0.10379695
214	0x3e1c2bee	0.15251133
215	0x3e68b144	0.22723871
216	0x3e267dea	0.1625897
217	0xbda9d049	-0.0829168
218	0xbbd04071	-0.0063553383
219	0x3d735ed0	0.059416592
220	0x3e2e5c14	0.17027313
221	0xbcc4d8ac	-0.024029098
222	0xbd5dbd79	-0.054135773
223	0x3e3a6808	0.18203747
224	0x3d9a1af2	0.07524671
225	0x3ec2590b	0.3795856
226	0x3dafb05d	0.085785605
227	0xbdf32e5f	-0.11874079
228	0xbe12f4d6	-0.1435121
229	0xbe7a5176	-0.24445137
230	0x3dd27807	0.102768
231	0x3dc86650	0.097851396
232	0x3b7724ab	0.0037711065
233	0xbd102da7	-0.035199787
234	0x3e05a7dd	0.13052316
235	0x3d44a799	0.048011396
236	0x3da02824	0.07820156
237	0xbe6e2d6f	-0.23259519
238	0xbe2908e8	-0.16507304
239	0x3d3ef677	0.046621766
240	0xbcdd4a59	-0.02701299
241	0xbc4a65dc	-0.012353387
242	0x3ccd29d8	0.025044367
243	0xbd73a675	-0.059484918
244	0x3e17d15e	0.14825961
245	0x3ddd75eb	0.10813507
246	0xbcfe29df	-0.031025825
247	0xbd6d1443	-0.05788065
248	0x3e101c98	0.14073408
249	0x3c7482f0	0.014923796
250	0xbc0119b8	-0.007879667
251	0x3e0c3b03	0.13694386
252	0xbbac2cae	-0.0052543497
253	0xbcbb2ea4	-0.022849388
254	0xbcdd8a0f	-0.02704337
255	0xbce695ca	-0.028147597

bias f4 [50]
0	0x3dc58f5b	0.096464835
1	0xbcbf2d00	-0.023336887
2	0xbc3a4152	-0.011368113
3	0x3cd92e23	0.026511258
4	0x3dbd3a4f	0.09239637
5	0xbcceaf87	-0.025230182
6	0x3e06facf	0.13181613
7	0xbd09c07e	-0.03363084
8	0xbbf78567	-0.0075537446
9	0x3e1ac9fe	0.15116116
10	0x3e1b0ded	0.15142031
11	0x3c771b61	0.015082211
12	0xbc700804	-0.014650349
13	0x3dae9172	0.08523835
14	0x3c92c976	0.01791833
15	0x3cba65fe	0.022753712
16	0x3ddef35b	0.1088626
17	0x3ca04846	0.019565713
18	0xbb10fed3	-0.0022124543
19	0x3d267a2f	0.040643867
20	0xbd1aa189	-0.03775171
21	0x3ceeaf78	0.029136404
22	0x3b98f5f6	0.0046679927
23	0xbd170110	-0.036866248
24	0xbbc2af34	-0.005941296
25	0xbd05e278	-0.03268668
26	0xbd37da17	-0.04488572
27	0x3c818a7d	0.015813107
28	0xbc21b238	-0.009869151
29	0x3d06af2a	0.032881893
30	0x3c978155	0.018494288
31	0x3d977de2	0.07397057
32	0x3d54a74a	0.05191735
33	0xbac31d59	-0.0014886066
34	0x3c7ed2cb	0.015553187
35	0x3da5f2f1	0.08102978
36	0xbba59c71	-0.0050540497
37	0xba1d1f84	-0.0005993771
38	0x3d45ccc4	0.048290983
39	0xbc8c186b	-0.017101487
40	0xbd3bd9c2	-0.045861967
41	0xbc86dc30	-0.016462415
42	0xbd38a4fd	-0.04507922
43	0xbbaee11d	-0.005336894
44	0x3dbc3fd3	0.09191861
45	0xbd47ff49	-0.048827443
46	0xbd67772f	-0.056510147
47	0x3ca37a5a	0.019955803
48	0xbd0a7ec5	-0.033812303
49	0x3cedb610	0.029017478

weight f4 [5, 50]
0	0xbd130a7f	-0.03589868
1	0xbd023a66	-0.031793974
2	0x3bd9464a	0.0066306936
3	0xbbab7c3d	-0.005233316
4	0xbd33e11f	-0.043915864
5	0xbc59a63c	-0.013284262
6	0x3d9a69a9	0.07539684
7	0x3baae732	0.005215549
8	0x3d0679d4	0.032831028
9	0x3d44669f	0.04794943
10	0x3d79257e	0.06082677
11	0xbcfe1890	-0.031017572
12	0xbc87e553	-0.016588842
13	0xbc44f1ad	-0.012020511
14	0xbc57161a	-0.013127828
15	0x3da6eab6	0.08150236
16	0x3dd3eba3	0.103476785
17	0x3c15c95e	0.009142248
18	0x3b906419	0.004406464
19	0xbcbb453d	-0.022860164
20	0xbd13271c	-0.03592597
21	0xbcfb6eb9	-0.030692445
22	0x3c93bb73	0.018033719
23	0xbcaa4475	-0.020784596
24	0x3c151132	0.009098338
25	0xbc127138	-0.008938126
26	0xbb4e790e	-0.003150526
27	0xbcb0a0e1	-0.021561088
28	0x3cfdfa09	0.031003015
29	0x3d93299b	0.0718567
30	0x3df666e7	0.12031346
31	0xbb4ecb5a	-0.0031554312
32	0x3d83eeba	0.06442018
33	0x3da87ee1	0.08227325
34	0xbc797196	-0.015224835
35	0xbc6c792c	-0.0144331865
36	0xbc878d2e	-0.016546812
37	0x3d01d4f7	0.03169724
38	0x3d419346	0.04725959
39	0x3b36c300	0.0027887225
40	0x3b2aa970	0.0026040934
41	0x3db051a7	0.08609324
42	0xbcdcc545	-0.026949534
43	0xbcd793bb	-0.02631556
44	0x3da254c8	0.07926327
45	0xbcf9f765	-0.030513475
46	0xbb702e68	-0.0036648754
47	0xb9b933a8	-0.00035324437
48	0x3bc143d1	0.005897977
49	0xbc284a4b	-0.010271619
50	0x3d85a53f	0.06525659
51	0xbab8e5c0	-0.0014106557
52	0x3b9dcf2f	0.004815958
53	0x3bbc35e2	0.005743728
54	0xbc0d4154	-0.0086215325
55	0xbcefa06c	-0.0292513
56	0xbc4aa72c	-0.012368958
57	0x3d279439	0.04091284
58	0x3bf7a677	0.007557686
59	0xbd12149f	-0.035664197
60	0x3cbdf27d	0.023186916
61	0xbcac883c	-0.021061055
62	0x3d551350	0.05202037
63	0x3daad804	0.08341983
64	0x3dc98141	0.09839106
65	0xbbc9e6bd	-0.0061615393
66	0xbcee09f0	-0.029057473
67	0x3da2ce78	0.07949537
68	0x3bf870fa	0.007581827
69	0xbca7e5e3	-0.02049536
70	0x3cf72234	0.030167677
71	0xbc7431ea	-0.014904479
72	0xbc1c023d	-0.009522018
73	0x3ba740a8	0.005104143
74	0xbd059735	-0.032614905
75	0x3aa6b8aa	0.0012719829
76	0x3beb9c47	0.0071902606
77	0xbd2743c3	-0.040836107
78	0x3c87f8ab	0.016598066
79	0xbb468ff5	-0.0030298207
80	0x3da057d9	0.078292556
81	0x3dcfe976	0.10151951
82	0xbcb40bc3	-0.021978265
83	0x3c3a4f66	0.011371469
84	0x3d6f2929	0.058388863
85	0xbc12df8f	-0.008964433
86	0x3d1f5e3b	0.038908225
87	0x3d724cfa	0.05915544
88	0xbc0fe5bf	-0.008782803
89	0xba70ce5c	-0.00091860234
90	0x3c5fc93f	0.013658821
91	0x3db409c4	0.08790925
92	0x3d5389e6	0.051645182
93	0xbc969b09	-0.018384473
94	0x3d9f2cb9	0.07772202
95	0xbd583cd5	-0.05279239
96	0x3c8efc58	0.017454311
97	0x3ac0a824	0.0014698547
98	0x3a54ba5f	0.00081149297
99	0x3d567afa	0.052363373
100	0x3d6a3b1e	0.057185285
101	0x3ce25755	0.027629534
102	0xbaab2556	-0.0013057392
103	0x3c9b3672	0.01894686
104	0x3db4fb13	0.08836951
105	0xbc2692d5	-0.010166843
106	0xbc7bb776	-0.015363565
107	0x3cb6700e	0.022270229
108	0x3c6ba237	0.014381937
109	0xbcefb00c	-0.02925875
110	0xbcad1a5c	-0.021130733
111	0xbcc1fe61	-0.023680868
112	0x3d5fa619	0.054601762
113	0xbccd45f9	-0.02505778
114	0xbc82ceb9	-0.015967714
115	0xbd007d48	-0.031369478
116	0xbcf69fb8	-0.030105457
117	0xbc81e9db	-0.015858581
118	0xb9dbfe32	-0.00041960325
119	0x3db4b036	0.08822672
120	0x3d5f0c83	0.05445529
121	0x3d92b7f7	0.07163995
122	0xbc84b204	-0.016198166
123	0x3c77f1de	0.015133349
124	0xbc919fe5	-0.017776439
125	0x3ba7d6da	0.005122048
126	0x3c3f2b31	0.0116680125
127	0xbcea57be	-0.028606292
128	0xbbfa9cd0	-0.007648088
129	0xbd0737d5	-0.03301223
130	0xbc93dd4d	-0.01804986
131	0x3bdc478e	0.006722397
132	0xbcf4aa9d	-0.029866511
133	0xbcd6dc5c	-0.026228122
134	0xbc052d02	-0.0081284065
135	0xbca0c204	-0.019623764
136	0x3cec5f87	0.028854145
137	0x3cb90e8e	0.022589948
138	0xbcb308a3	-0.021854704
139	0x38328326	4.256065e-05
140	0x3be949ab	0.0071193776
141	0x3b862237	0.004093434
142	0x3daf22bd	0.08551548
143	0xbc93fa59	-0.018063711
144	0x3b654631	0.0034984464
145	0xbd85712b	-0.06515726
146	0x3c5652ae	0.013081236
147	0x3acf1126	0.0015797957
148	0xbbb62cbc	-0.005559532
149	0xbc842ed8	-0.016135618
150	0xbce36720	-0.027759135
151	0x3d931f13	0.07183661
152	0xb951b531	-0.00019999292
153	0x3d059be2	0.032619365
154	0x3cdaefda	0.026725698
155	0x3d99dd54	0.07512918
156	0x3d9063af	0.07050263
157	0xbc1700ea	-0.0092165265
158	0x3d3c5af8	0.045985192
159	0xbbb5f652	-0.0055530453
160	0x3d15f478	0.036610097
161	0x3d07726f	0.033068117
162	0xbc813432	-0.015771959
163	0xbc338353	-0.010956603
164	0x3dc88755	0.097914375
165	0xbc492cab	-0.012278716
166	0x3d033692	0.032034464
167	0x3c7137e5	0.014722799
168	0xbbdad096	-0.0066776974
169	0xbbfcf9c6	-0.007720205
170	0x3c8b0df7	0.016974432
171	0xbc45f43a	-0.012082154
172	0xbc852757	-0.01625411
173	0x3cc4c590	0.024019986
174	0x3dc62be4	0.0967634
175	0xbc7725d5	-0.015084703
176	0x3d172b76	0.036906682
177	0x3b6beede	0.003600053
178	0xbc1bf230	-0.009518191
179	0x3d8e5bbd	0.069510914
180	0x3d596272	0.0530724
181	0xbd0e8d03	-0.034802448
182	0x3cc05903	0.023479944
183	0x3d9900ac	0.07470831
184	0x3d28b1fd	0.041185368
185	0x3e08ea1f	0.1337056
186	0x3cd84fca	0.026405234
187	0xbc4645dd	-0.012101618
188	0x3db85933	0.090013884
189	0x3d26c026	0.04071059
190	0x3c26962a	0.010167638
191	0xbbc69dc6	-0.0060612885
192	0xbc87e9cf	-0.01659098
193	0xbbb7eca2	-0.0056129256
194	0xbbc092d3	-0.005876878
195	0x3c25625e	0.010094253
196	0xbb04b3d0	-0.0020248778
197	0x3ba81d9d	0.0051304833
198	0x3c1ee23a	0.009697491
199	0x3dbed5bb	0.093181096
200	0x3dd562e4	0.104192525
201	0xbced5a45	-0.028973708
202	0x3ba63c0b	0.0050730756
203	0xbbcc6c56	-0.0062385006
204	0x3d96c8ba	0.07362504
205	0xbcf822db	-0.030290058
206	0x3d21a573	0.039464425
207	0xbca5d790	-0.02024439
208	0xbcf8e38d	-0.030381942
209	0x3de17927	0.11009436
210	0x3e2f2f1d	0.17107816
211	0x3e00cf87	0.12579165
212	0xbb9a2aee	-0.0047048246
213	0x3ddddee2	0.10833527
214	0x3de02d93	0.109461926
215	0xbc37f8af	-0.011228724
216	0x3df2961e	0.11845039
217	0x3dc5a4cc	0.09650573
218	0x3b310ef1	0.0027016962
219	0x3e2d9869	0.16952671
220	0xbbadfd9b	-0.005309773
221	0x3e073179	0.13202466
222	0x3d2ab3fd	0.041675556
223	0xbcc9635d	-0.024583513
224	0x3caf3f23	0.02139241
225	0x3bbee5c3	0.0058257296
226	0xbc84c764	-0.016208358
227	0x3dab6035	0.083679594
228	0x3c475339	0.012165838
229	0x3c113f1d	0.008865145
230	0x3d77fe67	0.06054535
231	0xbd334c8d	-0.043774176
232	0x3d84c008	0.064819396
233	0xbc80fc8e	-0.015745427
234	0x3e039016	0.12847933
235	0x3e0ee477	0.1395434
236	0xbd35b007	-0.044357326
237	0x3d06bb5c	0.032893524
238	0x3dabf587	0.0839644
239	0xbca9bc74	-0.020719744
240	0xbc047678	-0.008084886
241	0xbc26808e	-0.010162486
242	0xbcf16d05	-0.02947093
243	0x3d81809f	0.06323361
244	0xbb82f8f5	-0.003996963
245	0x3c0a2da8	0.008433737
246	0xbb3aa729	-0.0028480983
247	0xbbdd3c7f	-0.0067515965
248	0xbc6aaba4	-0.014323149
249	0x3dbf2914	0.09334007

bias f4 [5]
0	0x3c416c14	0.011805553
1	0xbd0e7929	-0.034783516
2	0x3dd193e7	0.10233288
3	0x3b8edd48	0.004359875
4	0x3d98769c	0.07444498
