digital_twin/pinn_0/model.pt (torch, 90793 bytes, 8 tensors)

weight f4 [100, 2]
000000 39 d8 6c bc d8 25 f6 ba a7 dd ae bc c8 5a 30 3b
       -0.014455848 -0.0018779589 -0.021345926 0.0026909579
000010 9c d6 7e bc 5c 29 be 3e ee 95 9b bc 99 69 f3 bc
       -0.015554097 0.3714093 -0.01899239 -0.029713439
000020 44 1c 46 3b 05 2a d1 bc b4 e2 29 3c 3d b0 5d 3d
       0.003022925 -0.025532732 0.010368992 0.054123152
000030 54 33 9e 3d 72 d9 9d 3e a6 76 95 bc b3 8c 85 3e
       0.07724634 0.3082996 -0.018245053 0.26083907
000040 b1 e3 28 bc 9f ac 73 3e 10 5f b3 bc 3e 0b f2 3e
       -0.010308192 0.23796318 -0.021895915 0.47274202
000050 c8 40 27 3c 38 eb ef bc 78 fe b7 bc 00 df 49 3e
       0.010208316 -0.029286966 -0.022460207 0.19713974
000060 db 97 0c bb 6f 6c f5 3e 68 ae da bb a0 ea c2 bc
       -0.0021452818 0.4793429 -0.006673623 -0.023793519
000070 a7 7e e8 3c 85 59 be bc 5b ed 00 3d 0c 67 3c bd
       0.028380705 -0.023236046 0.03147636 -0.04599671
000080 8f 9b 0c 3d b6 18 ac bc 29 94 7e bc e4 f5 1f 3e
       0.03432804 -0.021007877 -0.015538254 0.15621144
000090 4b 55 03 3d 88 05 13 bd 26 c0 e6 3c 31 4d 5e bd
       0.032063764 -0.035893947 0.028167795 -0.054272834
0000a0 73 14 bb bb 74 7e 8f bc 93 48 86 3c 8f 2f 0b 3e
       -0.005709225 -0.017516352 0.016392028 0.13592361
0000b0 d5 30 0a bd 5c 1a bc 3e 2e 45 16 bd 62 08 cf bc
       -0.033737976 0.3673886 -0.03668707 -0.025272552
0000c0 bd 85 a5 3a 89 04 db 3e 8f 66 3d 3c 0f b0 3e 3f
       0.0012628358 0.42776898 0.011560096 0.74487394
0000d0 2c 38 f6 3c fc d2 84 3f 7e 75 24 3c 68 83 58 bd
       0.030056082 1.0376887 0.010037778 -0.052859694
0000e0 9e f4 af bb c5 05 12 bc 71 d7 69 bc b3 b1 61 3c
       -0.005369737 -0.008912508 -0.014272557 0.013775277
0000f0 ae 7a 46 bc 42 d9 c6 3e 9a 5f f1 3c b7 96 70 bd
       -0.01211421 0.3883763 0.029464532 -0.058737483
000100 d6 e3 89 bc 4e f9 ea bb 69 cb f1 3b 00 aa 6e bd
       -0.016832273 -0.0071708327 0.0073789847 -0.058267593
000110 47 4b 90 bc 4f 08 de 3b 8d a7 59 bc 78 63 00 3b
       -0.01761402 0.006775893 -0.013284576 0.0019590538
000120 6a e4 9f 3a 90 51 6e 3f d4 17 fe 3c f9 7f 06 bd
       0.001219881 0.93093204 0.031017222 -0.032836888
000130 13 a8 4b bc 40 c7 c4 3c 21 3d 07 3d 95 55 16 3b
       -0.012430209 0.024020791 0.03301728 0.0022939194
000140 cc 44 2a bd d3 02 a5 3e b4 20 ae bb 37 d6 0d bc
       -0.041569516 0.32228717 -0.005313957 -0.00865703
000150 8b 57 d5 bb 12 a2 23 3f 28 1d e0 3c 41 5c b1 3b
       -0.00651068 0.63919175 0.027357653 0.005412609
000160 20 e2 a9 bc 08 8f a8 3e 5d b9 9e 3c 10 84 f7 3d
       -0.020737708 0.32921624 0.019375497 0.12085736
000170 39 38 bc bb 3b fa c2 bb 3a 92 fc 3c a6 da 1a bd
       -0.005744007 -0.00595024 0.030831445 -0.037806176
000180 0d 9e e8 bc 19 13 c9 3e d7 b7 0d 3d 94 08 91 3c
       -0.028395677 0.39272383 0.03459915 0.017704286
000190 49 46 0f 3d 1f 5c d1 3e 77 74 68 bc 96 c4 99 bb
       0.03497914 0.40890595 -0.014187924 -0.0046926243
0001a0 9a 3d db 3b 2b 9c 02 3f e8 86 75 3d 96 83 7b bd
       0.006690693 0.51019543 0.05994311 -0.061404787
0001b0 15 27 ce bb f0 4e 9b bc 69 68 ff ba ba 57 9d 3c
       -0.00629128 -0.018958539 -0.0019486073 0.01920687
0001c0 11 c1 44 bc 37 d5 18 bc 43 52 26 3c 67 c0 94 3f
       -0.012008921 -0.009328178 0.010151449 1.1621217
0001d0 4c ad cd bb 98 98 25 bc f7 39 e5 3d 62 bd 6a bd
       -0.006276762 -0.010107182 0.111926965 -0.057309516
0001e0 bc 60 0a bc ef 25 67 3e 28 40 28 3d 83 5d 87 bb
       -0.008445915 0.22573064 0.04107681 -0.0041310205
0001f0 c5 0f ba bc 55 ba 23 3e 29 e2 c1 bb 0b 73 99 bb
       -0.022712598 0.15989049 -0.005916853 -0.0046829036
000200 92 0f 17 3e 7b d2 be bd 2d cb 4c 3b 04 5b e6 3c
       0.14752033 -0.0931749 0.0031249032 0.028119572
000210 53 fc d4 3c 10 dd 9c bc 25 45 a8 bc fe 4a 1b 3f
       0.025999224 -0.01914838 -0.020540783 0.60661304
000220 4a b8 0c 3c 59 72 5c bd c8 9f 45 3c 07 d1 73 3f
       0.00858886 -0.053819988 0.012062021 0.95240825
000230 b6 f5 57 bc 2c f6 cc 3e 77 20 8c bc d0 6a e5 bb
       -0.013181141 0.40031564 -0.017105324 -0.0070012584
000240 9c b2 3b 3c 23 46 8f bc 2f 9d 97 3b 99 e3 53 3f
       0.011456158 -0.017489498 0.004626892 0.8276916
000250 62 f0 5f 3c 10 39 05 bc 7d b7 c2 bb 59 8d 1f 3f
       0.013668152 -0.008131281 -0.0059422837 0.62325054
000260 6a 91 36 3c d1 29 56 3f 96 98 c2 bc 29 7a 49 3e
       0.011143068 0.83657557 -0.0237544 0.19675507
000270 44 c1 ed 3c dd 24 47 3d 5f c5 d9 bb 1c 7c 41 3f
       0.02902282 0.04861914 -0.006645843 0.7558
000280 55 ac 4c 3b 0a b7 8c 3e a7 fe 15 3d 2b d5 1e bd
       0.0031230648 0.27483398 0.03661981 -0.03877751
000290 ee 66 7e bc 05 9f 3b 3c 2b 8f 6c bc 76 aa 83 3b
       -0.01552747 0.011451487 -0.014438431 0.0040181233
0002a0 dd dd ae 3e 7b 59 54 bd 5c 0d e2 bc 70 56 0b 3d
       0.34153643 -0.051843148 -0.02759426 0.03401798
0002b0 23 e2 ca 3b 9d 1d 7b 3f df ff 08 3c 94 b9 99 3f
       0.0061915084 0.9809206 0.008361786 1.2009759
0002c0 3f 6c 97 bb 0d 3b ff bc 76 f6 b2 bb 3d 13 88 bc
       -0.0046210582 -0.031156087 -0.0054615093 -0.016610736
0002d0 da 0d 66 bc 78 c6 11 3f 55 b2 c0 3c 78 47 f8 3e
       -0.014041388 0.56943464 0.023522535 0.48492026
0002e0 96 2c d6 bb 58 24 5f bb 02 b3 4b bb 3b b2 0a bc
       -0.006536077 -0.0034048762 -0.0031082039 -0.008465345
0002f0 f8 c6 8d 3d e0 9a 36 bc 60 fe d6 3c ae 12 30 bd
       0.06922716 -0.0111453235 0.026244342 -0.042986564
000300 ae be 58 bc 07 5d af 3b 63 b2 c5 3b cd ae 3f 3f
       -0.013229055 0.005351666 0.0060332282 0.748761
000310 28 f7 3d 3c 77 8b c7 bc 34 2c fd bb e0 3d 1e 3f
       0.011594571 -0.024358494 -0.0077262167 0.61813164

bias f4 [100]
000000 0a 30 1c bc 9d fe 0d 3f 90 10 b9 bd 84 84 1b 3f
       -0.009532938 0.55466634 -0.09036362 0.6074908
000010 90 a7 2b 3f 64 09 dc 3e 49 d2 c5 3d 62 d5 79 3e
       0.67052555 0.42975914 0.09659249 0.24397805
000020 b7 c2 8d bc ac 67 04 3c aa 9a 4d 3e b5 d9 29 3c
       -0.017304761 0.008081358 0.20078531 0.010366847
000030 22 0b bb 3e 5b e1 dc 3e 78 f9 66 bd ae 5d 9d bd
       0.3653193 0.43140683 -0.056390256 -0.076838836
000040 a0 34 49 be 2e a5 dc 3d f1 f1 47 be 1f f1 91 3d
       -0.19648981 0.10773693 -0.19525887 0.07126068
000050 3f 40 fa 3a b9 33 3c 3b 35 8d 2b 3c 5f c5 0b 3f
       0.0019092633 0.0028717353 0.010470678 0.5459804
000060 83 0b e1 bb b6 a3 3b 3f ac ea 21 3f b4 80 2b 3f
       -0.0068678274 0.7329668 0.63248706 0.6699326
000070 dd 5e 3a ba 12 9f cf ba 79 74 71 3e 29 41 7f bd
       -0.00071094726 -0.0015840253 0.23579587 -0.062318
000080 6f 14 3d bc c2 7f a2 3e 0b db c3 3e c9 59 3a bc
       -0.011540516 0.31738096 0.38253054 -0.0113739455
000090 2f c3 3f 3f 68 df ba bd e9 09 10 3f 26 fa 75 be
       0.749072 -0.091246426 0.5626512 -0.24021205
0000a0 f8 07 26 be 9b cc 44 39 dc 7f 52 be 62 9b 82 bd
       -0.16213977 0.00018768238 -0.20556587 -0.06377293
0000b0 7a 04 41 bd 71 9d 92 bc d8 b4 13 3c cb 25 81 bd
       -0.04712341 -0.01789734 0.0090152845 -0.063060366
0000c0 c5 69 00 3c f8 42 8d bd 60 cd fa 3e 01 6f 96 bc
       0.007837717 -0.06897539 0.48984814 -0.018363478
0000d0 cf c4 4b 3e f2 4e 1b 3f 46 0b 83 3b 5b fa cd 3d
       0.19899295 0.60667336 0.0039991466 0.10057517
0000e0 7e ba d5 3e dd fa bb 3e e5 a7 8d bb c5 20 61 3e
       0.41743845 0.3671483 -0.004322993 0.21985157
0000f0 86 03 b3 3e 2e af 63 be 03 49 54 bb e5 32 33 3b
       0.34963626 -0.22234794 -0.0032392151 0.0027343568
000100 30 ca c7 3d 14 7f 20 bd c5 e5 0a be e8 ee 3e be
       0.09755361 -0.03918369 -0.13564213 -0.18645823
000110 06 e1 51 bd a5 bb be 3e db 22 7b bc 56 54 16 3f
       -0.05123999 0.37252536 -0.015328134 0.58722436
000120 67 e2 0f 3e 64 42 41 3f 10 8c 20 3f cb 97 c6 bd
       0.1405121 0.7549193 0.6271372 -0.09696921
000130 4f 6f ba 3e a1 cf e4 3e 3b 94 f1 bd b0 43 78 3f
       0.36413047 0.44689658 -0.11795851 0.9697828
000140 bb 27 c1 bd 3f fd 0a 3f 27 f7 b4 3d 35 63 69 3b
       -0.09431406 0.5429267 0.08836203 0.003561211
000150 99 c8 09 3f 22 28 1e 3f ea 08 08 3f 4d b8 18 3f
       0.5382171 0.6177999 0.531386 0.5965622
000160 08 e3 9b 3e 91 83 3a 3c 17 1e 08 be b2 d9 59 3e
       0.3044665 0.011383907 -0.13292728 0.2127445
000170 8a a8 3f bc 40 f0 fe 3e 73 b5 06 bf 0e f8 0f be
       -0.011697898 0.4979267 -0.5262062 -0.14059469
000180 1c 28 00 bc f8 50 c7 3e b7 8d 06 3f 16 8f 31 3f
       -0.007822063 0.38928962 0.5255999 0.69358957

weight f4 [100, 100]
000000 c8 d6 00 3b cc 89 62 bc df c4 63 3d 62 5a 34 3c
       0.001965927 -0.013826799 0.055607673 0.011007877
000010 ca fc f9 bc 64 2b 43 3d 1a e6 9b 3c a6 de 48 bd
       -0.030516047 0.047648802 0.01903062 -0.04904046
000020 ad 87 be 3c 41 3d 4c bd 42 a4 85 bd 75 f6 cf 3b
       0.023258055 -0.049863104 -0.0652547 0.0063465186
000030 24 f2 97 3d 7d d9 0b 3c 0d 31 9f bc d7 c4 31 3d
       0.074192315 0.00853574 -0.019432569 0.04340061
000040 f3 d0 f6 b9 8c ed 14 3d 94 b8 a1 bc ae b9 4e 3c
       -0.00047076456 0.036359355 -0.019741334 0.012617512
000050 7b de 02 3d 81 10 b3 3d f3 83 a4 3b f0 8c bf bc
       0.031950455 0.08743382 0.0050206124 -0.023382634
000060 38 3c eb 3c c6 9a d5 bc e6 7a 38 3d a0 88 06 bd
       0.028715238 -0.026074778 0.04503908 -0.03284514
000070 01 ab 96 3b d5 39 c0 3d f7 04 92 bc f3 c3 f6 bb
       0.004598022 0.093860306 -0.017824633 -0.007530683
000080 1a c9 85 3c f5 8c 8c bc 43 8a 74 bc fb 9c e8 3a
       0.016331244 -0.017157057 -0.014925542 0.0017746979
000090 5e 12 87 3d df 6c 93 3d f1 8b b0 bc 0a 6c af 3a
       0.065953 0.071985 -0.021551104 0.0013383639
0000a0 4d 80 04 3d 4b 1a c5 3c 72 22 b1 3b 19 28 65 3d
       0.03234892 0.024060389 0.0054057175 0.055946443
0000b0 5d d1 c4 3b d7 b8 75 39 d6 b7 16 3b 2c 9a ca bc
       0.0060064034 0.00023433879 0.0022997758 -0.024731718
0000c0 a6 d9 6f bd 83 ef 70 ba a8 27 bf bc 5a 8c 8c 3d
       -0.058557175 -0.00091909635 -0.02333434 0.068627074
0000d0 0a 7c d8 bb 04 6e ef bc 69 b4 a9 3a bd 73 6d ba
       -0.0066065835 -0.029227264 0.0012947443 -0.0009058079
0000e0 4f 67 a4 bc 61 f9 e0 bb 04 67 4c 3c 4c e5 45 bc
       -0.020068793 -0.006865666 0.012475733 -0.012078594
0000f0 b5 77 30 bd d3 ef b6 bc b1 0c b7 3c 4b 6e 33 3d
       -0.04308291 -0.022331154 0.022344919 0.043806355
000100 b0 5a 94 bc 99 64 1d ba 48 fb a5 bc 77 f7 2e bd
       -0.01810965 -0.0006004065 -0.020261422 -0.04271647
000110 8a 73 a8 3b a5 03 ce 3b 96 f9 33 3d 75 49 1b 3d
       0.0051407265 0.0062870556 0.043939196 0.03791185
000120 19 2b 80 3d 0f 07 e1 bc eb e2 f9 bc 1f 94 bd bc
       0.0625822 -0.027469186 -0.03050371 -0.023141919
000130 7b 9e d2 3c 07 d2 19 3b 6e e4 cc 3b 6e 60 21 3d
       0.025710335 0.0023471133 0.006252817 0.039398603
000140 96 de 8e bc 2c 35 5f bb 71 88 ae bb 72 70 c4 3a
       -0.017440122 -0.0034058793 -0.0053263237 0.0014987125
000150 4a 6c 8f 3d 4d 3a 78 3d 68 7e 69 3c 2f 0f 96 3c
       0.070030764 0.060602475 0.014251329 0.018317787
000160 20 dd 94 3a cb 4c 3d 3b 11 91 4c bc 5f 73 88 3d
       0.0011357404 0.0028884884 -0.012485758 0.0666263
000170 56 5c 38 3d 5a 69 ea bc 37 50 cd bc 05 8a a8 3b
       0.045009933 -0.028614689 -0.025062663 0.0051434063
000180 fb 49 f3 3a 3d 57 c4 bc 5d cb 04 bd 88 9c bb bc
       0.0018561477 -0.02396738 -0.032420505 -0.022901788
000190 71 5f 13 3d ac 42 f3 b9 05 a6 38 bc f9 67 ea 3c
       0.035979692 -0.00046398246 -0.011270051 0.028614031
0001a0 bd 21 ba 3c 2c b1 50 3d 63 cf 89 bc 42 dd 50 3c
       0.022721166 0.050950214 -0.016822523 0.0127480645
0001b0 af 43 2a bc 7d 3a 44 bd 76 99 24 bd c6 57 ac 3d
       -0.010392114 -0.04790734 -0.040185414 0.08415179
0001c0 73 75 45 bc 09 84 18 3b eb 84 05 bc 81 8d 1b bc
       -0.012051928 0.0023272058 -0.008149366 -0.009494186
0001d0 4a 86 3c bc ed 98 80 bc 5b 24 2c 3d bc 7e 50 bc
       -0.011506626 -0.01569792 0.04202686 -0.012725528
0001e0 3d a4 24 3c e6 6b e4 3c 03 5e 08 3d f8 40 89 ba
       0.010048923 0.027883481 0.03329278 -0.0010471633
0001f0 1e 85 82 bc b5 65 13 3b 78 f9 66 bc 5a c3 6d 3d
       -0.015932616 0.0022491042 -0.014097564 0.05804763
000200 3a c4 2c 3c 77 dc 16 3c 39 4a 49 3d 95 2f 16 bc
       0.010544831 0.009207836 0.04914305 -0.009166618
000210 4c c7 01 3c 1d 1e 9c 3d 82 12 03 3b e3 ca 17 3c
       0.007921051 0.07622931 0.0020000045 0.009264681
000220 b4 05 a1 3d da e1 19 bc 5a 87 25 3d 17 0b 09 3d
       0.07862416 -0.009392226 0.040412284 0.03345784
000230 b1 5f 95 bc 09 f9 29 3c 1d 26 01 bd ea 49 23 bc
       -0.018234106 0.010374316 -0.03153049 -0.009966353
000240 58 20 ac bc 92 05 57 bc f6 73 b0 3c 07 0b 1c bc
       -0.021011516 -0.013123887 0.02153967 -0.0095241135
000250 7f 15 28 bd 64 c8 c4 bb b2 df 74 bc 21 07 d8 3c
       -0.041036125 -0.0060053337 -0.014945911 0.026370587
000260 5d 1a bf 3b a5 0e ad 3d 46 b1 1c 3c 39 d4 24 3c
       0.005832 0.08450059 0.00956375 0.010060363
000270 5e 32 18 ba e2 5a 70 bc 4e ba 2b 3c 1e 99 03 bc
       -0.0005805845 -0.014670106 0.01048143 -0.008032111
000280 5d 37 76 bb 27 66 d6 3b bc dd 50 3c 61 7c c4 3c
       -0.003756962 0.006542939 0.012748178 0.02398509
000290 b6 79 7d bc 52 cc ef bb d6 e6 5c 3c 27 0e 25 bc
       -0.015470913 -0.007318058 0.01348277 -0.010074175
0002a0 87 bf 29 bc db eb 6e 3d 12 fe 2b bd 21 fb d7 3c
       -0.010360605 0.058330398 -0.041990347 0.026364865
0002b0 4b 43 43 bc 2a 3e 18 3d 07 0d 84 3d 9c d1 8f 3c
       -0.011917899 0.03716866 0.06447797 0.017556004
0002c0 ec cc c3 3c fa fd 6f bc f1 bc 40 bc b9 6b 97 bc
       0.023901425 -0.014647955 -0.011763797 -0.018483983
0002d0 26 b0 0f bc ce b9 6e bc 17 27 60 3d b5 e0 8a 3d
       -0.008770024 -0.0145706665 0.05472478 0.06781141
0002e0 ea ab 9a bc b6 d7 27 bb 44 1a 6e bc 73 da 72 bc
       -0.018880803 -0.0025610751 -0.014532629 -0.01482259
0002f0 8a c4 57 3b 3a c9 a3 3d a0 cb 12 bc 55 8c 74 3c
       0.0032923543 0.07997365 -0.008959681 0.014926036
000300 77 2f cd 3d 10 48 3e bd 29 54 8e bc 4d c1 33 3d
       0.10018819 -0.046455443 -0.017374115 0.043885518
000310 b9 1c 90 3d 61 78 e0 3c 7a b6 84 3d 15 ed 52 3d
       0.070367284 0.027401151 0.06480117 0.05149563
000320 66 fc ae 3b ec 30 76 3d fd c8 4c bd 1e 93 d9 3c
       0.005340147 0.06010525 -0.049996365 0.026559409
000330 4c 6f 61 bc 9e a1 0b 3c af 3d 0d 3d 6a 0b a5 3a
       -0.013759445 0.008522419 0.034482654 0.0012591903
000340 07 0b a3 3c f4 93 75 bd 82 2f d3 3b ae 2d 85 bc
       0.01990272 -0.059955552 0.0064448724 -0.016257133
000350 3d 4c 88 3d 31 39 3f 3d 1e f5 a4 bb 5b f1 0a 3d
       0.06655166 0.0466854 -0.005034103 0.03392158
000360 8c c7 41 3d b7 af 3f 3c 97 65 ab bb 4a d5 b2 3d
       0.047309443 0.0116996085 -0.0052306163 0.08732088
000370 81 85 ae 3b 9b 3f 57 bc 07 dc b5 bb 1a 8e dd 3c
       0.0053259735 -0.013137723 -0.005549911 0.027045298
000380 6a 61 1f bc d1 22 3c bc 08 55 e0 3c bf 08 68 3d
       -0.009727815 -0.01148291 0.027384296 0.056648966
000390 76 20 b2 3b 82 a3 16 3d 24 4b 71 bd 71 8c b0 bb
       0.0054359986 0.036777027 -0.05890955 -0.0053878357
0003a0 7f ea 80 3b a0 d5 42 bc 81 84 9a 3d 16 4f a2 3b
       0.003934204 -0.0118917525 0.07544804 0.0049532754
0003b0 26 b2 91 bc a0 6e a8 bb ae f6 b4 bc 85 8f 76 3d
       -0.017785143 -0.0051401407 -0.022090282 0.060195465
0003c0 f4 fa 45 bd 8f dc 6f 3d bf 3c 90 bb 2a 85 ab bb
       -0.04833503 0.05855995 -0.0044017727 -0.0052343803
0003d0 97 21 16 bd 60 1a 52 bc 10 21 c2 3d 98 1c b0 3d
       -0.036653128 -0.012823671 0.094789624 0.08599204
0003e0 a6 f0 8a bc a9 8d 06 bc 7b a6 8c 3c a3 69 74 3b
       -0.016960453 -0.008212485 0.017169228 0.003729441
0003f0 6c 04 e7 39 60 d5 76 bc 79 54 96 3d a0 ff 92 3c
       0.00044063048 -0.015065521 0.07340331 0.017944157

bias f4 [100]
000000 45 c9 d8 bc 0e 0a ed b9 02 4f 7a bc c2 8c 79 3d
       -0.02646316 -0.00045211654 -0.015277626 0.060925253
000010 8b 7a 3c 3d 09 06 e6 3b 5b d0 3f 3d 1b 48 7b bc
       0.046015304 0.0070197624 0.046829563 -0.0153370155
000020 71 5a 8c 3d fe 19 24 bd dc de aa bc b7 af 9b bc
       0.06853188 -0.04006385 -0.02085822 -0.019004686
000030 82 14 74 3c 76 2f 3e bd 5c bd 13 bd 7e f6 a5 bc
       0.014897468 -0.04643198 -0.03606926 -0.020259138
000040 ea 14 76 3d b6 e0 a1 bc 3e 9e 6f bc 26 29 99 3d
       0.06007854 -0.01976047 -0.01462513 0.074785516
000050 45 28 cc bc 6a 48 a1 bc c3 05 c2 3c c9 31 2c bc
       -0.024921546 -0.01968785 0.023684388 -0.010509917
000060 e4 ce 89 3d 2f 61 8a 3d bc 0b 1d bc f1 97 79 bc
       0.067289144 0.067568175 -0.009585317 -0.01523398
000070 d2 2c 91 3d 14 d4 3e bc e8 3c 4e 3d db 88 c2 ba
       0.07088627 -0.011647243 0.050351053 -0.0014841811
000080 bd dc 12 bc 2b f6 c0 bc ba 85 8f 3b 90 7c 42 3b
       -0.008963761 -0.023554882 0.004379955 0.0029676296
000090 df 71 5f 3d d9 71 d2 3c 4a 22 a7 3d b4 67 99 3d
       0.054551955 0.025689052 0.08160837 0.07490483
0000a0 87 c9 d5 bc d6 02 80 3d e2 fb 54 3d 8f a3 91 bc
       -0.026097072 0.06250541 0.051998027 -0.017778186
0000b0 27 de 6a bc a4 fe 9e bb 3e d7 be bc 15 8d 5a bc
       -0.014335192 -0.004852133 -0.023295995 -0.013339301
0000c0 a2 b2 dd bc 06 68 12 3d fd 21 1f bc 99 00 67 3d
       -0.027062718 0.035743736 -0.009712693 0.056397054
0000d0 76 58 b3 3c 40 51 58 bc 45 13 a0 bc 80 c9 b5 3c
       0.021892767 -0.013202965 -0.019540438 0.02219081
0000e0 bb 17 d7 bc 26 be 19 bc d8 2a dd 3c 5b 3d 83 bc
       -0.026256433 -0.009383714 0.026997969 -0.016020468
0000f0 18 d9 13 bd ae a7 07 bd 23 73 36 bc 43 71 7b 3d
       -0.03609571 -0.033118896 -0.011135849 0.06138731
000100 09 90 9a bc b5 50 12 3d 87 3c 9f 3d b7 4e d4 bc
       -0.01886751 0.0357215 0.077752165 -0.02591644
000110 f5 0f 84 bc c2 33 06 bd be 6b a7 3d ce 80 44 bc
       -0.01612089 -0.032764204 0.08174847 -0.0119936
000120 a6 14 89 bc 41 27 49 3d ce 98 15 3b cc 6a 6d bc
       -0.016733479 0.0491097 0.0022826674 -0.014490794
000130 54 01 16 bd 17 4a b3 bc 8d eb c0 3c 4c 42 bd 3c
       -0.03662236 -0.021885915 0.02354982 0.023102902
000140 f9 84 ba bc 9b f3 13 bc 1e db 53 bc 64 0c 8a 3b
       -0.022768484 -0.009030248 -0.01293066 0.004212903
000150 eb 2d c3 bc 3b 13 b1 bc c4 61 79 bc f0 aa bf 3c
       -0.023825606 -0.021615615 -0.015221063 0.023396939
000160 40 f7 ad bc 9d 77 f2 3c e8 a0 09 bd 29 d3 8d bc
       -0.021236062 0.029598052 -0.033600718 -0.017312603
000170 52 c3 2c bc a3 a4 4c bc 67 b7 24 3d 6f cc c0 bc
       -0.010544615 -0.012490424 0.04021397 -0.023534982
000180 1a f5 90 3d 09 bb 93 3d c4 5b d1 3c 32 95 c5 bc
       0.070779994 0.072134085 0.025556453 -0.024118993

weight f4 [100, 100]
000000 4e 9f 9c bc 0a e0 e1 bc 15 e0 b9 bc d8 1c 1b bd
       -0.019118931 -0.02757265 -0.022689858 -0.037869304
000010 12 08 f5 bc 5d 98 b0 bd ef aa e7 bb fa e4 7a 3d
       -0.029911075 -0.08622811 -0.0070699374 0.061253525
000020 68 65 66 3d fa e6 eb bc 26 a7 b3 3c 0b 61 8e 3d
       0.056249052 -0.028796662 0.021930289 0.06952103
000030 aa 2d 9f bd 8a 13 af bc 72 34 9d 3c 68 cb de bc
       -0.077723816 -0.021371622 0.019190047 -0.027196601
000040 a2 69 85 bc 57 ca a4 bb 44 79 15 bd d5 68 b6 bc
       -0.016285721 -0.0050290036 -0.0364926 -0.022266785
000050 ed b5 c0 3c 8f c1 ae 3d b3 44 56 bc 5f ed c8 3d
       0.023524249 0.08533012 -0.013077903 0.098109
000060 58 6f 7d bb 94 3f 54 bc 20 46 a3 3d 73 f8 f0 bc
       -0.0038671102 -0.012954611 0.0797236 -0.029415345
000070 11 84 36 bc b9 af 95 3b b3 6f f3 3c c3 2b 0f bd
       -0.0111398855 0.004568067 0.029716348 -0.034953844
000080 dc 2f 58 3d 0e cb 9e bc f9 95 99 3d 1a df 26 bd
       0.052780017 -0.019383933 0.07499308 -0.04074011
000090 45 bd 67 bb cc d8 c3 bc 92 52 81 bc 19 3f 97 3d
       -0.0035360616 -0.023907088 -0.015786443 0.07385082
0000a0 f8 eb d3 bb 8e 8a 81 3d 94 85 b8 bc 17 54 85 3c
       -0.0064673387 0.06325255 -0.022524633 0.016275449
0000b0 74 78 e6 bc 47 8e 7f 3d 13 8e e1 3c f1 c3 b1 bc
       -0.028133608 0.062391546 0.027533567 -0.021699877
0000c0 4d 12 77 3c 90 23 e4 bc 78 48 59 bb 27 d7 7f bc
       0.015080047 -0.027848989 -0.0033154767 -0.015615261
0000d0 02 79 85 bb 8a d7 db 3b 02 a8 d0 bc 57 5d 6a 3d
       -0.004073263 0.006709044 -0.025470737 0.057217922
0000e0 c9 4f 44 bc eb e3 bf 3b e4 91 ea bc 5a 96 ac bb
       -0.011981913 0.0058560274 -0.02863402 -0.0052669467
0000f0 65 d0 0d bd 03 6a 10 bd 69 dc b0 bc bc 82 cc 3c
       -0.03462257 -0.03525735 -0.021589475 0.024964683
000100 c2 67 b4 ba b8 16 ee bc 6b 0f ef bc ff 43 67 bb
       -0.0013763832 -0.029063568 -0.029182157 -0.0035288332
000110 cc 8c 81 3c 1f 96 c8 bc ac a3 3c 3d 0f 0a 64 3d
       0.015814207 -0.024485646 0.046054527 0.055673655
000120 9b 77 61 bc 00 4b 23 bd 33 e6 41 3c 3c a2 1f bc
       -0.013761426 -0.039866447 0.011834669 -0.0097432695
000130 cd 9b 3e 3c 35 49 ca 3c 3a a8 1e bd d5 6c 03 3d
       0.0116338255 0.024693111 -0.038734652 0.032086212
000140 7a 7e 61 bc b0 bd b1 ba 8e 15 d3 3c fc 8a cd 3c
       -0.0137630645 -0.001356056 0.025767114 0.025090687
000150 b1 b8 8b bd 71 ac e4 bc c7 f1 d2 3c e2 7b 49 bc
       -0.068223365 -0.027914258 0.025750054 -0.012297602
000160 3a ba c6 bc 8a 26 57 3d 88 ab 5d bc af 88 b7 3c
       -0.024258722 0.052526988 -0.013529666 0.022404043
000170 f6 e5 7a 3d 71 a6 96 3c 25 68 34 bd 53 24 45 3d
       0.061254464 0.018389912 -0.044044632 0.048130345
000180 40 a2 02 bd 60 5a a0 3d 1c 7d 74 3d 69 00 00 bd
       -0.031893015 0.07829738 0.059689626 -0.03125039
000190 40 c8 ad bc 1f b8 f3 3b b8 33 c5 3b b0 5c 0b 3d
       -0.02121365 0.0074377204 0.0060181282 0.03402394
0001a0 1b 4d 3e 3d c8 b6 4d 3d 6f 5f 3f 3c 39 f4 3b 3b
       0.046460252 0.050223142 0.011680468 0.0028679504
0001b0 00 e5 ab bc c7 a1 0b bd 44 bc 74 3d 8a f8 11 bd
       -0.02098322 -0.03408983 0.059749857 -0.035637416
0001c0 c3 d1 07 3d 95 b0 28 bd f3 b9 fd bc 9a 0a 2e 3d
       0.03315903 -0.041184027 -0.030972457 0.04249058
0001d0 be 9b 41 3d 58 17 bf bc d8 65 e4 3c e1 0c 6a 3d
       0.047267668 -0.02332656 0.027880594 0.05714119
0001e0 38 2a 1e bd fd e8 ed 3d 0e 35 f6 bc 12 8b 74 bd
       -0.03861448 0.116167046 -0.030054595 -0.05970294
0001f0 e9 88 b6 3c 34 b2 b1 bc b0 d5 0b bd 83 16 02 bd
       0.02228208 -0.02169142 -0.034139335 -0.03175975
000200 a2 07 4c bc 75 cc a1 bc 49 f3 43 3d de e5 16 3b
       -0.012452992 -0.019750813 0.047839437 0.0023025195
000210 d8 45 12 bd 91 e6 81 3d 2f 03 1b bc 17 8a ec 3b
       -0.03571114 0.06342805 -0.009461208 0.00721861
000220 ae 69 e2 bc 09 ef eb b9 c0 0d ef bc 81 2a 25 bd
       -0.027638283 -0.00045000788 -0.029181361 -0.040323738
000230 b1 c3 eb bc dc 1e 87 bc fb 7a 06 bd 2a 89 1a 3c
       -0.028779836 -0.016494207 -0.032832127 0.0094321165
000240 3c 2f ce bc 9a 6a e3 bc 45 74 ca bc 0e a6 c0 bc
       -0.025169007 -0.027760793 -0.024713645 -0.023516681
000250 70 e6 80 bc 23 e6 d0 3d 5b d9 59 bd 70 15 1c bc
       -0.015734881 0.10200145 -0.053185802 -0.0095265955
000260 2c 8a a1 bc 36 22 0d bd 4d 3d 32 3d 36 2d 1e bc
       -0.019719206 -0.034456454 0.043515492 -0.009654334
000270 f2 6c e9 bb 01 c1 01 bd a3 27 d2 bc 3c 41 a3 bc
       -0.007123583 -0.031678203 -0.025653666 -0.019928567
000280 53 2f fb bc 9a 14 fd bc 13 ca f2 bc bd 4a 8d bc
       -0.030662214 -0.030893613 -0.029637372 -0.017247552
000290 5a 49 79 3d 3a 1a 36 3d bf c4 e7 bc 51 f6 8a 3d
       0.06086097 0.044458605 -0.028292058 0.067852624
0002a0 12 c5 d2 bc 7b 91 dd bc 9f 37 16 bd 15 37 3f 3d
       -0.025728736 -0.02704691 -0.03667414 0.04668339
0002b0 2d 53 d0 bc bb 0e f7 bc 1d b3 89 3d ab 75 d4 bc
       -0.025430286 -0.030158391 0.06723616 -0.025935015
0002c0 ea 75 8f bc 05 0d 8d 3c 89 e6 9c bb 61 9e d7 bc
       -0.01751228 0.017218122 -0.004788224 -0.026320638
0002d0 45 c7 82 3d 27 f1 ad 3c 3e 87 1a bd 09 b0 1a bd
       0.06385664 0.021233154 -0.037726633 -0.037765536
0002e0 c9 39 03 bd 2c 79 7e 3b 8a 15 e2 bc 94 5a 9b 3c
       -0.03203753 0.0038829548 -0.027598161 0.01896409
0002f0 a9 0f 31 3d 59 b4 8e 3d 22 4b d9 bc ad 26 33 3d
       0.043227825 0.06967992 -0.026525084 0.043738056
000300 0c fc 34 3c 8f 3a ad bc b2 63 1b bd c3 5f c5 3d
       0.011046421 -0.021146087 -0.037936874 0.09637406
000310 56 7f f2 bc 13 5c e7 bc be 5d 06 bd 44 1d 12 bd
       -0.029601734 -0.028242147 -0.032804243 -0.03567244
000320 bb 6a 4b bc 55 10 06 bc 48 20 c8 bc d8 37 bd bc
       -0.012415583 -0.008182605 -0.024429455 -0.023097917
000330 2a 02 e2 bc 90 3b 7e bd ff d4 6c bc 95 b8 d9 bc
       -0.027588923 -0.062068522 -0.014455079 -0.026577273
000340 72 70 16 bc 62 d4 96 bc 23 cd e8 bc f0 59 c1 3d
       -0.0091820825 -0.018411819 -0.02841813 0.09440982
000350 b7 60 bb 39 1e 34 b3 bb 36 cd b1 bc c2 6c c0 bc
       0.00035739478 -0.0054688593 -0.021704298 -0.02348936
000360 72 2b 44 bc 8a a0 5e bc 23 b3 d7 bc 42 3d 70 bc
       -0.011973249 -0.01358808 -0.026330536 -0.0146630425
000370 e1 a8 4a bc 52 3a 69 3b 66 25 9a 3c 29 ef 99 3c
       -0.012369365 0.003558774 0.018816661 0.018790798
000380 a6 c0 de bb e9 c1 5f 3d b0 c1 b5 3c fc 08 5d 3d
       -0.006797868 0.054628287 0.022187084 0.053963646
000390 4d ad a9 bc 13 06 f1 3c 01 f2 19 bc cd 08 a2 bc
       -0.020712519 0.029421842 -0.009396077 -0.019779587
0003a0 d0 6e 6d bc 77 84 34 3d 57 0c 2e bc 3d 90 05 bd
       -0.014491752 0.04407164 -0.010623059 -0.03260826
0003b0 71 8e c7 bc fc dd 99 bb b2 3f bf 3b 13 9b e0 b7
       -0.024359914 -0.004695652 0.0058364505 -2.6775093e-05
0003c0 fe f1 87 3c 68 08 5c bc 59 ae c4 bc 39 33 96 3d
       0.016594883 -0.013429739 -0.024008917 0.07333989
0003d0 e5 35 8c 3d 58 cb d4 bc 7a ed b0 bb 1e 6b bd 3c
       0.06846217 -0.025975868 -0.005399403 0.023122367
0003e0 04 a5 fc bc d4 49 2c 3c 22 4b 42 3d 79 09 45 bc
       -0.030840404 0.010515649 0.047434933 -0.012026184
0003f0 af 71 4d 3d cb 37 d6 3b e4 0a 05 bd df 34 e1 3b
       0.050157245 0.0065374128 -0.03248109 0.006872758

bias f4 [100]
000000 36 30 81 3b fe 05 1e 3d 52 ab 35 3a 5b ad fb 3c
       0.003942515 0.038579933 0.0006930131 0.03072231
000010 32 26 65 bd a2 1e 37 bc 80 9b e6 3c 94 ef f8 bc
       -0.05594463 -0.011176737 0.02815032 -0.030387677
000020 dc 1a c9 3c 52 0a a4 3b 92 1d 18 bd a3 3b 13 bc
       0.02454894 0.005006113 -0.037137575 -0.0089863865
000030 31 81 24 3a df eb 43 bd 7d d2 c7 38 90 4f b2 3b
       0.00062753545 -0.047832366 9.528266e-05 0.0054416135
000040 26 66 21 bb 3c 7c 64 3d 1f 9b 7a bb 4c 8b dd bc
       -0.0024627536 0.05578254 -0.0038239432 -0.027043961
000050 7a 6c a5 3c 9d 69 c5 3c d5 f9 e6 3c 24 b5 da bc
       0.020193327 0.024098212 0.028195301 -0.026697703
000060 c8 7f 9e bc 16 82 01 bd a9 b5 02 bd ea 7e 8c bc
       -0.01934804 -0.0316182 -0.031911526 -0.017150361
000070 83 e0 d7 bc dd fd 9d 3d f6 cd d3 bc 73 ac 19 bd
       -0.026352173 0.07714436 -0.025855046 -0.037517976
000080 07 d8 c6 bc 44 1c c7 ba e6 a9 cb bc b3 3b dc 3c
       -0.024272932 -0.0015190919 -0.024861287 0.026883936
000090 8a 6d 62 3d 86 31 2e 3d 76 cb d4 3d 24 80 64 3d
       0.055280246 0.042527698 0.103903696 0.055786267
0000a0 1e 0d 2b bc e5 1b bf bc 03 2f cc 3c a8 e3 5b bd
       -0.010440139 -0.02332873 0.02492476 -0.053683907
0000b0 2b d4 30 3d 6c 8b da 3c d3 15 61 bc 4c 0a 79 3d
       0.04317109 0.02667781 -0.013738113 0.060800835
0000c0 52 06 fa bc 51 81 af 3c d7 c9 2a 3c 2c 66 df 3d
       -0.030520592 0.021423968 0.010424099 0.109081596
0000d0 94 e4 3d 3d 71 f2 14 3d d9 9f 4e bd 87 ad 7c bc
       0.046360567 0.036364023 -0.05044541 -0.0154222315
0000e0 2c 88 c9 bc cc 0b 4d bc 54 00 98 3d 47 b7 bc bc
       -0.024601065 -0.01251502 0.074219376 -0.023036612
0000f0 49 eb 0e 3d 73 b9 a7 bb 82 76 7d bd 87 1b c2 bc
       0.034892354 -0.005118543 -0.061880596 -0.023694767
000100 df 52 7f 3d 1e a1 00 bd 03 18 87 3d b4 d0 5e bc
       0.06233489 -0.031403653 0.06596377 -0.013599563
000110 2e 4e ab 3d 9d 0d d6 bb 87 e9 e7 3c f1 1b 41 3d
       0.08364521 -0.0065323845 0.028309597 0.047145788
000120 64 df fd bc 7a aa b8 3d a1 3a 9d 3c 9b e0 63 bc
       -0.03099031 0.09016891 0.019192996 -0.013908531
000130 0c 88 84 bc 38 2c e7 39 a8 0a d0 3c 43 26 ab bc
       -0.016178153 0.000440927 0.025395706 -0.020892268
000140 99 1b 87 3c 33 92 5d bc 59 4e 0a bd 1c 31 24 bc
       0.016492652 -0.013523626 -0.033766124 -0.010021474
000150 07 c6 d4 bb 04 86 b3 bc 16 49 38 3d 94 9b 87 3d
       -0.0064933333 -0.02191449 0.044991575 0.06621471
000160 46 c5 e8 bc 5d 4b c0 bc 14 39 9e 3d a8 8e b0 bc
       -0.02841438 -0.023473436 0.077257305 -0.021552399
000170 e7 bd 79 3c a3 ce e3 bc 98 83 e8 bc 83 c2 15 bd
       0.01524303 -0.027808493 -0.028383061 -0.036562454
000180 ce ad 3b bc 60 6b f3 bc c6 33 bd 3c 1c 02 0c bd
       -0.0114550125 -0.029714286 0.023095977 -0.0341817

weight f4 [5, 100]
000000 1a b1 32 3c 3d 69 0e 3c 79 21 8d 3c 53 50 88 3d
       0.010906482 0.008692083 0.017227875 0.06655946
000010 e5 4c c8 bc 05 75 a6 bc 63 cd 3d 3d 0e 59 b1 bc
       -0.024450729 -0.020319471 0.04633845 -0.02164891
000020 1e 13 da bc 76 d5 82 bc 50 f0 a3 bc 49 97 3a bc
       -0.026620444 -0.015970927 -0.02001205 -0.011388608
000030 dd 5a 28 3d 59 ad 6b bc 09 6f 8b 3c af c4 9a bc
       0.04110228 -0.014384591 0.01702072 -0.018892614
000040 f5 b9 a5 3d 3f 77 d8 bc 27 aa 31 3d fa 9d 0d 3b
       0.08092109 -0.026424048 0.04337516 0.0021609054
000050 bb 25 86 3d 01 49 93 3d 5b 90 62 3c d0 41 12 bc
       0.06550165 0.07191659 0.013828362 -0.008926824
000060 cb fd ab bc e9 fb c7 bc 3e 6a b3 bc ef 43 81 bc
       -0.020995041 -0.024412112 -0.021901246 -0.015779464
000070 5c f3 55 bc 41 04 ce 3c 80 a2 dd bc f0 c0 8a bc
       -0.01305851 0.025148513 -0.027055025 -0.016937703
000080 1e c0 a8 bc 27 f9 8c 3d a8 1e ab bc 5c fc f9 3c
       -0.020599421 0.068834595 -0.020888641 0.030515842
000090 8c 8a 3b bc d0 f7 c1 bc 91 af 51 3d 1e 64 4c 3d
       -0.011446606 -0.023677737 0.051192824 0.049900167
0000a0 41 c1 d0 bb 20 3b 75 bc 7a 1a a3 bc 05 9d 9f bc
       -0.006370694 -0.01496771 -0.019910086 -0.019484052
0000b0 17 e9 ac 3d 16 a4 03 bd 47 bd df 3c 96 37 87 bc
       0.08442896 -0.032138906 0.027311934 -0.016505998
0000c0 32 1a ec bb 9a 40 c8 bb 56 37 06 bd fc df a7 3d
       -0.007205271 -0.0061112167 -0.032767616 0.081970185
0000d0 3e ec 93 3d 8e b8 77 3c 3c 94 a1 bc 88 d1 85 3d
       0.07222794 0.015119685 -0.019724004 0.065341055
0000e0 db 98 c5 bc b7 d4 c5 3b ad a7 c4 3d f6 ed c9 bc
       -0.024120739 0.0060373205 0.09602294 -0.024649601
0000f0 eb 12 fc bb 62 11 5a bd 35 20 a9 bc c0 89 a5 bc
       -0.007692685 -0.053239234 -0.02064524 -0.020207286
000100 ae 4e 3c 3d 99 b6 9b bc 08 7d 85 bc 7b 1e d0 3d
       0.045973472 -0.019007968 -0.016294971 0.10162064
000110 cd 65 4a 3d 90 01 4f 3d e8 2b 9b bc 47 28 c5 bc
       0.04941349 0.0505386 -0.018941835 -0.024067057
000120 d7 ad 66 bc 1f d2 7f 3d 9a 62 6d 3b 0d 2e a5 bc
       -0.014079533 0.062456246 0.0036222101 -0.02016356
000130 32 bf 9c 3d 6e 6f 28 3d 28 5a 6d bc cd e1 a1 bc
       0.07653655 0.041121893 -0.014486827 -0.01976099
000140 2a 5c 0e bd 9a b6 5f 3d 63 92 52 bc 49 27 c0 3c
       -0.034755863 0.0546175 -0.012852284 0.023456233
000150 97 71 4d 3d fa 9a 86 bc ee dc a8 bc 04 9d 44 bc
       0.050157156 -0.01643132 -0.02061316 -0.012000326
000160 fd 7a bc 3b 70 ae 63 bc d1 05 db 3c 19 35 fa bc
       0.005751966 -0.01389657 0.026736172 -0.030542897
000170 7b 79 6b bc d0 77 a7 bc eb 22 a3 bc cc 50 37 bb
       -0.014372225 -0.020442873 -0.019914111 -0.0027971743
000180 4e b8 7b 3e 78 6d e3 bb 15 a0 6b 3c 35 0d c0 bc
       0.24582025 -0.00694054 0.014381428 -0.023443798
000190 4a e4 2b bc 3e 36 8f bc d4 39 87 bc 50 af 48 3c
       -0.01049144 -0.01748192 -0.016507067 0.012248829
0001a0 e1 8a 68 3d cf 8a a3 bc e9 40 e7 3c 8d 9a 94 bc
       0.05677307 -0.01996365 0.028229194 -0.018140102
0001b0 0b ad 79 bc 98 94 92 bc 0c 22 4e bc 14 3f a5 3b
       -0.015239011 -0.01789312 -0.01258136 0.00504292
0001c0 7b f3 64 bc f7 d8 72 3d bb 41 86 bc 65 ff 50 b9
       -0.013974066 0.059288945 -0.016388765 -0.00019931568
0001d0 2e de a3 3d 60 b2 a3 3b 57 4f 4f bc af 75 d2 3b
       0.08001362 0.004995629 -0.012653193 0.0064227204
0001e0 1b 5d 7d bc 12 10 62 3c 2e bb 17 3d 26 96 93 bc
       -0.015464093 0.013797777 0.037043743 -0.018015932
0001f0 8e ba 9d bc 32 49 a1 bc f4 bd 66 3d 08 47 b4 bc
       -0.019253995 -0.019688223 0.056333497 -0.022006527
000200 3a 63 a3 3d 0e d0 94 3d 60 37 40 3d 27 d1 b8 3b
       0.0797791 0.07266246 0.04692781 0.0056401673
000210 66 44 96 bc eb 4e ad 3b 9f ec 98 bc df 0d 78 3d
       -0.018343162 0.005288949 -0.018667517 0.060560104
000220 e8 cc a9 bc 04 5b 3d 3c 8c b0 72 bc d5 de 81 bc
       -0.02072759 0.011557344 -0.0148126 -0.015853325
000230 06 41 20 bc 8c 72 89 bc 57 75 be 3c 98 e7 03 3d
       -0.009781128 -0.016778253 0.023249311 0.032203287
000240 97 63 94 bc 43 a2 08 bd c8 f0 a3 3c 76 92 a3 bc
       -0.018113894 -0.03335787 0.020012274 -0.019967299
000250 20 49 05 3d cf 24 41 3d b0 3d 29 bd 6a 01 92 b9
       0.03254044 0.047154244 -0.041318595 -0.00027848344
000260 50 92 b9 b8 80 1a 53 3b 66 ae a6 3d 67 ac 81 3d
       -8.84874e-05 0.003221184 0.081387326 0.06331711
000270 f3 6d d2 bc 8c 13 bd bc 58 66 ba bb 5b da 6a 3c
       -0.025687193 -0.02308061 -0.00568847 0.014334287
000280 27 a9 be bb a3 28 1a bd de 4b c5 3c 8b e3 80 3d
       -0.0058185044 -0.03763641 0.024084028 0.062934004
000290 fb 08 81 3d b9 86 64 bc 1d 20 92 bc a5 65 bb 3d
       0.06300541 -0.013948136 -0.017837578 0.091502465
0002a0 ad 42 28 3d e4 3a 8b bc 3b 70 af bc 14 16 02 3d
       0.041079212 -0.016995855 -0.02141582 0.031759337
0002b0 56 72 e3 ba dd 2f 4a 3b 66 1c 0a bb 2a bb aa bc
       -0.00173528 0.0030851283 -0.0021074056 -0.0208412
0002c0 4c f5 59 3d 85 ab 85 bc f5 58 8a 3b 51 fa 8e bc
       0.05321245 -0.016317138 0.0042220303 -0.017453345
0002d0 90 1b 0d 3d de 6f d7 3c 5a 36 4f bc 4a 4e 93 3c
       0.034450114 0.02629846 -0.012647236 0.017981667
0002e0 2a b8 dd 3c ef 78 88 ba 7d 06 8a bc 38 b6 94 bc
       0.027065355 -0.0010412018 -0.016848797 -0.018153295
0002f0 39 57 25 3d 79 a6 6d 3c 8a 30 99 bc 54 8f f9 bc
       0.040366385 0.014505022 -0.018699903 -0.030463852
000300 07 0f 2d 3d bc 6b 91 bc cf 9b 88 bc 09 6a 8d 3d
       0.04225066 -0.017751567 -0.016675858 0.0690499
000310 f5 54 1c 3e 77 5c c3 3d c5 64 b5 bb 2f c5 89 bc
       0.15266784 0.09539121 -0.0055356943 -0.016817657
000320 01 43 43 b9 aa 28 9c bc 06 9b 1b 3c 75 c2 6b bb
       -0.0001862161 -0.019062359 0.00949741 -0.003597406
000330 f6 5a 91 bc 94 2f b6 bc de 49 26 3c 4d 6c a8 bc
       -0.017743569 -0.022239484 0.010149447 -0.020559454
000340 fc 6a 74 3d 0e e9 7a bc 84 16 a4 bc c6 c9 67 bc
       0.05967234 -0.015314354 -0.020030268 -0.014147228
000350 df 6c 8e bc c4 5a 8e bc f3 ad 54 3d d7 2c 0e 3d
       -0.017385898 -0.017377265 0.051923703 0.03471073
000360 44 a6 19 3d e2 ae 73 3d db 8c 95 bc f9 55 59 3b
       0.03751208 0.059492953 -0.018255642 0.0033162816
000370 e6 46 a7 bc 32 58 55 bd 0a 53 8b bc f3 1c c7 bb
       -0.02041955 -0.052086063 -0.01700737 -0.006076449
000380 39 68 b4 bc b3 01 a6 3d 5d aa b1 3b c9 c8 a7 bc
       -0.022022353 0.08105793 0.00542192 -0.020481484
000390 49 30 81 3d 2c ba 7f 3d 75 59 2a 3d dc 7a 80 bc
       0.06308038 0.062433407 0.04158922 -0.015683584
0003a0 31 1e b0 bc 96 a2 72 3d 87 ec a9 bc da 4d 75 bc
       -0.021498771 0.059237085 -0.020742668 -0.014972175
0003b0 b3 6c c2 bc f8 be 0f 3d c4 00 a7 bc df 4a c9 ba
       -0.023733472 0.03509423 -0.020386107 -0.0015357396
0003c0 ad cc b2 3d 06 fe 85 bc 8f 37 48 3d 5c ef 99 bc
       0.08730445 -0.01635648 0.04888111 -0.018790893
0003d0 08 50 87 bc be 98 6c bd 9f 68 80 3d 17 39 c9 bc
       -0.016517654 -0.057762854 0.06269955 -0.024563355
0003e0 0f a5 1b 3d e8 1f 42 3d 7d 39 97 bc bc cd bc bc
       0.03799921 0.04739371 -0.01846003 -0.02304732
0003f0 70 3b 46 39 68 0d da bc 46 e4 8d bc e2 f4 6d 3d
       0.00018904894 -0.02661772 -0.017320763 0.058094867

bias f4 [5]
000000 f7 c9 5c 3d a6 c5 13 3d 39 80 c8 3c f3 92 b0 bc
       0.053903546 0.036077164 0.024475204 -0.021554446
000010 ac 03 af 3d
       0.08545622
