digital_twin/pinn_3/model.pt (torch, 8431 bytes, 6 tensors)

weight f4 [20, 2]
0	0x398db9ec	0.00027032138
1	0xbe991baf	-0.29903933
2	0xbc9057c2	-0.017619971
3	0x3d2d00ce	0.042237096
4	0xbcb846a2	-0.022494618
5	0x3ebb0801	0.36529544
6	0xbbc96e91	-0.0061472137
7	0xbd52b962	-0.051446326
8	0x3ccc8397	0.02496509
9	0xbcece183	-0.028916126
10	0x3caba3c1	0.020952107
11	0x3dd409f7	0.10353463
12	0x3ce3c4d1	0.02780381
13	0x3e002f33	0.12518005
14	0xbcf0c668	-0.029391482
15	0x3eb305a9	0.34965256
16	0xbca026f1	-0.019549819
17	0x3e275db4	0.16344339
18	0xbcce3e9e	-0.025176343
19	0x3eed7f2b	0.46386084
20	0x3a8ccfc3	0.001074307
21	0xbc76a132	-0.01505308
22	0xbcf195c3	-0.029490357
23	0x3e8e724a	0.2782157
24	0x3c91dde6	0.017806005
25	0x3f26674b	0.6500136
26	0xbcb4b52b	-0.022059044
27	0xbd124f81	-0.035720352
28	0xba7d0a88	-0.00096527534
29	0x3db3a49a	0.0877163
30	0x3c704a0d	0.014666093
31	0x3c037e97	0.008025787
32	0x3d024490	0.031803668
33	0x3ca01c8e	0.019544866
34	0x3c844c41	0.016149642
35	0x3ebc3403	0.36758432
36	0x3d5ce06f	0.053924974
37	0xbd298dac	-0.041394874
38	0x3c56c54b	0.013108562
39	0xbd69e341	-0.05710149

bias f4 [20]
0	0xbd82db98	-0.063895404
1	0xbcb82500	-0.02247858
2	0xbd982b54	-0.07430139
3	0x3ea53a9e	0.32271284
4	0xbe949dde	-0.29026693
5	0xbe3ea18b	-0.18616311
6	0xbdb585c4	-0.088634044
7	0x3e2a92b5	0.16657527
8	0x3f1378f2	0.5760642
9	0xbe25055c	-0.16115326
10	0x3e445e1d	0.19176526
11	0x3f1d0b82	0.61345685
12	0x3f1344cf	0.5752687
13	0x3f04a418	0.5181289
14	0x3f195b80	0.5990524
15	0xbe7f061d	-0.24904676
16	0xbf06421c	-0.52444625
17	0xbeae70ba	-0.3407038
18	0x3ee6882c	0.45025766
19	0xbe7afd28	-0.24510634

weight f4 [20, 20]
0	0xbc59d74d	-0.013295961
1	0x3dc9cc4f	0.09853422
2	0x3d4ba036	0.049713336
3	0xbdbfcc12	-0.09365095
4	0xbdd1e93a	-0.102495626
5	0xbd1b5406	-0.037921928
6	0x3deac709	0.11463744
7	0xbde8898b	-0.11354359
8	0xbe0317de	-0.12802073
9	0xbd257ea2	-0.04040397
10	0x3d190dfe	0.03736686
11	0xbd79fccd	-0.061032105
12	0xbc9704ef	-0.01843497
13	0x3e750e7b	0.23931305
14	0x3e0b5b3e	0.13609025
15	0xbda22384	-0.0791693
16	0xbe1d6153	-0.15369157
17	0xbcff9fbc	-0.031204097
18	0x3c64fbe6	0.013976073
19	0xbcb09e7c	-0.021559946
20	0x3ddf8507	0.10914045
21	0x3e3f61cf	0.18689655
22	0xbdd03c5d	-0.101677634
23	0x3d293f64	0.04132022
24	0xbc8a25d1	-0.016863735
25	0x3e30070c	0.17190188
26	0x3d14188f	0.036156233
27	0xbd89635e	-0.06708406
28	0xbc095041	-0.00838095
29	0x3d5aedae	0.053449325
30	0x3d14be86	0.03631451
31	0xbb10cb82	-0.0022093956
32	0xbdc4e8b8	-0.096147
33	0xbc362ea9	-0.011119523
34	0x3e3ddc99	0.18541183
35	0xbcbbccea	-0.02292486
36	0x3c816dd6	0.015799444
37	0x3d9767fe	0.07392882
38	0x3e1fe6f9	0.15615453
39	0x3b1a647a	0.0023558424
40	0x3e30bb73	0.17259006
41	0x3dae7afd	0.08519552
42	0x3d695838	0.056968898
43	0x3cce38f2	0.025173638
44	0x3dd126d1	0.10212482
45	0x3e562c2d	0.20915289
46	0x3dea425e	0.1143844
47	0x3bbdcc42	0.0057921717
48	0x3b8f757d	0.0043780194
49	0xbd2a9f64	-0.041655913
50	0x3d074155	0.03302129
51	0x3c9e24c0	0.019304633
52	0x3c9f31b4	0.01943288
53	0x3d8733dc	0.06601688
54	0x3ebaeaff	0.36507413
55	0x3e1d8bcb	0.15385358
56	0xbd9e87d9	-0.07740755
57	0x3b6e0d4c	0.0036323844
58	0xbbc5a458	-0.006031554
59	0xbd49a7ae	-0.049232177
60	0x3dfd6fab	0.123748146
61	0x3deecf94	0.11660686
62	0x3e4beeb7	0.19915281
63	0x3d85e6a5	0.065381326
64	0xbcb48dc6	-0.02204026
65	0x3d24a753	0.040198635
66	0xbc4d0e12	-0.012515562
67	0xbd4b6dce	-0.049665265
68	0x3e411ff2	0.18859842
69	0xbd8cb56b	-0.0687054
70	0x3e2162d7	0.1576036
71	0x3c9d357c	0.019190542
72	0x3d39d70c	0.0453711
73	0x3d7100b1	0.05883855
74	0x3de60a14	0.11232391
75	0x3e026aae	0.12736008
76	0x3db4920f	0.08816921
77	0x3a41925b	0.00073841744
78	0xb7445808	-1.1703007e-05
79	0x3e18eb6f	0.14933561
80	0xbdcc01c6	-0.09961276
81	0x3c99d651	0.018778952
82	0x3be67db9	0.0070340303
83	0xbe55878f	-0.20852493
84	0x3e4b8a51	0.19876982
85	0xbd5ba2de	-0.05362212
86	0xbd68e1d0	-0.056855977
87	0x3e894d57	0.26816818
88	0xbc336010	-0.010948196
89	0xbdad21f7	-0.08453744
90	0x3ba172d6	0.0049270196
91	0x3d541a31	0.05178279
92	0x3c79a857	0.015237889
93	0x3cceff7b	0.025268307
94	0xbcdee0b6	-0.02720676
95	0x3e1f41bd	0.15552421
96	0x3da7f048	0.08200127
97	0x3c844026	0.01614387
98	0x3ea12e5d	0.31480685
99	0x3e60be38	0.21947563
100	0x3e937eb6	0.2880761
101	0x3dfae198	0.1225006
102	0x3e33f4ba	0.17573825
103	0xbe974be6	-0.29550093
104	0x3d920b67	0.07131081
105	0xbda0dc5b	-0.078545295
106	0xbdc3adf4	-0.09554663
107	0x3d15e7f3	0.036598157
108	0x3d56d351	0.05244762
109	0xbd822f43	-0.06356671
110	0x3db88151	0.0900904
111	0xbdd0f55d	-0.10203049
112	0x3df5d5ef	0.12003695
113	0x3d62fed9	0.055418823
114	0x3e82cee1	0.2554846
115	0x3e997123	0.2996913
116	0xbd41a220	-0.047273755
117	0xbd1d5fb6	-0.038421355
118	0x3cee0484	0.029054888
119	0x3d66777e	0.0562663
120	0x3e0c90df	0.13727139
121	0x3e7fa854	0.24966556
122	0xbd868370	-0.065680385
123	0x3db54925	0.08851842
124	0x3bdf05b0	0.006806098
125	0xbd0b279f	-0.033973332
126	0xbd4b8bb5	-0.049693782
127	0xbd82f734	-0.063948065
128	0x3e5c004b	0.21484487
129	0xbd980d81	-0.07424451
130	0x3dc442da	0.095830634
131	0xbd5883d3	-0.052860092
132	0xbd915a1b	-0.070972644
133	0xbdbdc8b7	-0.09266799
134	0x3e170410	0.14747643
135	0x3e1f1ff7	0.15539537
136	0x3dc9f292	0.0986072
137	0xbc3b84a3	-0.011445197
138	0x3c356ba9	0.011073031
139	0x3e25f269	0.16205753
140	0x3e22ca8e	0.15897581
141	0x3e3359e6	0.17514762
142	0x3d8c373a	0.06846471
143	0xbd4c9144	-0.049943224
144	0x3e83d0f5	0.2574536
145	0x3d9a37a2	0.07530142
146	0x3ce9cc0b	0.028539678
147	0x3e0127d8	0.12612855
148	0xbccbc425	-0.024873802
149	0xbdf67d22	-0.12035586
150	0x3e1ade72	0.15123919
151	0xbd8d129e	-0.068883166
152	0xbd2fd90d	-0.042931605
153	0x3cafa147	0.021439208
154	0x3ddff3ce	0.10935174
155	0x3d13064a	0.03589467
156	0xbc004c4c	-0.007830691
157	0xbbd3bcfc	-0.0064617377
158	0xbc5891e1	-0.013218374
159	0x3d803730	0.06260526
160	0x3d9a7286	0.07541375
161	0x3e14ee7b	0.14544098
162	0xbdfbcb60	-0.1229465
163	0x3ea6facd	0.3261322
164	0xbd691e01	-0.05691338
165	0x3e261cc4	0.1622191
166	0xbd2b9bae	-0.041896515
167	0x3e1f5a2b	0.1556174
168	0x3d2733e0	0.040820956
169	0x3b9986fe	0.004685282
170	0x3da88e62	0.08230282
171	0xbd2ccc33	-0.042186927
172	0xbddb6f4d	-0.10714588
173	0x3e03f04c	0.12884635
174	0x3da7bde0	0.08190513
175	0xbd97069e	-0.07374309
176	0x3e6720c2	0.2257109
177	0xbcb78206	-0.022400867
178	0x3e8d5d9c	0.2761048
179	0xbda3efea	-0.08004744
180	0x3dbe9892	0.09306444
181	0xbc9ebe90	-0.019377977
182	0xbc2c1efd	-0.010505435
183	0x3c44ddf4	0.012015808
184	0xbd06c3b5	-0.032901485
185	0xbb76dbe7	-0.0037667693
186	0x3c94ade2	0.01814932
187	0xbe01d10f	-0.12677406
188	0xbda72eee	-0.08163248
189	0xbe2a467b	-0.16628449
190	0x3e10637a	0.14100447
191	0xbd626f9d	-0.055282224
192	0x3e24bc6f	0.16087507
193	0x3e91b225	0.28456226
194	0x3d9da994	0.0769836
195	0x3bb1ac6e	0.0054221665
196	0x3d64a997	0.055825796
197	0xbbbd0489	-0.005768363
198	0xbdb7c92c	-0.08973917
199	0x3dbd66c1	0.092481144
200	0x3e46d701	0.19417955
201	0x3d5fefae	0.054671936
202	0xbd5b9b1e	-0.05361473
203	0x3b9f32d6	0.004858355
204	0x3d85951e	0.065225825
205	0xbce6cd44	-0.02817405
206	0xbd8595b9	-0.06522698
207	0xbdb2be5e	-0.08727716
208	0xbd1e63a6	-0.03866925
209	0xbd1d7f60	-0.038451552
210	0x3b588b97	0.0033042186
211	0x3ddffd7d	0.10937021
212	0xbc089129	-0.00833539
213	0x3e066152	0.13123062
214	0x3e83b32b	0.25722632
215	0x3d70aa9f	0.058756467
216	0x3c9fa385	0.019487152
217	0x3deaba33	0.11461296
218	0x3c9a4353	0.01883093
219	0x3e41096c	0.1885125
220	0x3e101416	0.14070162
221	0x3e7e7388	0.24848759
222	0x3d19122a	0.03737084
223	0x3e19ddc0	0.15025997
224	0xbdac90cd	-0.08426056
225	0x3e2827d0	0.16421437
226	0x3da69d26	0.081354424
227	0xbc73c2c2	-0.014877977
228	0x3e0be3ea	0.13661161
229	0xbd9b2331	-0.075750716
230	0xbd3f362a	-0.046682514
231	0x3de9f523	0.11423709
232	0x3d4bdaef	0.04976934
233	0x3e98a2f5	0.29811826
234	0xbc39926d	-0.0113264145
235	0xbd9ca29d	-0.076482035
236	0xbd947678	-0.072491586
237	0x3c5025a1	0.012704284
238	0x3dbeb7bf	0.093123905
239	0x3dd897ac	0.10575804
240	0x3ddf94f5	0.10917083
241	0x3db3b2bf	0.087743275
242	0x3e26bd97	0.1628326
243	0x3e3a7814	0.18209869
244	0xbd166976	-0.03672167
245	0x3ddb868c	0.10719022
246	0x3d940dbe	0.072291836
247	0xbda270fa	-0.07931705
248	0x3db32197	0.08746641
249	0xbda96c29	-0.08272583
250	0x3c404872	0.011736022
251	0xbc36b803	-0.01115227
252	0x3e3d0e04	0.18462378
253	0x3e1d5789	0.15365423
254	0x3d757db7	0.059934344
255	0x3de0c993	0.10975947

bias f4 [20]
0	0x3d6fe8d7	0.058571663
1	0xbd80c077	-0.0628671
2	0x3d96144b	0.07328089
3	0x3cb68f2e	0.02228507
4	0xbda9de4a	-0.082943514
5	0xbde39b04	-0.11113551
6	0xbce0fb5d	-0.02746361
7	0xbd8179cc	-0.06322059
8	0xbded4acc	-0.11586532
9	0x3e4482f5	0.19190581
10	0xbd98598c	-0.07438955
11	0x3e076ed9	0.13225879
12	0xbcce2bdd	-0.0251674
13	0x3c9e210c	0.019302867
14	0x3e1a1df3	0.15050487
15	0x3e2d7d83	0.1694241
16	0x3d994db9	0.074855275
17	0xbcd7d4fc	-0.026346676
18	0x3cde068d	0.027102733
19	0xbd3c70d3	-0.046006035

weight f4 [5, 20]
0	0x3e32f051	0.17474486
1	0xbc0a08e7	-0.008424974
2	0x3deb5866	0.1149147
3	0x3f2bc9d8	0.67104864
4	0xbdbe17f9	-0.09281916
5	0x3990a6b2	0.00027590018
6	0xbe11c05e	-0.14233539
7	0xbc698d91	-0.0142549435
8	0xbdc74fb0	-0.09731996
9	0x3e6ca21c	0.23108715
10	0x3ebf9230	0.3741622
11	0x3db94407	0.09046178
12	0x3eb4f405	0.35342422
13	0xbd4d52df	-0.05012786
14	0x3dbdd889	0.092698164
15	0x3e41a173	0.18909244
16	0x3d713561	0.058888797
17	0x3d9c704c	0.076386064
18	0x3e32efca	0.17474285
19	0x3e6de776	0.23232827
20	0x3b8f9e97	0.004382919
21	0x3e823926	0.25434226
22	0xba8ba6e7	-0.0010654599
23	0x3f40bfe5	0.7529281
24	0x3ccda73c	0.025104158
25	0x3d7a41f3	0.06109805
26	0x3eb906ea	0.36138088
27	0x3dc3bc15	0.09557358
28	0x3e6453cc	0.22297591
29	0xbd2cc44e	-0.0421794
30	0x3eafd753	0.34343967
31	0x3bfb0c39	0.007661369
32	0x3e044908	0.12918484
33	0x3e1f1637	0.15535818
34	0xbca7b4e1	-0.020471992
35	0x3d33774a	0.043814935
36	0x3b5a4f90	0.0033311583
37	0x3d9c2631	0.07624472
38	0xbc213faa	-0.009841839
39	0x3e87167a	0.26384336
40	0xbda4176c	-0.0801228
41	0xbd5aa8c4	-0.053383604
42	0x3dc10b5c	0.09425995
43	0x3f217ef7	0.6308436
44	0xbc68bda7	-0.014205373
45	0x3874d732	5.837455e-05
46	0x3ed5976e	0.41717094
47	0x3e253f1b	0.16137354
48	0xbb34bebe	-0.0027579512
49	0x3d2072a6	0.039171837
50	0x3e0db2ee	0.13837788
51	0xbd59b0f8	-0.053147286
52	0x3e7369d8	0.23770845
53	0xbd161795	-0.036643583
54	0x3e7c8692	0.2466071
55	0x3c216e3d	0.009852943
56	0x3d873d42	0.06603481
57	0xbc44d73b	-0.012014206
58	0xbce47c0e	-0.027891185
59	0x3dac7b46	0.0842195
60	0x3ea7a6ed	0.32744542
61	0x3e83326f	0.25624415
62	0x3e3b5324	0.18293434
63	0x3e36a8ba	0.17837802
64	0x3e29f91a	0.16598931
65	0x3e508ea9	0.2036692
66	0x3e3850f7	0.17999636
67	0x3e9192a2	0.28432184
68	0xbdf46a97	-0.11934393
69	0xbda0afd9	-0.0784604
70	0x3eb9bb81	0.36275867
71	0xbda78be7	-0.08180981
72	0xbe748fc5	-0.23882969
73	0xba91de46	-0.0011128865
74	0x3ef84b98	0.48495173
75	0x3dc98df6	0.0984153
76	0x3d26d04d	0.040725995
77	0xbf5621b0	-0.83645153
78	0x3e868abd	0.26277724
79	0xbc3213f2	-0.010869013
80	0x3ea3579f	0.31902787
81	0xbe8b21c0	-0.27174187
82	0x3ea4cafb	0.32186112
83	0x3e05a6a0	0.13051844
84	0x3f05ec3c	0.5231359
85	0x3f313212	0.69217026
86	0x3d59ed51	0.05320484
87	0x3f1b2ca3	0.60614985
88	0xbf264ff1	-0.6496573
89	0x3e61f2e7	0.22065316
90	0x3e46c1e9	0.19409908
91	0xbe2eb684	-0.17061812
92	0xbdb085c0	-0.08619261
93	0x3ecd9465	0.4015228
94	0x3f3bf8e8	0.73426676
95	0xbdd2d4fe	-0.10294531
96	0xbd121e2d	-0.03567331
97	0xbed999f0	-0.42500257
98	0xbdaba53a	-0.08381124
99	0xbde1f25e	-0.11032556

bias f4 [5]
0	0x3e1317ea	0.14364591
1	0x3d827074	0.06369105
2	0xbd530645	-0.05151965
3	0xbd4272dc	-0.04747282
4	0x3e167e81	0.14696695
