pytorch/architecture/t-Q_T-k-TG/num/model.pt (torch, 4615 bytes, 8 tensors)

weight f4 [10, 2]
0	0x3e01090f	0.12601112
1	0xbf450ffb	-0.7697751
2	0x3d261b2d	0.04055326
3	0x3e0d1572	0.13777712
4	0x3b48432a	0.003055761
5	0x3f68f307	0.9099583
6	0x3e2b47b0	0.16726565
7	0xbf1dd0d3	-0.61646765
8	0x3dd008bf	0.10157918
9	0xbeaa965e	-0.33317846
10	0x3e7ef4af	0.24898027
11	0xbe079563	-0.1324058
12	0x3c194da6	0.009356892
13	0x3f2199ce	0.6312531
14	0x3dfa45ac	0.1222032
15	0x3e3536f9	0.17696752
16	0x3d3daebf	0.04630923
17	0x3e4d2172	0.2003229
18	0xba8117d5	-0.0009849021
19	0x3f80d9c5	1.0066458

bias f4 [10]
0	0xbebfd431	-0.37466577
1	0xbef704ec	-0.48245943
2	0xbf12bea4	-0.57322145
3	0xbd668760	-0.056281447
4	0x3f1796ef	0.5921468
5	0x3d0d5645	0.0345061
6	0xbf407741	-0.7518197
7	0xbef58968	-0.47956395
8	0x3f0b9846	0.54529226
9	0xbf0c0c70	-0.5470648

weight f4 [10, 10]
0	0x3edb427d	0.42824164
1	0xbd3fe47b	-0.046848755
2	0x3dd210bb	0.10257097
3	0x3e02b2e1	0.1276355
4	0x3e2fa634	0.17153245
5	0xbe99bf9b	-0.30028996
6	0x3e38a508	0.18031704
7	0xbce86f50	-0.02837339
8	0x3ee67021	0.45007423
9	0xbd923274	-0.071385294
10	0x3d898af3	0.067159556
11	0xbdba7183	-0.09103682
12	0x3e59b641	0.2126093
13	0x3e5400de	0.20703456
14	0x3e35cf05	0.17754753
15	0xbda85a87	-0.08220392
16	0xbbd6e7ad	-0.0065583796
17	0x3db7569e	0.08952068
18	0x3edb91c9	0.42884663
19	0x3ebde4ab	0.37088522
20	0x3eeb47dc	0.45953262
21	0x3e40dda9	0.18834557
22	0x3d9430cf	0.07235872
23	0x3e9e3368	0.30898595
24	0x3ec3af98	0.38219905
25	0xbe9d32ca	-0.3070281
26	0xba914b7b	-0.0011085117
27	0xbe478763	-0.1948524
28	0x3df64659	0.120251365
29	0xbc9d4876	-0.019199591
30	0x3f621a58	0.8832145
31	0x3fabba3a	1.3416207
32	0x3fa973ad	1.3238426
33	0x3dded0f1	0.10879696
34	0xbf12d0c6	-0.57349813
35	0xbf126204	-0.5718081
36	0x3fc00563	1.5001644
37	0x3f903afa	1.1267998
38	0xbf12379f	-0.5711612
39	0x3f86a1e9	1.0518161
40	0x3ee0ebc7	0.43929884
41	0xbe6e955f	-0.23299168
42	0xbebb806b	-0.36621413
43	0x3f4c05f9	0.79696614
44	0x3ed4aab6	0.41536492
45	0xbe84ac3c	-0.25912654
46	0xbde77be6	-0.113029286
47	0xbdb0decf	-0.08636247
48	0x3ed3fc2c	0.4140333
49	0xbeaffd81	-0.34373096
50	0x3e63c1a8	0.22241843
51	0xbd85f71e	-0.065412745
52	0xbdcd34d4	-0.10019842
53	0x3e75f615	0.24019654
54	0x3e4133ea	0.1886746
55	0x3e9151a9	0.28382614
56	0x3ded7699	0.11594886
57	0xbe8c21ef	-0.2736964
58	0x3e20a375	0.15687354
59	0x3d2ae28c	0.04171996
60	0x3e946d1a	0.28989488
61	0xbc60238c	-0.01368035
62	0xbd8a041c	-0.06739065
63	0x3e5545ca	0.20827404
64	0x3eb00169	0.34376076
65	0xbe33ad37	-0.17546545
66	0xbce6d320	-0.028176844
67	0x3d192f81	0.03739882
68	0x3eb89045	0.3604757
69	0xbca252e3	-0.019814914
70	0x3c92b17c	0.017906897
71	0xbe7f37cf	-0.24923633
72	0x3f2bbcff	0.6708526
73	0x3d5118b7	0.05104896
74	0x3e857c81	0.2607155
75	0x3f20f0d5	0.6286748
76	0x3eb9da5c	0.36299407
77	0xbeafc8e7	-0.34332964
78	0xbd4a9ddd	-0.049466956
79	0x3f37dc36	0.7182039
80	0x3e81d781	0.2535973
81	0xbe7f8582	-0.24953273
82	0xbed030c5	-0.40662208
83	0x3f248786	0.6426929
84	0x3f12e2dc	0.5737741
85	0x3d97656c	0.073923916
86	0xbe20794c	-0.15671271
87	0xbe31818d	-0.17334576
88	0x3ed546a5	0.4165546
89	0xbef94edb	-0.48692974
90	0x3f06c5c4	0.52645516
91	0x3eaf9bb0	0.34298468
92	0x3f3056c1	0.68882376
93	0xbc8498c9	-0.016186135
94	0x3cfee8df	0.031116901
95	0xbf2b87c3	-0.6700403
96	0x3e10fd87	0.14159213
97	0x3ec8d5c9	0.39225605
98	0x3eafec4f	0.34359977
99	0x3ec85fa5	0.3913547

bias f4 [10]
0	0x3ed94ff3	0.4244381
1	0x3ea40e23	0.32042035
2	0x3e8f26ad	0.27959195
3	0xbedc485f	-0.43023965
4	0x3eae0cae	0.3399405
5	0x3ed2cf38	0.4117372
6	0x3ed3e199	0.41383055
7	0x3cffbbe6	0.031217527
8	0x3eca91da	0.395644
9	0x3ee60d20	0.4493189

weight f4 [10, 10]
0	0x3ecd314e	0.4007668
1	0x3f1fdb08	0.6244359
2	0x3edabf9b	0.42724308
3	0x3f024499	0.5088592
4	0x3f245ea3	0.64206904
5	0x3e98442b	0.29739508
6	0x3ee27f57	0.44237778
7	0x3eef58bb	0.46747383
8	0x3f03ed57	0.51534027
9	0x3f2a59ed	0.66543466
10	0x3f078642	0.52939236
11	0x3f4b1e4f	0.7934312
12	0x3f2c9fa7	0.6743111
13	0x3fc1b3c9	1.5132991
14	0x3e848f7f	0.2589073
15	0x3efb337a	0.4906271
16	0x3f0a1e95	0.53952914
17	0xbd4135ef	-0.047170576
18	0x3f164bed	0.58709604
19	0x3f90fb98	1.132678
20	0x3f3e456a	0.7432467
21	0x3f2816ed	0.6565998
22	0x3f0d4907	0.55189556
23	0x3e3e74ba	0.18599215
24	0x3f0da040	0.5532265
25	0x3eb455bc	0.3522166
26	0x3f09c5db	0.5381753
27	0x3e0fc49e	0.14039847
28	0x3f377a7d	0.7167128
29	0x3f9095d7	1.1295727
30	0x3f1b7e10	0.6073923
31	0x3f1bdef6	0.60887086
32	0x3f4c1808	0.7972417
33	0x3dfe4b08	0.12416655
34	0x3f484849	0.782353
35	0x3f40ca4e	0.7530869
36	0x3f23703e	0.63843143
37	0x3eeb9ce1	0.46018127
38	0x3f1ea32c	0.6196773
39	0x3f2627fb	0.64904755
40	0x3f020c61	0.5080014
41	0x3f4b859a	0.79500735
42	0x3f0d5fbd	0.5522421
43	0x3f3b1560	0.7307949
44	0x3f1d2722	0.61387837
45	0x3ef02eb8	0.46910644
46	0x3f1b1f08	0.60594225
47	0x3ed9fa2c	0.42573678
48	0x3f505985	0.81386596
49	0x3ec8a74a	0.3919013
50	0x3f1f503d	0.6223181
51	0x3f0cbc42	0.5497476
52	0x3efcbf56	0.49364728
53	0x3e905e1f	0.2819681
54	0x3f3e6d77	0.7438578
55	0x3f242afa	0.6412808
56	0x3f24368d	0.6414574
57	0x3e91f8ef	0.28510234
58	0x3f0e482f	0.55578893
59	0x3f70bd19	0.9403854
60	0x3f0f33c0	0.5593834
61	0x3f4a7af1	0.79093844
62	0x3f0382da	0.5137154
63	0x3e760dd2	0.2402871
64	0x3f708676	0.9395517
65	0x3f289b56	0.65862024
66	0x3f45993f	0.7718696
67	0x3f10797f	0.5643539
68	0x3f13b409	0.57696587
69	0x3d87fa2e	0.06639515
70	0x3f208404	0.6270144
71	0x3f05abf3	0.522155
72	0x3f0852c7	0.5325131
73	0x3f42a3f4	0.7603142
74	0x3f0ab06b	0.5417544
75	0x3ed5ff81	0.41796497
76	0x3f0756f9	0.52867085
77	0x3ed80f8f	0.4219937
78	0x3f02d77f	0.5111007
79	0x3f7655c4	0.9622462
80	0x3e74fdfc	0.23925012
81	0x3ed6bee3	0.4194251
82	0x3eddd051	0.43322995
83	0x40249f7b	2.572234
84	0x3ed9ce47	0.4254019
85	0x3f4078fc	0.7518461
86	0x3eb3142c	0.34976327
87	0x3f9ba198	1.215869
88	0x3e9f0cfd	0.31064597
89	0x3e4e5e8f	0.20153259
90	0x3f27ff15	0.656236
91	0x3f13a696	0.57676065
92	0x3efe6d31	0.4969268
93	0x3e9d7d9a	0.3075989
94	0x3f431d60	0.762167
95	0x3ee0e7ad	0.43926755
96	0x3f5200cc	0.82032466
97	0x3f0655dc	0.5247476
98	0x3f4e2aac	0.8053386
99	0x3ef85a77	0.4850652

bias f4 [10]
0	0x3ecd2261	0.40065292
1	0x3ea46c6f	0.32113978
2	0x3f3f7d25	0.7480033
3	0x3f5ed70b	0.8704688
4	0x3ee294a6	0.44254035
5	0x3f23e846	0.64026296
6	0x3f361a36	0.71133745
7	0x3efe4ef3	0.49669608
8	0x3d85a06f	0.06524741
9	0x3f3fead1	0.74967676

weight f4 [3, 10]
0	0xbc07bbde	-0.008284537
1	0xbf4d9ce7	-0.8031754
2	0x3e5bcf1d	0.21465726
3	0x3e250119	0.161137
4	0xbe841b4d	-0.2580208
5	0xbd0c62ac	-0.03427379
6	0xbdaded4c	-0.084925264
7	0xbdfc2ab9	-0.12312836
8	0x3c97aa3f	0.018513797
9	0x3d2fec95	0.04295023
10	0x40934e8e	4.603339
11	0x408edd41	4.4645085
12	0x408ed10f	4.46302
13	0x408e367a	4.44415
14	0x40908f7f	4.5175166
15	0x408ee39c	4.4652843
16	0x408d4ce4	4.415636
17	0x4091121d	4.533461
18	0x409c9d75	4.894221
19	0x408ea33d	4.4574265
20	0xbf089685	-0.53354675
21	0x3f0c7285	0.5486224
22	0x3e6d75c3	0.23189454
23	0x3eae4998	0.34040523
24	0xbe26edb8	-0.1630162
25	0x3dcefa36	0.10106318
26	0x3cd79e10	0.026320487
27	0xbee93039	-0.45544603
28	0x3e4ad17d	0.19806476
29	0x3e8c447e	0.27396005

bias f4 [3]
0	0x3f602974	0.8756325
1	0x40930965	4.594897
2	0x3e6bbf5a	0.23022214
