digital_twin/pinn_6/model.pt (torch, 28777 bytes, 8 tensors)

weight f4 [50, 2]
00000000: 89dc cebc b6d0 86bd b51e 29bc 64b9 6bbd
00000010: 88c7 afbc 1f3a c63e 85d6 6cbb e3ec dfbc
00000020: 28aa 4d3c 966f 1c39 00e4 9e3c d44e 433d
00000030: 00be c23d 4031 af3f 136b f7bc a37f f43e
00000040: f103 94bc 4bee 743e e5bf bfbc b59a ed3e
00000050: f01f 163d 8f48 73be 05cd 86bc 33bb 4c3e
00000060: 4fe0 963d 039c 513f 8ee2 84bb 9c79 35bd
00000070: 72f8 ba3b 7fb4 5fbc fbba 3abb 7ffc c23d
00000080: dc79 eb3c 0db1 0ebb a45e 643d 4f36 fb3c
00000090: 71e5 bc3c 097a 813d e9e6 133d 0903 2fbc
000000a0: ed4a 4bbc bdb4 1c3d 6c6d 293d 633e d4ba
000000b0: 0670 f9bb 4194 383e 1203 02bd 0df5 43bb
000000c0: a1f2 8b3d 50e8 9a3f b5e3 a93d 903b 813e
000000d0: e001 9c3d 7f16 df3e 52af 5e3c cf1c 01be
000000e0: 45ae f9bc 751f 133d 525d b3bb e563 22bd
000000f0: 4755 9cbb a55e f23e 1c74 ec3c 00bf b9bb
00000100: 5de1 b1bc 6f10 9a3d 8532 033d 64a7 cb3c
00000110: 901c 40bc f94c d53a 8984 2abd 3d8e 903c
00000120: d4df a03d f827 a63f 32a6 3e3d 6c83 32bd
00000130: 5a02 2dbc ccd8 ca3b 67e7 903c 7d45 cdbd
00000140: ed82 acbc 6344 c03e f259 73bc 89f4 a0bc
00000150: da0c aa3d fdb0 bc3f 50c1 7d3c d9da 13be
00000160: c3fa c4bc 23f8 9c3e ea45 0a3e 8a44 d53c
00000170: 8909 98bc cd34 babc 8be4 c73d 63c2 c83a
00000180: 97ba 1dbd 4755 143f 6557 913d b443 f6bc
-0.025251644 -0.06582777 -0.0103222625 -0.05754985 -0.021457449 0.38716218 -0.0036138606 -0.027334636
0.012552775 0.00014918888 0.019395828 0.0476826 0.09508896 1.3686905 -0.030202424 0.4775363
-0.018068286 0.23919027 -0.023406932 0.46407095 0.03665155 -0.23758148 -0.016455183 0.19993286
0.07367002 0.8187868 -0.0040553277 -0.04430543 0.0057058865 -0.0136538735 -0.0028492797 0.09520816
0.02874463 -0.002177301 0.05575432 0.030665545 0.023058625 0.063221045 0.036108885 -0.010681876
-0.012408 0.038258303 0.04136412 -0.0016192909 -0.007612231 0.18025304 -0.03174121 -0.00299007
0.06833387 1.2102146 0.08295385 0.25240755 0.07617545 0.4357185 0.013591604 -0.12608646
-0.030478606 0.03591867 -0.005473771 -0.039646048 -0.004770908 0.47337833 0.028863959 -0.005668521
-0.021713907 0.07522666 0.0320306 0.024860092 -0.01172556 0.001627355 -0.0416303 0.01764595
0.07855192 1.2980947 0.046545215 -0.043582365 -0.010559643 0.006190395 0.017688466 -0.100230195
-0.021058524 0.37552175 -0.014852988 -0.019647853 0.083032325 1.4741513 0.015487984 -0.14438953
-0.024045354 0.30658063 0.13503233 0.026033659 -0.018559234 -0.022730255 0.09760388 0.0015316721
-0.038508024 0.5794262 0.07096747 -0.03006158

bias f4 [50]
00000000: b801 9e3e 9df2 aa3e a482 deba 1ed0 073d
00000010: fce9 f13e 9386 263f dc64 5f3f cc54 dcbd
00000020: 677d 50bd 8275 d0bd 5f8a 75bd 4893 04bd
00000030: 401d 3b3f 7783 2a3d f2a1 1b3f e3c0 4c3f
00000040: 5ce1 2abe 9cb6 65be ea1b e93e 1239 e2be
00000050: 23d4 3a3d cebf b53d 2cb2 2e3f daed 643d
00000060: 722f 183f d188 e9be 2372 373e 8e22 24be
00000070: 803d 263f 8723 623d 661f 0f3d 2393 32bd
00000080: e189 5a3e 11c1 40be 2364 bd3c ec47 143f
00000090: ea21 2c3f fc3a 9cbd a83f ed3d 6e64 e13e
000000a0: 1743 97bd 27c5 093f 032f df3e 3fe5 29be
000000b0: 3429 323f d659 a63e b4c3 1c3d 8e90 293f
000000c0: 1779 773e 6d13 63bd
0.30860686 0.33388224 -0.001697619 0.03315746 0.47248828 0.65049094 0.87263274 -0.10758361
-0.050900843 -0.10178663 -0.059946414 -0.03236702 0.73091507 0.04162928 0.60793984 0.7998182
-0.1668753 -0.22432941 0.4552911 -0.44184166 0.045612466 0.088744745 0.6824062 0.055890895
0.59447396 -0.45612195 0.17914633 -0.16028807 0.6493759 0.055209663 0.034942053 -0.04359735
0.21341659 -0.18823649 0.023119038 0.57922244 0.6723925 -0.07628438 0.11584407 0.44021934
-0.07385843 0.53816456 0.43590555 -0.16591357 0.6959412 0.32490414 0.038272575 0.662362
0.24167286 -0.055438448

weight f4 [50, 50]
00000000: d8c5 b33d d510 5c3e 9e17 ad3d 2c7d 313e
00000010: 983e 76bd 3d94 98bc 8240 dbbc bdba 753d
00000020: 443e 2d3e 136e 4a3e 655c 323c e392 973d
00000030: 2d97 613b 501b 9f3d 8a87 5dbd d1f4 0bbd
00000040: d93f 67bd a668 a8bd 2e0c 133c c29f a9bb
00000050: 6a66 7d3d 5a9b 9dbd 4197 f43d aa8d 393e
00000060: f09e 5b3c c687 cd3d 1b00 56bd 2d77 86bd
00000070: 6bb9 9a3c 96d4 9a3d b138 e6bb 87bd 323d
00000080: 17e1 5b3d 6fa0 b1bb a3bd 7f3d 01ff 2f3d
00000090: 7504 03bd ec93 8abd 06cc 3e3e 29b0 b2bc
000000a0: 3743 b43d e716 b93c 95ae 46bd 9a60 9ebd
000000b0: e96a 813d 02db 8d3c d3e7 de3d 0ce7 80bd
000000c0: 2dcb dc3d fb05 f33c da2e 5c3c 9671 de3d
000000d0: 39c5 2ebd 170a 0f3e b28f f33d 49ae 933d
000000e0: ff1e 683d ad32 053d 69c5 dbbc 013c 6cbd
000000f0: 28a0 0b3d 0253 babc 3b1b fcba 236d d83d
00000100: 5223 e5bc f48d 533a e073 e9bc f18e 1ebc
00000110: 4945 e8bc 83d6 3cbb f9bc a33c 6033 debc
00000120: 3104 47bd b556 f43d a79d d2bc 573b cb3d
00000130: 1dbf 033c 6c3a eb3d 07ba e5bb 1a8f ae3c
00000140: f95c 9e3c 5bf6 e4bc 37f1 353c 2e0c 353d
00000150: c1bc b63d 70c5 c6bb 1865 9a3d aa2a e7bc
00000160: 33df eb3d 3aab ecbc 1a77 55bd 3fba a6bb
00000170: 31e8 e2bc 4383 b8bc 2b2b 3ebd f625 c3bc
00000180: 2551 bf3c d171 9ebc a526 cdbd 1255 fabc
00000190: 35c7 bc3d a485 6e3d 6b57 903d cfbe 043e
000001a0: 3df6 e2bc 0d90 883a a8d6 853d 928c da3c
000001b0: 25ed 01bb a958 a13c db76 6a3d b976 813b
000001c0: 76fb 34bc 46a0 84ba 7741 d53b ff36 e03d
000001d0: 1ddc cebc f1d8 1fbc b06f cabc 79c6 bdbc
000001e0: 7ce5 6dbb 1f4b c93d 8217 5e3c 6b11 113e
000001f0: 22c0 ec3d 4758 973c d0c7 33bc 98e9 9a3d
00000200: f529 c93a a4f8 cc3d 77cf 81bd f50e d03d
00000210: 22b1 5d3c 0830 e6bc e093 e83b ab4d df3d
00000220: 0d51 0c3b 3c0f 9b3c 8877 663d a4a9 01bd
00000230: 5212 e3bc 0304 cc3b 360d 8cbc 3056 9b3d
00000240: 8b0c 7fbd fb1e a1bc 2753 703c 63e2 083c
00000250: 4925 543d de83 df3d 1c17 8d3c d0b9 093d
00000260: 42d2 d83d 359b c93d 9ae4 bfbc 35ef 6a3d
00000270: 4698 0a3d 8a9e e0ba d177 833d 8a7d a8bd
00000280: 68a8 e3bc f633 743c 5671 e13d 7320 a43d
00000290: a8e2 f5bc a1c6 053e 31f1 0e3c 4cba 443d
000002a0: bb92 f7bc 9e3d ff3c 4a65 963d e599 cd3d
000002b0: c8e6 193b 1883 eb3c 1517 413d 3dc5 0abd
000002c0: 43ac 8a3d 9256 c2bc e3f2 b13c 9348 2c3e
000002d0: aac4 03bd da06 6ebb 7dae 353d a6ea 44bc
000002e0: c9a8 163d 094b b63c 17c8 ca3d fc52 e83d
000002f0: 8b8d db3c cab9 ae3a 59d4 aa3d 0557 253d
00000300: c63c cc3c 7882 a83d 12db 703d 28b1 5abc
00000310: 79b6 f23c b353 f4bc 8eb2 77bd b8cd 84bc
00000320: 2232 24bd dc51 e93d 923b 47bc fa23 5d3c
00000330: 54bf c6bc 5c0b e33c 36af d6bc 8377 9ebc
00000340: 48ba c8bb c5f2 b5bc ea7b 09bc 303d 91bc
00000350: 1cbc bebc 61b9 903d 934a c5bc ff85 94bc
00000360: 2c1a 913c 810e 943a 1964 fa3c 6f31 663d
00000370: af45 2d3e 5345 b53d bd70 ad3d 9f65 45bc
00000380: fc2c cebc 127a 2bbb 95d7 303d 3e44 d63c
00000390: a264 0ebd 66d5 0d3e fc8a 7a3c b82c 863d
000003a0: b563 143d 9a84 fb3c ff10 e93d 04cd ac3d
000003b0: 6899 dd3c 3c5a bc3d 3f87 a03b 6c38 9bbd
000003c0: 7196 2abc b7e2 c23d 56f1 043d 6064 0ebd
000003d0: aae9 243a e6b5 b33c 7afc 8abc 2ee2 91bc
000003e0: dd8f 84bd 59ce c13c 5f30 313d b279 b2b9
000003f0: 84e3 933c 250d 583d 0028 273d ca0d a13d
0.0877797 0.21490796 0.0845177 0.17332906 -0.060118288 -0.018625373 -0.026764158 0.05999254
0.16918284 0.19768552 0.010886286 0.07401063 0.0034422383 0.07768881 -0.05408434 -0.034169022
-0.056457374 -0.08223085 0.008975072 -0.0051765153 0.061865248 -0.076956466 0.11942912 0.18120447
0.013404593 0.10035662 -0.052246194 -0.065657 0.018887242 0.07560079 -0.007025801 0.04363778
0.05368146 -0.0054207365 0.06243671 0.0429678 -0.031986672 -0.06766495 0.18632516 -0.021812515
0.08801883 0.022593929 -0.04850634 -0.07733269 0.063192196 0.017316345 0.10884061 -0.06294069
0.1078094 0.029665938 0.013438905 0.108615085 -0.042668555 0.13968693 0.11892642 0.07210977
0.056670185 0.03251903 -0.026827531 -0.05767441 0.034088284 -0.02274466 -0.001923419 0.10567691
-0.027970944 0.0008070164 -0.028497636 -0.009677635 -0.02835335 -0.0028814382 0.01998757 -0.027124107
-0.04858798 0.119306006 -0.02570994 0.099234276 0.00804117 0.114857525 -0.0070107016 0.02130847
0.019331442 -0.027949503 0.011104873 0.04420107 0.08922721 -0.006066017 0.07538813 -0.028218586
0.11517181 -0.028890241 -0.052115537 -0.0050881202 -0.027698608 -0.022523528 -0.046427887 -0.023821812
0.023354122 -0.019341381 -0.100171365 -0.030558143 0.09217683 0.05823292 0.07047924 0.12963413
-0.027705306 0.0010418907 0.06535083 0.026678357 -0.0019825187 0.019695597 0.057242256 0.0039509204
-0.011046281 -0.0010118566 0.006508048 0.1094799 -0.025251443 -0.009756313 -0.02471146 -0.023165928
-0.0036300113 0.09828781 0.013555409 0.141668 0.11560084 0.018474711 -0.010972932 0.07564086
0.0015347587 0.10008362 -0.06338399 0.10159103 0.013531001 -0.028099075 0.007097706 0.10903486
0.0021410615 0.018928163 0.056266338 -0.031655923 -0.027718697 0.006226064 -0.017096143 0.07584798
-0.06226782 -0.019668093 0.014668263 0.008354756 0.05179337 0.109138235 0.017222933 0.03362447
0.105869785 0.098440565 -0.023424435 0.05735703 0.033836626 -0.0017137092 0.064193375 -0.0822707
-0.027790263 0.014904967 0.11007945 0.08014002 -0.030015305 0.13064052 0.008724497 0.04802923
-0.030221334 0.031157311 0.07343538 0.10039119 0.0023483504 0.028749034 0.047141153 -0.033879507
0.067711376 -0.02372292 0.021722263 0.1682456 -0.032169975 -0.0036320002 0.044355858 -0.012018835
0.03678206 0.022252576 0.09901445 0.11343953 0.026800891 0.0013330516 0.08341283 0.04036619
0.024931323 0.0822801 0.05880267 -0.013347901 0.029628025 -0.029825067 -0.060473017 -0.016211376
-0.040086873 0.113925666 -0.012160199 0.013497347 -0.024261154 0.027715378 -0.026206594 -0.019344097
-0.006125722 -0.022210488 -0.00839136 -0.017729372 -0.023283057 0.07066608 -0.024083411 -0.0181303
0.017712675 0.0011295826 0.030565308 0.056199487 0.16921113 0.08851113 0.08468769 -0.012048154
-0.025167935 -0.002616529 0.043174345 0.026155587 -0.03476394 0.13850936 0.0152919255 0.06551498
0.0362279 0.030702878 0.11380195 0.08437541 0.027050689 0.09196898 0.004898935 -0.07579121
-0.010411845 0.09515899 0.03245672 -0.034763694 0.0006290922 0.021937322 -0.016966093 -0.017808046
-0.06472752 0.023657965 0.04325902 -0.00034041476 0.018052824 0.05274691 0.04080963 0.07863958

bias f4 [50]
00000000: e749 51bd 2c39 c5bc b245 f33d e3ca cbbc
00000010: 0a6c dabc 65d0 2ebc f286 a1bc 5527 c7bb
00000020: 0d23 14bd 05cd 9a3c 0015 cabc f36a abbc
00000030: f151 06bd 0a51 793d 057f 4b3d 9b7d 39bc
00000040: a820 b73d be85 b0bc 72ab c93d 0a93 a73d
00000050: d791 42bb 803a f8bb f3c3 1b3d 02c5 7e3d
00000060: 6d44 073e 3b86 bcbc 8b9b bc3d 90a4 20bb
00000070: 3e83 c0bb 8661 533d dcd5 093e 03a5 4bbd
00000080: 01af 91bc 8bf0 35bc f4d3 c0bc 3560 98bc
00000090: c650 3e3d 6ce5 bfbc ee66 2dbc e450 e83c
000000a0: fb3a ed3b ef91 3c3c b4b4 81bb 849e 503d
000000b0: 1772 c2bc 654d cc3d 0328 bdbb 137f c13d
000000c0: 182b 5e3d a8ab 833d
-0.05109587 -0.024075113 0.11878528 -0.024877017 -0.026662845 -0.010669802 -0.019717667 -0.006077687
-0.03616624 0.018896589 -0.024668217 -0.02092502 -0.03279299 0.0608683 0.049681682 -0.011321451
0.089417756 -0.021548148 0.09847154 0.08182342 -0.0029688978 -0.007575333 0.03802867 0.0621996
0.13209696 -0.023013225 0.09209355 -0.002451215 -0.0058750203 0.051606677 0.13460487 -0.049717914
-0.017783644 -0.011104713 -0.023538567 -0.018600563 0.04646375 -0.023424827 -0.010583622 0.028358884
0.007239697 0.011509403 -0.003958309 0.050932422 -0.023736043 0.09975699 -0.005772592 0.094480656
0.054240316 0.06429225

weight f4 [50, 50]
00000000: ca6e e6bc c728 b73c 1d25 2fbc d2e5 8f3c
00000010: 49b0 22bd ddf6 cb3d 4cc5 043d a9e5 a8bc
00000020: 8124 933d 9253 7e3d e34f f93c c5d7 89bc
00000030: 7b48 8e3d 8e00 f83d 4587 80bd 1623 933d
00000040: bafd 423c a223 b23d be64 33bd 049c 1e3e
00000050: 564d 22bd a7b6 d13c 4b60 c6bc b4c3 a9bc
00000060: 1dce 06bd 0970 6e3c 219b e6bc 22c4 a0bc
00000070: 03bb 3ebd 32ed 473c bfdd 973d 9747 373c
00000080: 4cb9 7f3d 2a35 9f3d b5b6 113b b5ac f03d
00000090: 0100 353e f814 fabc e4b9 f3bc 0ca6 cb3d
000000a0: de12 513d e5bf 0c3d 96f3 ffbc 28e8 713b
000000b0: f065 343d 5459 1e3e d1ea 6bbc 7120 48bd
000000c0: 8c2d 133c eaa6 693c 169a 55bb 09b7 0c3e
000000d0: 33d0 25bd 003f ed3d 4fe6 383d 97f6 12bd
000000e0: 81e8 033c 67e0 87bc a2ef 59bd f3e8 aa3c
000000f0: ca12 d43d e78a ab3c 41a7 3f3c 5f76 4cbd
00000100: d3c8 ec3d 8205 8b3d 849e 123c 0156 acb9
00000110: 2d21 61bc 4e3d 12bd 51a3 c23c 3120 973c
00000120: 5b6c 013d 4b57 a83d 3f5e 61bd 8ac5 4f3d
00000130: 9c8a 4f3d cf85 e23c 5310 393e 0cda d23b
00000140: 10a0 dabc 6c4f 363b 02cb e53d 084d 113c
00000150: 887d 95bc e150 ecbd 13c9 d1bc 5b4e 50bd
00000160: 3785 513c f1a8 143d 1f17 3dbd e4d7 9abc
00000170: 79de cbbc 0539 30bd d98c 093d 7ed3 40bd
00000180: f22b 4cbd 07e2 8a3c 6ba1 583d 5239 4f3d
00000190: 91b6 9abc 1fbf fa3d d2d7 3f3d 58e7 dc3c
000001a0: 928a 09bc a1df 8d3b 2a0a 8fbd 95b1 0e3e
000001b0: dacd 363d a8ce 67bc bcd4 2abc a6ec 8a3d
000001c0: 4ded 16be a8c7 813d 07dd 483e 3690 48bc
000001d0: e028 a8bb 186f 07bd 36f8 d9bc 402d 3f3d
000001e0: 800f 09ba 40b0 823c 35d2 1cba fca3 acb9
000001f0: 0fcc 423e 60fa 8c3d cfbb 113d b1bc 273d
00000200: b2ba 993d 8648 cfbd 79cc 1f3e 31c3 84bd
00000210: c45f 5b3d 97d3 c7bc 4b8d 31bd e6ff c03d
00000220: ff8a 793d 0b50 1e3d 78a1 663d 682a eebd
00000230: ee31 c43c c45b 05bd 1f40 cf3d aa2b 083e
00000240: d012 b73d fac2 083e f6a0 023e 2733 ed3a
00000250: 994e d2bc b0e7 23bb 0ea7 7e3d 141b 86bc
00000260: b1a0 7cbd cae6 8c3d 3493 1ebd ece8 01bd
00000270: af9b 123e f5a3 9dbc 1d92 a73d 8eca 81bc
00000280: 9516 153c 56ef c3bd 6baa f23d ea6c 683e
00000290: ac6a 51bc fda2 64bc c0e0 2abd 00eb d33d
000002a0: 89bb f4bc b3d0 103e dae7 d1bc da37 0dbd
000002b0: fb3d 0fbd 4105 14bc 43d4 45bd 6f17 b9bc
000002c0: d3cc f5bc 65a5 2cbd 4de9 02bd 14ba c13d
000002d0: 8eb2 19bd eb10 46bc be6b c1bc a225 c0bc
000002e0: d4e8 05bd d10b 653d 79cb 483e 917f e3bc
000002f0: 8537 b73d 72fc 37bd 40c9 0dbd 1647 ddbd
00000300: 9ede b9bc 6997 163c 48dc 1f3e af97 e43d
00000310: 0352 833d 05e2 15bd 72d2 c5bb c347 f53d
00000320: 2144 b4bc 8e1e 5c3d 12d2 683d b897 023e
00000330: ea5f bf3d 6241 05bd 5c12 8d3d f67b bdbc
00000340: 298f 813c 36ff 5e3d fe4a a23d 8b35 9c3c
00000350: e062 043d 8c56 eb3d 124c 87bc b1f8 b33d
00000360: d3a3 8a3d 7fc9 05bd 6190 3bbd f61a e2b7
00000370: 718a f83d 8d72 d2bc bd61 143c 589f ad3d
00000380: 2402 9ebd 40cf a33d 2d60 623d 23a7 0dbd
00000390: c5c1 bebb 488e 0e3d 9991 6b3d f1b4 0d3e
000003a0: 7abe c5bc affe 8739 1158 b13c 4a1f 7ebd
000003b0: 0093 ef3c a2e3 7ebd 3b0d 96bc c1d4 c9bc
000003c0: 33c5 64bd c245 bcbc dfe7 613d 2e25 ddbc
000003d0: d4a7 1a3e 96cf 203d 0dc1 65bd 4180 84bc
000003e0: 44e5 d43d b5c9 f0b9 0a7c c5bc 88a3 a93d
000003f0: 8b35 0cbc 8cc4 6cbd db22 f2bc 3c19 5bbd
-0.028129 0.022358311 -0.010690001 0.017565642 -0.0397189 0.09959195 0.03241472 -0.020617323
0.07184697 0.062091418 0.0304336 -0.01682652 0.06947418 0.12109481 -0.062758006 0.071844265
0.011901313 0.08698203 -0.043797247 0.15489203 -0.039624535 0.02559979 -0.024215838 -0.020723201
-0.03291141 0.014553078 -0.028150143 -0.019624773 -0.046565067 0.012202548 0.074153416 0.011186502
0.062432572 0.07773812 0.0022234146 0.11751691 0.17675783 -0.030527577 -0.029751725 0.0994378
0.051043384 0.034362692 -0.03124408 0.0036912058 0.044042528 0.15463763 -0.014399246 -0.048859064
0.008983027 0.014260987 -0.0032593063 0.13741697 -0.040481757 0.11584282 0.045141514 -0.035879698
0.008051039 -0.016586496 -0.053207047 0.020863032 0.10355146 0.020940257 0.011697591 -0.049917575
0.11561742 0.0678816 0.008948926 -0.00032870474 -0.01374082 -0.035702996 0.023759516 0.018447967
0.031597476 0.08219775 -0.05502152 0.050725497 0.050669298 0.027651696 0.18072633 0.0064346846
-0.026687652 0.0027818335 0.11220361 0.008868463 -0.018248335 -0.11538864 -0.025608575 -0.050855976
0.012788109 0.036293928 -0.046164628 -0.018901773 -0.024886357 -0.043023128 0.03358159 -0.047076695
-0.049846597 0.016953481 0.052888315 0.050591774 -0.018885883 0.12243485 0.04683668 0.026965782
-0.008394854 0.004329637 -0.069843605 0.1393493 0.04462991 -0.014148392 -0.010426696 0.06783418
-0.1473896 0.063369095 0.19615565 -0.012241414 -0.005131826 -0.03306493 -0.026607614 0.046674013
-0.0005228445 0.015953183 -0.0005982251 -0.00032928574 0.19023155 0.06883693 0.0355795 0.040951435
0.075063124 -0.101212546 0.15605344 -0.06482542 0.053558126 -0.024392886 -0.043347638 0.09423809
0.060923573 0.038650554 0.056306332 -0.11629182 0.02394959 -0.032558218 0.10119652 0.13297907
0.08939135 0.13355628 0.12756714 0.001809691 -0.025672244 -0.0025009923 0.062171035 -0.016370334
-0.061676685 0.06879957 -0.038714603 -0.031716272 0.14317201 -0.01924322 0.08182166 -0.015843656
0.009099622 -0.09567134 0.11848911 0.22697797 -0.01278178 -0.013954875 -0.041718245 0.10347557
-0.02987458 0.14142112 -0.02562325 -0.034477092 -0.03497122 -0.009034456 -0.04829813 -0.022594182
-0.030004894 -0.04214992 -0.031960774 0.0945932 -0.0375238 -0.0120889945 -0.023610946 -0.023455445
-0.032692745 0.055919472 0.19608869 -0.02777079 0.089461364 -0.044918485 -0.034615755 -0.10804574
-0.02268916 0.009191372 0.15611374 0.11161744 0.06412127 -0.036592502 -0.00603705 0.11976578
-0.022005143 0.053740077 0.056840964 0.12753189 0.09344466 -0.032533057 0.068882674 -0.023130398
0.015815334 0.054442607 0.0792446 0.0190685 0.032320857 0.11491117 -0.016515765 0.087876685
0.06769528 -0.032662865 -0.045791987 -2.6953854e-05 0.121357806 -0.025689388 0.009056506 0.08477658
-0.07715252 0.07998514 0.0552675 -0.034583222 -0.005821439 0.03480366 0.0575119 0.13838555
-0.024138678 0.0002593896 0.021648439 -0.06204156 0.0292449 -0.062228806 -0.018316856 -0.024637582
-0.055852126 -0.022982482 0.05515277 -0.026995268 0.15103084 0.03926047 -0.05609231 -0.016174437
0.103952914 -0.0004592665 -0.024106998 0.08283144 -0.0085576875 -0.05780463 -0.029557636 -0.053490862

bias f4 [50]
00000000: 28c4 103d 677f 54bd d151 563d 5ecc 823c
00000010: 9d2e 0b3d 7dac f8bc b34e 0c3e f254 32bd
00000020: 58c5 f8bb bdc6 ea3d 0ea3 be3d 44d5 afbc
00000030: 7cd0 24bd 5489 803c 43f3 afbc 7728 7a3d
00000040: 75dd 8a3d d2c3 e7bc 1f73 58bc 77e1 cdbc
00000050: a9cd 76bd dc8f 4cbd d352 6a3c 86b6 20bd
00000060: 4c84 b0bc 80d7 f9bc 8ed1 49bd 71a8 313d
00000070: b589 7ebc d383 2c3d bd8f d0ba d7ee a03d
00000080: 03e4 223d 9c28 5a3b 9b39 bdbc c145 433d
00000090: 9ca9 81bc d924 7fbc 8ffb 273b 7c3f 18bd
000000a0: 4531 71bd 48e5 8fbc 26b2 6cbd 60a6 2abd
000000b0: 64b4 b43d d255 0f3d e06c 92bd 59ef 57bc
000000c0: eff0 60bc 523c f9bc
0.03534332 -0.051879313 0.05232412 0.01596659 0.03398 -0.030355686 0.13701896 -0.04353804
-0.0075918846 0.114636876 0.09308444 -0.021463998 -0.04023789 0.015690483 -0.0214783 0.061073747
0.06780521 -0.028291617 -0.013211041 -0.025131924 -0.060254727 -0.049941882 0.014301973 -0.039236568
-0.021547459 -0.030498266 -0.049272113 0.04337353 -0.015535762 0.042117905 -0.0015911978 0.07858055
0.03976823 0.0033288365 -0.023098757 0.047673944 -0.015827946 -0.01557275 0.0025632118 -0.03716992
-0.058884878 -0.017565385 -0.057787083 -0.041662574 0.08823469 0.034993954 -0.071496725 -0.0131796235
-0.013729318 -0.03042427

weight f4 [5, 50]
00000000: 03ba fbbb 3556 07bc a66e 103e bd54 f7bd
00000010: 4ebf 29bc 69ce d2bc 6bdd f23d 8dac 633c
00000020: ded3 e03d d6b0 b33d a56b 973d 4608 c9bd
00000030: 3c09 993d e423 25ba 3478 39bc c753 5e3e
00000040: e918 083e f792 2abd 4b77 393d 58cb 21bc
00000050: 0c4f 3c3d 5b9e 3d3d e391 61be d8f7 e8bc
00000060: 594d 8c3b e059 10bb 8185 12bc 56fc b7bc
00000070: 4c0d 193e fd16 4c3e 7467 003e fde8 973c
00000080: 04c1 f63d c09b 043e 0ebc fcbd cc2d 48bc
00000090: fc63 8fbc f9ac ce3d 3bb4 983e 24aa b13e
000000a0: 49e3 703c 1d6e a53d 3c1f 8bbb 565c e6bc
000000b0: a06e df3d f2c0 8abc b8bd 8bbc 6b38 a6bc
000000c0: 8271 1dbd 686b 723b 6213 783d dd04 65bc
000000d0: 71e0 03bd 8f27 b8bb 09b1 74bc 180c adbc
000000e0: 2668 f8bc 355b 523d e294 ff3b 0747 0dbc
000000f0: fa9a 0d3d ff4f 5b3b 0e23 533e 5955 c63d
00000100: d43d e93d 7660 b8bc 167b 9ebb d9b3 293e
00000110: 2816 c13d e34b 93bc 5135 793c 5ee5 863c
00000120: 1db1 253c a8f9 94bb a5d4 a7bc 9a4f 1f3d
00000130: 01ac cc3d ad2f f2bc 296d a03c 501f 96bd
00000140: 0958 bf3d 33e7 1d3e d497 a1bc 16da a33c
00000150: e374 e43c 3321 aa3b d2ee 4b3d abb0 033e
00000160: af11 a539 f0a6 3f3e 9039 a73d d7d6 f93d
00000170: 657e 653d f476 d73b d6c6 013e d037 febc
00000180: d0c6 a43d 9268 a53c b0fd dc3d b40e a43d
00000190: 0303 8d3d 8c4b 8c3d c7aa 8fbb d620 9b3e
000001a0: 25fd c73d 3caa b7bc ce65 103c 7685 263d
000001b0: 5bc7 9d3d d0e6 1dbd 6ca9 8cbc 3144 353c
000001c0: 07c9 b43e e276 88bc cb98 36bc 4c0b cbbc
000001d0: 6ed7 3dbd 4578 9c3a c0e5 50bd 1125 d23d
000001e0: 7de2 273e 015b a73d a170 24be 1795 833d
000001f0: 6b96 acbc bfc9 38bc 728c a83d 7d09 bcbc
00000200: 2552 f3bd 632a 15bd ad3e 70bc eef9 0e3c
00000210: 10db f0bc af6c 0cbd 2703 413d 81f0 e7bc
00000220: 7e13 173d 38a7 6b3d 59ee 22be 85cc bc3c
00000230: 3ce9 5e3d 927d 04bc 29a5 e73d 5719 97bc
00000240: 700e 8fbb 484f 01bd 272e 38bc f4b6 023d
00000250: ba8c 6d3b ef40 96bc 0eaa 123c 3bf9 aa3c
00000260: 3827 adbc 82cb cc3c efde bdbb 014d 123e
00000270: 5845 1d3e 4eff 8abe a414 4fbd e834 b23b
00000280: ab93 3c3d add8 803c abf1 f03e 9db0 d0bc
00000290: 7dfe dc3d 6f2b e3bc fc5d fc3c 3644 263f
000002a0: 3762 55bd c3be a63d a26d d2bc 86f2 41bd
000002b0: ef07 1fbd ebbd 4e3c b53c e43d 027e b43d
000002c0: 07c4 4bbe 91bd 36bd 266f 6dbd d9bb e73d
000002d0: b141 a23d aaed a93d c41b 633d a383 da3d
000002e0: b5f7 433d 9286 6c3e f372 efbb f085 7cbc
000002f0: 12ed 0e3e d761 8d3d d1b9 94bd 28c2 ddbb
00000300: 60e2 bf3c a3a8 78bc 539a b6bc e2e4 41bc
00000310: 3d95 f6bc 7493 8cbd df3e c6be d937 70be
00000320: afaf dc3d 2847 f9be ae46 683c ca07 273e
00000330: ad3b 55be 37a4 8dbd 6ffa b43c 5d38 cdbe
00000340: f291 08be ccf3 2ebc cf58 293e 6783 44bd
00000350: 3e02 153f 6ffb 963d f3a0 983e b1ff 953b
00000360: 2064 833d 6b08 3f3f 7b13 b8bc 4d55 013f
00000370: 2f40 273c 0ca9 75bd 69e2 8dbc dcb5 66bd
00000380: 5834 aebd c61c a53e 3e35 21be 8e44 c4bc
00000390: e0ce 963c 9cf9 603d f934 7a3d 6037 e43d
000003a0: 666f 803d c623 de3c a29b 583e f9c5 7d3e
000003b0: 422c 7ebd 1e39 813c 99d1 213e 4fa3 483d
000003c0: ed16 383e 7315 8f3c 8b7a 90bd 4c6f e9bd
000003d0: d829 c1bc 8e14 54bd c9ea 53bd e6a6 c9be
000003e0: ac1f 2b3d e097 a2be
-0.0076820864 -0.008260299 0.14104709 -0.120767094 -0.010360552 -0.02573319 0.118586384 0.01389612
0.109779105 0.08773963 0.073935784 -0.09816031 0.074724644 -0.00062995986 -0.011320163 0.21711646
0.13290752 -0.041644063 0.045279782 -0.009875141 0.045973822 0.046293598 -0.22028308 -0.028438494
0.0042816815 -0.0022026226 -0.008942963 -0.02245919 0.14946479 0.19930644 0.12539464 0.018543715
0.120485336 0.12950039 -0.12340556 -0.01221795 -0.017503731 0.10091586 0.29825005 0.3470012
0.0147026265 0.08077643 -0.004245667 -0.028120201 0.10909772 -0.016937707 -0.017058238 -0.020290574
-0.038438328 0.0036990289 0.06056536 -0.01397821 -0.032196466 -0.00561995 -0.014934787 -0.02112393
-0.0303231 0.051356513 0.0077997306 -0.008622891 0.034571625 0.003346443 0.20618841 0.096842475
0.11388746 -0.022506934 -0.0048364503 0.16572513 0.09428054 -0.017980522 0.0152104655 0.016466793
0.010113028 -0.004546363 -0.020487139 0.038894273 0.09993745 -0.02956375 0.019583302 -0.07330191
0.09342963 0.15420227 -0.019725718 0.020001452 0.027887767 0.005191946 0.049788304 0.12860362
0.00031484428 0.18716025 0.08165276 0.121991806 0.056028742 0.0065754596 0.12673506 -0.031032473
0.08045733 0.020191465 0.107905746 0.08010617 0.0688534 0.06850347 -0.004384372 0.3029849
0.0976508 -0.022420041 0.008813335 0.040654622 0.0770404 -0.038550198 -0.01717063 0.011063621
0.35309622 -0.01665825 -0.011144827 -0.02478566 -0.046348028 0.0011937699 -0.051000357 0.10260976
0.16394992 0.081716545 -0.1605859 0.06424921 -0.021067819 -0.011278569 0.08229913 -0.022953743
-0.11880902 -0.036417376 -0.014663381 0.00872658 -0.029401332 -0.034283336 0.047122147 -0.028312923
0.036883824 0.05753252 -0.15911235 0.023046741 0.05442165 -0.008086579 0.11310799 -0.0184447
-0.0043657348 -0.03156975 -0.011241472 0.03191276 0.003624721 -0.01834151 0.008951677 0.020870795
-0.021136865 0.024999384 -0.005794398 0.14287187 0.15358484 -0.27147907 -0.050556794 0.005438436
0.046039265 0.015728319 0.47059378 -0.02547484 0.10790727 -0.027730672 0.030806534 0.6494783
-0.052095618 0.08141854 -0.025687043 -0.04735043 -0.038825925 0.012618522 0.111443914 0.088130966
-0.19898997 -0.04461438 -0.057967328 0.11315126 0.07922686 0.08297284 0.0554464 0.10669639
0.047843654 0.2309821 -0.007307404 -0.015412793 0.13957623 0.06903427 -0.07262004 -0.00676753
0.023423374 -0.015176925 -0.022290384 -0.011834355 -0.03010046 -0.06864062 -0.38719842 -0.23458804
0.107756965 -0.486871 0.014177008 0.16311565 -0.20823546 -0.06916087 0.022092072 -0.40082064
-0.13336924 -0.010678243 0.16537784 -0.047976878 0.58206546 0.07372176 0.29810295 0.0045776
0.06415582 0.7462222 -0.022470227 0.50520784 0.010208174 -0.05997567 -0.017319875 -0.05632578
-0.085060775 0.32248515 -0.15742967 -0.02395847 0.018409193 0.054925546 0.061085675 0.111433744
0.062712476 0.027116667 0.21153119 0.24782552 -0.062053926 0.015774306 0.15802611 0.04898387
0.17977495 0.017466282 -0.07054623 -0.11398181 -0.023579523 -0.051777415 -0.05173758 -0.39385146
0.04177825 -0.31756496

bias f4 [5]
00000000: 827a d33c c075 09bd 2e52 ba3d 099c c5bb
00000010: 0a79 4d3c
0.025815252 -0.03355956 0.09097706 -0.0060305637 0.012541065
