digital_twin/beluga_output/pinn_2/model.pt (torch, 42473 bytes, 8 tensors)

weight f4 [64, 2]
000000 41 5c 8b ba 49 f9 68 be f1 36 9a bb 0c 01 8a 3c
       -0.0010632352 -0.22751345 -0.0047062566 0.016846202
000010 a3 36 30 3c fc 71 9e 3e 3b c3 da bb 67 69 98 3d
       0.010755214 0.30946338 -0.0066761053 0.07441979
000020 a1 d0 3f be aa a4 c5 bd f6 19 87 3e 82 7d e9 3d
       -0.1873193 -0.09650548 0.26386994 0.11400892
000030 16 59 2b 3e 8d 09 0e 3f 4e c3 25 3c 72 a9 90 3e
       0.16733202 0.55483323 0.010117365 0.28254277
000040 64 76 75 3c 1f b3 5a 3e 19 55 34 3c f0 91 bb 3e
       0.01498184 0.21357392 0.011006617 0.3663478
000050 99 3c e6 bc c6 14 d2 bd 6c f3 81 ba e8 00 83 be
       -0.028105067 -0.102578685 -0.0009914464 -0.2558663
000060 fa eb b2 3e c7 ac eb 3e 85 a1 96 ba d4 63 5f be
       0.3494566 0.46030256 -0.0011492228 -0.21815425
000070 bd 84 08 3d 70 be a2 bd 3a 81 90 be b6 0d e2 bd
       0.033329714 -0.07946479 -0.28223592 -0.110377714
000080 a9 df 40 3e 4e 7b 89 bc 5c 94 44 3c 20 6e e2 3e
       0.1883532 -0.01678243 0.011998262 0.44224644
000090 db 85 8b 3d 88 7f aa bd 60 cf 27 3f 5a d5 b1 bc
       0.0681264 -0.08325106 0.65550804 -0.02170818
0000a0 c5 af 72 bb 05 d7 7f bd 29 9c 03 be b7 8f 25 3e
       -0.0037031036 -0.062460918 -0.12852539 0.16168104
0000b0 7d 68 56 3c c5 7c 9e 3e 72 74 00 3b cf 3d 94 be
       0.013086435 0.30954567 0.0019600657 -0.28953406
0000c0 9a 6a 39 3e f1 2e 0f 3f 18 35 24 3e 5d 4c 32 3f
       0.18107072 0.55931 0.16035879 0.6964777
0000d0 fe eb 50 3e af e5 e6 3e ff e9 0f 3f 64 bf 2e bd
       0.20402524 0.4509711 0.56216425 -0.042662993
0000e0 b9 7e 79 3c 97 6f 4d 3d a3 12 82 3c b2 bd 34 3d
       0.015227967 0.05015525 0.015878027 0.04412622
0000f0 b4 ff 20 3c 24 c2 e5 3e 1b 0d e8 bc ca 5c 06 be
       0.009826589 0.4487468 -0.028326562 -0.13121334
000100 8e f0 7d ba cb 69 74 be 4e e7 43 3e f3 d0 61 bd
       -0.00096870295 -0.23868482 0.19131204 -0.05513091
000110 d3 6a 2c bb 88 06 da bd 3c 23 9a bc 9b ec 04 3d
       -0.002630879 -0.10645777 -0.01881563 0.032452207
000120 3b 2d 1c 3c f6 00 2d 3f e9 f1 d6 bc 42 d0 c2 bd
       0.009532268 0.6757959 -0.026238399 -0.09512378
000130 b0 08 7d bc 49 44 9b 3d fe f6 e9 3b 3c 51 e0 bd
       -0.015443966 0.07581384 0.0071400395 -0.10952994
000140 ad 60 5a 3c 69 d2 ab 3e d8 a8 f4 ba ae aa 06 be
       0.013328713 0.33558968 -0.0018666042 -0.13151047
000150 aa 04 f9 3b 6e 86 31 3f c2 54 64 3c b8 4a 34 be
       0.007599433 0.6934575 0.013936223 -0.17606628
000160 d7 16 1c 3c d4 60 99 3e 73 ca 0b 3c 7a c3 e1 3e
       0.00952693 0.29956686 0.008532154 0.4409445
000170 3c 83 09 bb 60 4b 06 be 7c 14 6c 3e 37 8e 8e 3c
       -0.0020982763 -0.13114691 0.23054689 0.017401798
000180 f1 65 61 3c b7 8f a0 3e fc 16 3a 3e ca b7 04 bc
       0.013757215 0.31359646 0.1817283 -0.008100459
000190 4f 35 9f 3c b4 12 d4 3e 17 bf cd bb e7 26 b2 3d
       0.0194346 0.4142052 -0.006278883 0.08698826
0001a0 2b ba 57 3e b7 7d 49 3f bf ff 28 3e 8f 7c 75 bc
       0.21067111 0.7870745 0.1650381 -0.01498331
0001b0 bf 15 d8 bb 84 34 b4 3d 29 fe 06 3c 31 06 04 be
       -0.006594389 0.08799079 0.008239307 -0.12892987
0001c0 d6 38 f4 bb db 71 9e 3d 1b 99 8c 3e 59 ce 53 3f
       -0.0074530644 0.0773656 0.2746056 0.82736737
0001d0 22 60 a0 bc 8a a6 2c 3d 0d d9 e5 3b c4 d3 27 be
       -0.01957709 0.04215101 0.0070144 -0.16389376
0001e0 c4 12 37 3c e0 fd 88 3e b6 60 72 3f da f5 8c bd
       0.011173908 0.2675619 0.9467882 -0.0688283
0001f0 59 e1 66 3c 67 b6 2c 3e 87 7e 87 bc 38 6b 50 3d
       0.014091813 0.16866456 -0.016539825 0.0508835

bias f4 [64]
000000 4b 64 31 3f 34 1a cb ba ab a6 e3 3e 02 c0 1f 3e
       0.6929366 -0.001549548 0.44463095 0.15600589
000010 2e 30 56 3e f5 98 04 3d ea f3 e9 3d fe 5a 00 3f
       0.20916817 0.032372434 0.11423476 0.50138843
000020 d0 93 ea 3e 69 a9 27 3e c2 a8 22 3e 9e 0f 61 3f
       0.45815897 0.16373219 0.15884688 0.87914455
000030 49 25 0e 3e f8 67 2a 3f 90 4b 01 3b 58 63 53 3d
       0.1388141 0.66564894 0.0019728877 0.051608413
000040 4f c9 bb 3e b8 0a 3b 3d 43 af 33 bc 10 9d 31 3f
       0.36677024 0.04566452 -0.010967079 0.69380283
000050 eb a2 dc 3e 6a 5a 37 3d 0e a9 a8 3d b0 f1 44 3f
       0.43093047 0.04476396 0.082353696 0.76931286
000060 52 2f d1 3e 6d c1 1f 3f 52 8f b2 3d 07 5b 43 3e
       0.40856415 0.6240452 0.087187424 0.19077693
000070 79 a6 68 3e 25 f4 8a 3e 70 25 34 3f da 6b 06 3f
       0.22719754 0.27139392 0.70369625 0.5250832
000080 e5 41 39 3f 65 6b a0 3e 2d 7b fb 3e f6 f4 70 3c
       0.7236617 0.31331936 0.49117413 0.014706841
000090 2a 27 3f 3d 70 12 5f 3d 77 d8 a4 3d 54 90 10 be
       0.04666821 0.054460943 0.080491 -0.14117557
0000a0 c5 3b f0 3e 43 40 b5 3e fa d5 1c 3d bb c6 47 bd
       0.469206 0.3540059 0.03829 -0.04877351
0000b0 9b 52 42 3f 8e f0 1c 3f d9 4d 06 3f e1 68 3d 3f
       0.75907296 0.6130456 0.52462536 0.7398816
0000c0 a1 53 30 3d 26 d8 8c bb 64 a6 7a 3d b6 a7 b4 3d
       0.043048505 -0.004298228 0.06119384 0.08821051
0000d0 7f 60 d4 3d 3c f9 14 3f 6f c0 b2 3d 15 3f 90 3e
       0.10369968 0.581928 0.0872811 0.28173128
0000e0 80 db 90 3d 6a 0e 2b 3e 40 03 43 3e a9 8b fa bd
       0.07073116 0.16704717 0.19044209 -0.12233669
0000f0 ff 0b 37 3f 19 41 48 bd 33 2f 93 3e 5f 97 9c 3d
       0.7150268 -0.048890207 0.28746948 0.07646059

weight f4 [64, 64]
000000 28 65 87 bd c5 39 ec bc 7a 92 86 3d bf d3 1d 3d
       -0.06611091 -0.02883614 0.06570907 0.038532015
000010 ce eb a6 3d 3e 34 b1 3c 74 c7 2f 3d 66 4b e1 3d
       0.08150445 0.021631356 0.042914823 0.11000709
000020 a0 c1 b9 bc 02 d8 cb 3d 7f 91 6d 3d d5 bc 78 3d
       -0.022675335 0.099533096 0.058000084 0.06072696
000030 d6 bc 29 3e ad 4a a7 3c 06 9b c6 3d df ef bd 3d
       0.16575941 0.02042135 0.09697537 0.092742674
000040 01 9e 20 3d 66 2a bf 3d a7 ff 8d 3d 7e 81 41 3d
       0.039213184 0.09334259 0.069335274 0.047242634
000050 62 3f 00 bd 76 07 c1 3d 5b 07 5f bc d5 3d 9b bd
       -0.031310447 0.09425251 -0.0136125935 -0.07580153
000060 96 06 35 3d c0 ab 77 3d 42 74 24 3d c8 d3 83 3d
       0.044195734 0.060466528 0.040149935 0.064368784
000070 73 2e 63 bd 20 f0 60 bd a1 9e 63 3d b0 75 11 3e
       -0.05546422 -0.0549165 0.055571202 0.1420505
000080 b1 ad 87 bd bc 02 16 3e ef 8b cf bc 3a 1c aa 3d
       -0.06624926 0.1464948 -0.02533528 0.08306165
000090 f6 83 2c 3d 6f 85 49 3d 7a 06 b8 bc 50 ae b3 3c
       0.042118035 0.049199518 -0.022464026 0.021933705
0000a0 56 6d 46 bc a1 2e 4b 3b 1a 1d d4 3d bb 74 08 3d
       -0.012111029 0.0031003135 0.10357113 0.033314448
0000b0 f4 40 ed 3d d0 54 c5 3d 43 d8 08 3d e4 a5 35 3d
       0.115846545 0.09635317 0.03340937 0.04434766
0000c0 3b 50 c0 bc f4 f2 b7 3c 46 2b 55 3d 9c f0 25 bd
       -0.023475757 0.022454716 0.052043222 -0.040512666
0000d0 03 ab 38 3d 36 ba 2d 3d aa d1 34 bd 22 41 43 3d
       0.045084964 0.042413913 -0.044145264 0.047669537
0000e0 fd 1c 24 bd 44 79 39 3d f2 bd 15 3c e0 88 50 3c
       -0.040066708 0.045281664 0.009139525 0.012727946
0000f0 0a 17 c0 3d 64 48 13 3e c5 13 11 bd c5 a4 25 bd
       0.09379394 0.14383084 -0.035419244 -0.04044034
000100 c1 92 8e be ac 5b 6f bd 8d 76 b3 bd 10 8c c3 bd
       -0.2784634 -0.058437034 -0.08762846 -0.09548199
000110 09 c6 1c 3e 8f 81 60 bd a1 80 be bd 69 1b ae bd
       0.1530992 -0.054811057 -0.09301878 -0.08501322
000120 bc 20 e6 bd d6 b5 fd bd 54 f9 c9 3d 1f 35 a8 be
       -0.11236712 -0.12388198 0.09862009 -0.32853028
000130 a3 c1 b9 bd 83 20 af be 3a 1f 14 3b 4f 77 66 3e
       -0.090701364 -0.34204492 0.002260162 0.2250645
000140 53 e4 1d bc 6e d9 cd 3d b0 c6 e7 3d f7 34 35 bd
       -0.009636956 0.10051237 0.113171935 -0.044239964
000150 fd 6c 70 be bb f6 30 3d 9d ba eb bd 1b 27 9f be
       -0.23479076 0.04320405 -0.11510203 -0.31084523
000160 48 de be bd 8c 4a 85 3c ea 6c 9a bd b7 5f b9 bc
       -0.093197405 0.016270898 -0.07540305 -0.022628648
000170 65 bd 1c be 9d a7 8b bd 05 fa 96 bd 23 21 78 3d
       -0.15306623 -0.06819079 -0.07371906 0.060578477
000180 2a 35 a0 be 05 67 15 bd 45 7e 7e be 8b b8 ad bd
       -0.3129056 -0.0364752 -0.24852856 -0.084824644
000190 e4 c1 bb bd e1 3a 05 3e 8f 54 17 be 7c 5d e9 3d
       -0.09167841 0.13010742 -0.1477835 0.11394784
0001a0 09 14 10 be 20 68 43 be a5 e2 00 3c db 28 e1 3d
       -0.14070143 -0.1908269 0.007866536 0.10994121
0001b0 89 ec b0 bd 3a 7c d4 bc 5b 4b 14 be da e3 8f bc
       -0.086388655 -0.025938142 -0.14481871 -0.017564703
0001c0 e6 8f 05 be 01 f5 43 3d 2b 6f d3 3c e1 95 fb bd
       -0.13043174 0.047841076 0.025809845 -0.122844465
0001d0 0f ea 32 bd 1d 91 55 bd a3 57 05 be e5 a3 1e 3d
       -0.043680247 -0.052140344 -0.13021712 0.03873052
0001e0 ee 59 b7 bb df 24 68 bd 79 b4 12 be 24 dd 31 3e
       -0.0055954373 -0.056675788 -0.14326657 0.17369515
0001f0 e9 3a 77 bd 0e 11 82 3d 7b 10 0c be c8 a0 96 bd
       -0.060358915 0.06350909 -0.13678162 -0.07354885
000200 6d 95 d3 bb 7f 98 a2 3d ad 65 a3 3d 2f ec 5a bd
       -0.006457022 0.079392426 0.079783775 -0.0534479
000210 ff 23 ec 3d 6c e9 bd 3c cb 05 08 3e ae d2 63 3c
       0.11530303 0.023182593 0.1328346 0.01390521
000220 54 21 8e bc bc 2f f9 3d 46 95 a2 3d b9 7c 72 bb
       -0.017349876 0.12167308 0.07938628 -0.003700061
000230 61 35 7d 3d 98 92 16 bd 59 47 5e bb e5 3c 1a 3d
       0.061818484 -0.036760896 -0.0033917038 0.03765573
000240 3b d1 10 3e 39 60 4d 3e e7 43 0d bc b6 73 84 3d
       0.14142315 0.20056237 -0.008622146 0.064673826
000250 fa 04 59 3d d3 c7 bb 3d 0d 82 2e 3d ce 2b 39 3d
       0.05298326 0.09168973 0.042604495 0.04520779
000260 bd a7 d4 3d e5 df 52 3d 2a 77 47 3d 15 3e d5 3b
       0.10383556 0.051483054 0.048697628 0.006507645
000270 95 bc 73 bd e7 fd 6e bd fa 10 33 3d e1 30 05 3e
       -0.059506018 -0.05834761 0.043717362 0.13006927
000280 87 5e ad bc bf cc 66 3c fd 4b 4c bd 31 97 d6 3b
       -0.021163238 0.014086901 -0.049877156 0.006548785
000290 4d 8a 43 3d 8a 0c 9b 3d 81 01 3e bd e6 c4 3d 3d
       0.047739316 0.07570751 -0.046388153 0.046330355
0002a0 fc 1e d3 bb c0 af 4f bd b8 66 47 3d d4 9c 79 3d
       -0.0064429026 -0.050704718 0.048681945 0.06094058
0002b0 3c 28 e5 3c 69 12 b4 3d ce bf 4a bd 6e 80 1a 3d
       0.027973287 0.08792574 -0.049499325 0.037720136
0002c0 b8 8f 97 3c c7 88 34 3d 93 e9 26 3e 6d 88 0b 3d
       0.018501148 0.044075754 0.16300039 0.034065653
0002d0 e0 ee 31 3e f6 ae f7 3c ea f5 4e bd fe 9c ac 3d
       0.1737628 0.030234795 -0.05052749 0.084283814
0002e0 32 6e 11 3c 0f 45 da 3d c1 e4 4b bd 83 34 f3 3d
       0.00887637 0.10657703 -0.049778704 0.1187525
0002f0 61 8b 9c 3c 6b 51 bb 3c d0 0d ce bc e0 89 4c bd
       0.01910943 0.022865972 -0.02515307 -0.049936175
000300 b7 22 4d be 27 03 61 3d 57 9a b4 bc 5b 5b 77 bd
       -0.20032774 0.054934647 -0.022046251 -0.060389858
000310 95 1d 9e 3d f9 fd 3f bd 44 e0 20 bd 2a 8b 1b 3d
       0.07720486 -0.046873067 -0.039276376 0.037974514
000320 18 15 3b bd a3 cc 94 bd e1 f8 ab 3d 52 93 48 be
       -0.045674413 -0.07265594 0.08397079 -0.19587448
000330 56 1a 93 bd a3 78 98 be 76 20 09 3d 3d c4 04 3e
       -0.071827576 -0.2977954 0.033478223 0.12965484
000340 85 02 eb 3b 8c 8e 31 bc 47 3c 54 3d 4e 69 46 bc
       0.007171931 -0.0108372085 0.051815297 -0.0121100675
000350 f8 e4 17 be 7d c8 cd 3c a4 38 a9 bd 0f c0 a8 be
       -0.14833438 0.025120014 -0.082627565 -0.3295903
000360 09 85 76 bd 5e 4b 93 bd 5c b5 92 bd 6d 40 ea 3d
       -0.060185466 -0.071921095 -0.07163498 0.114380695
000370 81 f0 d7 bd 09 10 dd bd 71 67 8b bd 53 ef c4 3c
       -0.10543919 -0.10794074 -0.06806839 0.0240399
000380 d7 3f a1 be 6f a0 8d bc 4d 6a 11 be 2a d6 9d bd
       -0.31494018 -0.017288415 -0.14200707 -0.07706864
000390 06 dd 90 bd 0a d9 b2 3d e6 1d 6a bd 00 ea 88 3d
       -0.07073407 0.08732803 -0.05715742 0.06685257
0003a0 bb df cc bd e8 91 21 be 64 f1 90 bd c3 ab 16 3e
       -0.10003611 -0.15778315 -0.070772916 0.1471396
0003b0 c5 b2 8d bd 9d ba cc bc 79 17 d7 bd 51 4f 55 bd
       -0.06918863 -0.024991328 -0.10502524 -0.052077595
0003c0 f4 a3 ce bd 47 93 d5 3d 6c ad 27 bd 49 3d bc bd
       -0.10089865 0.104284815 -0.040936872 -0.09191377
0003d0 fa 3f 44 3d e6 0e 25 bd 3d 9d 33 bd 12 b5 aa 3d
       0.047912575 -0.04029741 -0.043851126 0.08335318
0003e0 4b 8e 89 bd 03 4f 93 bd e3 d2 fd bd 4b db a2 3d
       -0.06716593 -0.07192805 -0.12393739 0.07951983
0003f0 4d d6 8f bd eb 8c bd 3c 71 51 a5 bd 12 e0 cc bd
       -0.070232965 0.023138484 -0.08072174 -0.100036755

bias f4 [64]
000000 6d 86 3a 3d b2 87 c1 bd 07 38 f8 3d 7e 53 93 bd
       0.045538355 -0.0944971 0.12120061 -0.07193659
000010 a4 84 9b 3d 97 ad 30 bd 75 01 c4 3c 4e 5f 8f bd
       0.075936586 -0.0431343 0.023926476 -0.070006
000020 44 99 94 3c 32 96 9f 3d f0 4d 9f 3c 03 48 c1 3c
       0.018139489 0.07792319 0.019446343 0.023593908
000030 20 e9 05 3d 6d 80 2b 3e 93 5c 98 3d 38 3f 2f 3d
       0.03269303 0.1674821 0.07439532 0.0427849
000040 68 fe 90 bd 6e ad cb bc b0 20 a2 3d 7b ad 52 3d
       -0.07079774 -0.024862971 0.07916391 0.051434975
000050 e0 41 75 3d 74 c4 ad bc 0a e1 a8 bd e5 8d f9 3d
       0.059877276 -0.02121184 -0.08246048 0.12185267
000060 d5 06 8e 3d 9a 58 01 3e 6b 53 f6 3d 40 ac f4 bc
       0.06934897 0.12631455 0.120276295 -0.029867291
000070 d2 4c 1e 3d fd 30 46 3d e3 38 6a bb f9 e7 b1 3d
       0.03864748 0.048386563 -0.0035739474 0.086868234
000080 17 10 74 bd 29 41 dd 3d 69 af 98 3d ef 5a 26 3e
       -0.059585657 0.10803444 0.07455332 0.16245626
000090 6b 43 20 3d 65 2b 1a bb fe e6 a4 3d fe ea a7 3d
       0.039126795 -0.00235244 0.08051871 0.08199118
0000a0 eb 56 46 3d 17 a4 1c 3d 3b 53 1f 3e bb 86 35 3c
       0.048422735 0.038242426 0.15559094 0.0110794855
0000b0 e2 f0 f8 3c 95 2c 86 3d 7a 5f 22 bd 05 94 d1 3d
       0.0303883 0.06551472 -0.039641835 0.102333106
0000c0 72 ac 2a 3d 9d fc 0e 3e 74 2d 9b 3c cf be 9d bd
       0.041668363 0.13963552 0.018942572 -0.077024095
0000d0 c5 c3 c8 3c 09 38 ec 3d f7 9a fa 39 51 fe 7b 3c
       0.024507413 0.11534125 0.00047799174 0.015380458
0000e0 8c 4a 94 3d 19 1b af bd ce 35 d5 3d 44 91 23 3d
       0.07240781 -0.0855009 0.10410653 0.039933458
0000f0 d6 f7 a4 bd 86 59 a0 3c 7a 19 df 3c a8 3d c3 3c
       -0.080550835 0.019573938 0.027233828 0.02383311

weight f4 [64, 64]
000000 64 b6 a9 3d 9f 64 ce 3d 3e 41 96 3d c1 ce 25 3d
       0.082867414 0.10077786 0.07336663 0.04048038
000010 5c 92 9f 3d 40 82 98 3d 1c 55 8f 3d 7e c4 0d 3e
       0.07791588 0.07446718 0.06998655 0.13844487
000020 08 3d 55 3d fe 6c 95 3d 9d 36 85 3d 40 ba c0 3b
       0.052060157 0.07296179 0.06504557 0.0058815777
000030 2d f9 e8 3c c3 43 87 3d 9c 3d f1 3d 3a 8c 3d 3e
       0.028439129 0.066047214 0.11779329 0.18510523
000040 99 51 22 3d 19 14 94 bb ef de 05 3e 29 9d fd 3d
       0.0396286 -0.0045189974 0.13073324 0.123834915
000050 71 6e 86 3d 22 3b 77 3d c9 92 83 3d 1a 0c 11 3e
       0.06564034 0.060359128 0.064244814 0.14164773
000060 bb 69 53 3d cb 41 22 3e f8 ad 8d 3d ee a5 b5 bd
       0.051614504 0.1584541 0.069179475 -0.08869539
000070 e3 15 20 3e 06 a9 92 3d 48 8f 2a 3d 1a 50 01 3e
       0.15633349 0.07161145 0.04164055 0.12628213
000080 5c c3 72 3d 4d b9 7b 3d 7a 92 7a 3d 06 ce 21 3e
       0.05926834 0.061456013 0.061174847 0.15801248
000090 bb f6 c4 3d 4a 0b c9 3d bc 08 76 3d 0f 6a 89 3d
       0.096173726 0.09816606 0.060066923 0.06709682
0000a0 27 f5 38 3e 54 0d 01 bd 84 9f 89 3d e0 82 63 3d
       0.18062268 -0.03150685 0.06719878 0.055544734
0000b0 3d 34 0b 3e 79 87 f8 bd b3 24 43 3e bb 80 9a 3d
       0.13594146 -0.12135214 0.19056968 0.07544085
0000c0 84 29 4f 3e 17 7d 02 3e ee b4 a0 3d 6b 96 96 3d
       0.2023068 0.1274303 0.078470096 0.07352909
0000d0 91 13 93 3d dd eb 9f 3d ed 84 88 bd a0 01 90 3d
       0.07181466 0.07808659 -0.066659786 0.0703156
0000e0 c2 31 ef bd 96 74 84 3d 01 20 8f 3d cd 82 9b 3d
       -0.116794124 0.064675495 0.06988526 0.07593308
0000f0 6d 10 86 3d 2f 8a bc 3d 4a 6a 9e 3d de 69 9c 3d
       0.06546102 0.09206044 0.07735117 0.0763738
000100 f7 09 c6 bd 1a 00 8f bd 2e 64 9c bd 1f b6 0e be
       -0.096698694 -0.06982441 -0.07636295 -0.13936661
000110 52 9f b1 bd d6 9f e1 bd 15 25 dc bd c7 ba ef bd
       -0.08672966 -0.110168144 -0.1074926 -0.11705547
000120 82 9f ad bd 82 e0 bb bd 3d b8 e0 bd 30 da 20 3d
       -0.08477689 -0.09173681 -0.10972641 0.03927058
000130 d9 42 90 bc e2 57 8f bd 21 3e 31 bd c0 74 3e bb
       -0.01761 -0.06999184 -0.04327214 -0.0029061288
000140 fd c1 7b bd 13 cd d0 3d ab da 99 3c 69 bb 97 bd
       -0.0614643 0.10195365 0.018781027 -0.074087925
000150 e2 48 af bd b7 3c 98 bd 69 5f bc bd 0f ff 9e bd
       -0.08558823 -0.074334554 -0.091978855 -0.07763492
000160 72 8b da bd 81 0f a9 bd 0f 52 b6 ba bc 43 31 3d
       -0.10671128 -0.0825491 -0.0013909953 0.043277487
000170 f3 33 a2 bc 5a 3c 73 bd f9 46 8b bd 07 8c 8c bd
       -0.019800162 -0.059383728 -0.06800646 -0.068626456
000180 2a 85 09 bc 3c 80 17 bd 74 2f b6 bd 66 ae 96 bd
       -0.008393565 -0.03698753 -0.0889577 -0.073574826
000190 99 75 6b bd 8e 16 c6 bd 2f c8 85 bd 38 a2 8d bd
       -0.057485197 -0.09672271 -0.065323226 -0.069157064
0001a0 1a 54 8c bd a1 3f bd 3d ce e7 93 bd 17 f9 02 be
       -0.068519786 0.09240652 -0.072219476 -0.12790333
0001b0 91 fe b3 bd 5f 08 fd 3d 2e 08 ea bd ee 64 b5 bc
       -0.08788789 0.12355112 -0.114273414 -0.022142854
0001c0 1e f9 a2 bd a7 b1 1c bd 6d 07 96 3c 5f 32 f8 bd
       -0.079576716 -0.03825536 0.018314088 -0.121189825
0001d0 3e e3 c5 bd 79 ef 70 bc f4 9d 1a 3e fe 06 09 bc
       -0.09662484 -0.014705532 0.15099317 -0.0083634835
0001e0 91 eb fb 3d 9a b5 1a be 9f 68 74 3b 6e a9 ab bd
       0.1230079 -0.15108338 0.0037293804 -0.083819255
0001f0 6f 17 03 be ae ac c3 bd 07 8a a7 3c 3d bf 9a bd
       -0.12801908 -0.095544204 0.020451559 -0.07556007
000200 ea 44 86 3d e3 13 ec 3d 74 7e 05 3d c8 9a 26 3e
       0.06556113 0.115272306 0.0325913 0.16269982
000210 8b 59 0e 3e 69 b4 86 3d 15 c9 bf 3d 72 15 f6 3d
       0.13901345 0.06577379 0.09364525 0.12015809
000220 32 81 72 3d 4f 4d 46 3e 5c 80 dc 3d 56 ae b3 bc
       0.05920524 0.19365428 0.1076667 -0.021933716
000230 ef c1 11 be c2 e7 f5 3c 38 ff d4 3c 87 fb 42 3d
       -0.14234136 0.030017737 0.026000604 0.047603156
000240 98 13 f8 3d b3 b9 ec bd df 05 9c 3d 0f a5 1e 3d
       0.12113112 -0.11558857 0.07618307 0.03873163
000250 5b 99 84 3d ae 88 ba 3d c1 a2 3b 3d 15 9e 35 3d
       0.06474563 0.09108101 0.04580951 0.044340212
000260 1c d0 d5 3d 8b b5 4f 3d b7 de 49 3d 06 e9 08 bd
       0.10440084 0.050710242 0.049284663 -0.033425353
000270 fb 93 f6 3c a5 a1 0e 3d 61 63 3e 3d 4b 92 db 3c
       0.03009986 0.034822125 0.046481494 0.026803156
000280 d5 4e 18 3e 1c f1 04 3d e2 36 3f 3d 0e 2b b1 3d
       0.14873822 0.032456502 0.0466832 0.0865079
000290 31 36 e5 3d 0b 17 8a 3d a9 ac bd 3c 2e 3b e4 3c
       0.11191977 0.06742676 0.02315362 0.02786025
0002a0 b8 4c f2 3c 39 97 a1 bd ea ff e6 3d 6b 4f 2e 3e
       0.029577598 -0.078901716 0.112792805 0.17022483
0002b0 8d 83 78 3d 3e dc 21 be ab 92 e6 3d 3b c0 4b 3d
       0.06067233 -0.15806672 0.112584434 0.049743872
0002c0 75 e3 ff 3c 30 9d b8 3d 3e 03 27 bd 87 53 e8 3d
       0.03123639 0.09014356 -0.040774576 0.113440566
0002d0 98 22 d4 3d e5 fa 55 3d ad 6d 5c be 87 5b 92 3d
       0.10358161 0.052241225 -0.21526213 0.07146364
0002e0 3c 0e 1c be 83 f8 1d 3e ba 74 f1 3c 26 c3 17 3e
       -0.15239805 0.15426831 0.029474605 0.14820537
0002f0 d1 7a c1 3d ec 54 f7 3c d5 4e ba 3d be c7 55 3d
       0.094472535 0.030191861 0.09097067 0.052192442
000300 ff 22 4f 3e 8d 63 00 3e 9e 4a 9c 3d ba 28 7b 3d
       0.20228194 0.12537976 0.076314196 0.061318137
000310 0b f8 a0 3d f8 2c 1a 3e 61 17 00 3e 96 88 e7 3d
       0.078598104 0.15056217 0.12508918 0.113053486
000320 6f 0d 8c 3c de 04 6c 3e 48 fd 81 3d 62 1d dd 3c
       0.01709625 0.23048732 0.06347138 0.02699155
000330 c3 1e 4f 3e db 34 e1 3d 7a f7 b1 3d c7 f3 37 3e
       0.20226578 0.109964095 0.086897805 0.17964087
000340 4e 82 37 3d 8d d5 fd bc 85 19 fa 3d eb a6 11 3e
       0.044802003 -0.030985618 0.12211899 0.1422383
000350 81 aa 38 3e c8 cb 78 3d 8f af 55 3d 46 07 f6 3d
       0.18033792 0.060741216 0.05216938 0.12013106
000360 cb 5f 13 3e 43 b4 a1 3d 81 c0 85 3e e4 58 87 bd
       0.14392011 0.0789571 0.2612343 -0.066087514
000370 46 e5 a9 3d 72 c4 71 3e 19 6e 48 3d 90 32 8d 3d
       0.082956836 0.23610094 0.048933122 0.0689441
000380 01 eb e0 3d 4c 7d 1f 3e 49 98 6a 3d cd a1 d9 3d
       0.109823234 0.1557514 0.057274137 0.10626564
000390 9a 29 16 3e cb 8a 77 3d 08 aa ec 3d 7b 83 b1 3d
       0.14664307 0.060435098 0.115558684 0.08667656
0003a0 54 7e d7 3d d3 bf 03 bd 3a de 93 3d ba 69 1e 3e
       0.10522142 -0.03216536 0.07220121 0.15470019
0003b0 8c ee 15 3e 6a a8 5f 3d 25 73 14 3d 2c 16 da 3d
       0.1464178 0.05460397 0.036242623 0.1064876
0003c0 13 78 d8 3d 61 ce 2a 3e ba d0 3a 3e b1 4a 53 3d
       0.10569777 0.1668029 0.18243685 0.051584903
0003d0 d2 36 9e 3d ac 5d b5 3d 42 47 2d bd ee 41 5e 3d
       0.077253 0.08855757 -0.042304285 0.054262094
0003e0 03 12 39 bd e9 c5 74 3d 6e 78 9c 3d 4c 14 ec 3d
       -0.045183193 0.059759054 0.07640158 0.11527309
0003f0 b0 24 3a 3d 4c 99 f7 3d 1c 26 b2 3d 83 f8 99 3d
       0.045445144 0.12089786 0.08698675 0.07518103

bias f4 [64]
000000 f0 78 4f 3d 1f 18 29 bd 3c fa 87 3c d2 c8 72 3d
       0.050652444 -0.04128277 0.016598813 0.05927355
000010 6e a4 41 3d d1 e5 8b 3d 91 18 39 3b 68 81 58 3d
       0.047275953 0.068309434 0.0028243402 0.052857786
000020 d6 c1 eb 3d 32 01 9b bd 1c 4d 02 3e 25 36 51 3d
       0.11511581 -0.07568587 0.12724727 0.051077027
000030 fa 48 20 bd 2b d8 97 3c ce cb 4d 3d 50 f2 ef bc
       -0.039132096 0.018535694 0.05024319 -0.029290348
000040 e8 1f a2 3d 30 ef a6 3d 82 24 c6 bd 80 4c 84 3d
       0.07916242 0.0815109 -0.09674932 0.06459904
000050 f3 57 94 3d cc 6b 4b bd 40 f2 c8 3d d2 ae 6d 3d
       0.072433375 -0.04966335 0.098118305 0.05802805
000060 95 32 7d 3d 36 b8 16 3e 07 e4 30 3e 64 a1 50 39
       0.061815817 0.14718708 0.17274486 0.00019896548
000070 bd a6 df 3d e5 90 5a 3d af 1a 49 bb ef d1 87 3d
       0.10920475 0.05336084 -0.003068607 0.066318385
000080 7c 74 62 3d 16 f4 1a 3e 0d 3b 70 3d c9 ef a0 3c
       0.05528687 0.15132174 0.058650065 0.019645588
000090 de ee 05 3e eb 69 1a 3e 18 88 43 3d 60 b8 2b 3e
       0.13079402 0.15079467 0.04773721 0.16769552
0000a0 31 1b 38 3d 84 5c a3 3d 5a ed 33 3e 9c 0e 17 3e
       0.044947807 0.0797663 0.17571011 0.14751667
0000b0 d3 53 1f 3e b1 e4 43 3d d7 da 4d bc 1d 30 80 3d
       0.1555932 0.04782552 -0.0125643825 0.06259177
0000c0 f5 60 88 3d a5 f9 88 3d 56 e4 b2 3d 79 11 5f 3a
       0.06659118 0.06688241 0.08734958 0.00085093785
0000d0 a3 55 b4 3b cf 60 a0 3d 61 17 73 3d 99 c2 7b 3d
       0.0055033728 0.07830965 0.059348468 0.06146488
0000e0 8b cf e8 3d 2d f6 9f 3d f7 52 99 3d 23 71 49 3d
       0.11367711 0.07810626 0.074865274 0.04918016
0000f0 b0 09 d9 3d 9c 47 9d bd 8c 2a a2 3c f1 9c 6d 3d
       0.10597551 -0.07679674 0.019795679 0.058011

weight f4 [6, 64]
000000 10 6f 01 bd 65 f5 05 3e 84 aa d7 bd ea 9f 04 3d
       -0.031600058 0.13081892 -0.1053057 0.03237907
000010 0a 85 d9 3b c1 ce d2 3d ba d4 29 be 33 81 77 3c
       0.006638174 0.102933414 -0.16585055 0.015106487
000020 d8 12 9a bd 35 88 17 3d 18 23 bb bc 23 43 63 bd
       -0.075231254 0.03699513 -0.022843882 -0.05548395
000030 48 fb 07 be 8f 49 b3 3c ef 97 dc 3a c1 36 02 3d
       -0.1327945 0.021885661 0.0016829948 0.0317905
000040 36 ff 80 3d ce b6 a6 bc e8 74 c3 3c fc 4e 77 3c
       0.062986776 -0.02035084 0.023859456 0.015094515
000050 fc 34 73 bc 0a 12 b7 bc 20 29 b3 3d 54 71 2f bb
       -0.014844175 -0.022347469 0.08748078 -0.002677043
000060 aa f8 b2 bc e1 7c 7f 3c 51 5c 9a 3d 1d f8 f8 bc
       -0.021847088 0.015593738 0.07537139 -0.030391747
000070 cd d2 1c 3d 9e 20 b2 bc 4a 46 76 bd a6 39 9d bc
       0.038286973 -0.021744069 -0.060125627 -0.019192528
000080 dd 39 86 3c c3 1a 3f bb 50 ae 0e bd 34 32 f0 3b
       0.016385013 -0.0029160238 -0.034834206 0.0073302034
000090 bf 22 b0 bc d0 41 d7 3d 6a 47 9a 3a c8 5d 88 3d
       -0.021500943 0.105105996 0.0011770551 0.06658512
0000a0 3d b5 26 3d 65 41 8e bd 09 05 56 3d 22 15 ff bc
       0.040700186 -0.06946067 0.052250896 -0.031138007
0000b0 f3 75 ff bb 35 de d1 3a 5d 73 e5 bc f6 dc 23 bc
       -0.007796043 0.0016011657 -0.028009111 -0.010001412
0000c0 1b 90 bc bc 3d b0 f4 3c dc d4 9f 3d 29 c0 c1 39
       -0.023017934 0.029869193 0.078042716 0.00036955
0000d0 f1 f2 13 be 47 ae d8 3d 76 cd 20 bd ce 35 06 bd
       -0.14448144 0.10580116 -0.039258443 -0.032766156
0000e0 76 61 ad b8 97 97 35 3d 66 fb e0 3d 80 83 59 3d
       -8.267436e-05 0.04433402 0.109854504 0.053103924
0000f0 a0 ff 28 3d ff 7e 14 bc ff 31 ec bd c9 2b 86 3c
       0.041259408 -0.009063481 -0.115329735 0.0163783
000100 84 f6 84 3c 81 1b e0 3c 5c 4f a6 3d d9 ed f4 bc
       0.016230829 0.027356865 0.08120605 -0.02989857
000110 ec 7d c1 bb 7e 90 b8 bc 26 f4 03 bd 11 c6 4b 3d
       -0.0059049036 -0.022529837 -0.03221526 0.049749438
000120 03 78 09 bc 4b 7c 07 3e d6 67 50 bd be a8 47 3d
       -0.008390429 0.13231008 -0.050880276 0.04874491
000130 d5 19 79 3d 0d bf 80 3c 18 cb 9c bc ed a6 ff 3b
       0.06081565 0.0157161 -0.019139811 0.0078018815
000140 1a 04 c5 bc 40 31 af bc c3 d4 52 ba f6 ae 02 3d
       -0.024049807 -0.021385789 -0.0008042568 0.031905137
000150 48 02 e4 3c 38 50 b9 bc fb 15 c6 bc aa 42 cb bc
       0.027833119 -0.02262126 -0.024180403 -0.024812061
000160 c8 f4 b2 bc 58 a8 b8 3d c0 2c e0 bc d0 3c d8 bc
       -0.021845236 0.09016484 -0.027365088 -0.026396185
000170 59 3c bc 3d f8 83 32 3d 1f 4a 42 bc 43 b6 c9 3c
       0.09191198 0.043582886 -0.011858492 0.024623042
000180 f5 4c 04 3c 40 c5 e3 bc 9b 41 42 bc 5d e1 ac 3d
       0.008074989 -0.027804017 -0.011856462 0.08441422
000190 35 12 ed bc 78 cb 1e 3d ad 09 9c 3c 57 1e be bc
       -0.028939346 0.03876826 0.019047583 -0.023207827
0001a0 e5 6a b8 3d 6d ca a5 bc 80 21 a9 bc e3 ef ad bc
       0.090047635 -0.020238126 -0.020645857 -0.021232551
0001b0 9b 0b a5 3d cc 4c d6 3d 8a ca 81 bd 02 d6 8d 3d
       0.08058854 0.104638666 -0.063374594 0.069255844
0001c0 85 e7 c1 bc 1f 02 f3 bc a5 6e e0 bc 81 18 6b 3c
       -0.023669967 -0.029664097 -0.02739651 0.014349104
0001d0 d7 d7 c2 3d c6 57 b8 bc 0d e7 db ba 5f 5f cc bc
       0.095138244 -0.022502791 -0.0016777233 -0.02494782
0001e0 0d e7 ef bc c9 1a d7 bc 13 f1 d4 bc cc d4 52 3d
       -0.029284978 -0.02625789 -0.02599386 0.05147247
0001f0 26 24 e3 bc 44 c6 60 3d eb d4 d8 3d fd 56 98 bc
       -0.027727198 0.05487658 0.10587486 -0.018596167
000200 4a 3c 01 bd 0b 1f ef 3c 8c 95 be 3d af 3b 1b bd
       -0.031551637 0.029189607 0.093058676 -0.037898716
000210 8a bf 16 bd 3e 1a bf 3d ff d5 1d 3d 88 95 9c 3d
       -0.03680376 0.09331177 0.03853416 0.07645708
000220 45 4f 4c bc a6 90 ed 3d ce 93 c6 bc ec bd 9c 3c
       -0.012470071 0.11599855 -0.0242404 0.01913353
000230 3c 89 0f 3d b1 df 90 bd 43 52 de bc b3 07 33 bb
       0.035042986 -0.07073916 -0.027138835 -0.0027317822
000240 eb ec 56 3d 99 5f 2c 3d 7c 0e f5 3c aa 1c ab 3d
       0.052472036 0.042083357 0.029914133 0.083550766
000250 9a 7f 32 3d 76 96 e7 bb 16 ae 16 3d 82 f7 04 3b
       0.04357872 -0.007067497 0.036787115 0.0020289128
000260 b5 1e b3 3d b1 01 0e bd 99 52 11 bd 55 51 02 bc
       0.08746091 -0.03466958 -0.035479162 -0.007953961
000270 6a 0a 0c bd 95 3b 0e bd 2e 61 b8 3b b7 e5 47 3d
       -0.03418962 -0.03472479 0.005626819 0.048803058
000280 f7 87 1b bd 6f fb 14 bd 14 99 ac bc 36 ce db 3d
       -0.037971463 -0.0363726 -0.021069087 0.10732691
000290 5e 47 b3 3d 4b f6 50 3d 15 ca 16 bd 0a 8f 85 3c
       0.087538466 0.051016133 -0.036813814 0.016303558
0002a0 b0 47 ec bc 61 d7 e8 bc 90 52 c8 bc 91 fb 50 3d
       -0.028842777 -0.028423013 -0.024453431 0.051021162
0002b0 fe bf 12 bd 96 e3 c0 bc 3e f8 37 bc e5 bb a5 3d
       -0.03582763 -0.023546021 -0.011228619 0.08092479
0002c0 d6 1e ec bc 5f 1d 1b bd 40 38 16 bd 1d ff e7 3d
       -0.028823297 -0.037869807 -0.036674738 0.11327956
0002d0 aa 65 e0 3c 63 4a 89 3c b5 56 4e 3d 19 f0 10 bd
       0.027392227 0.016759103 0.05037566 -0.035385225
0002e0 5a c0 1c bd f1 f1 87 3d ed 6a 90 3d c3 2d ae 3c
       -0.03826938 0.066379435 0.070516445 0.021262055
0002f0 18 00 17 bd e1 19 ac bc 90 22 d3 bc 57 a8 12 3d
       -0.036865324 -0.021008434 -0.025773317 0.035805073
000300 76 46 da bc 45 97 c9 3d a0 6d f9 bc 5d 1a e2 bc
       -0.026644927 0.098433055 -0.030447781 -0.027600462
000310 ad a9 e1 bc c0 c4 ad 3d 95 9f 69 3d 2a 09 a1 bc
       -0.027546728 0.08484793 0.057036955 -0.01965769
000320 49 e4 4b 3d db b0 a2 bc f1 21 e0 bc f3 db 93 3d
       0.049778257 -0.019859722 -0.027359935 0.07219686
000330 d5 0f a3 3c dc 4e 34 3d 6d d5 94 3d d0 36 ef 3c
       0.01990501 0.04402052 0.0726727 0.029200941
000340 c8 62 bc bc 95 45 c1 bc de de 39 3a 73 07 1d 3c
       -0.022996321 -0.02359275 0.00070904 0.009584296
000350 70 f8 ba bc 00 21 59 3d 85 f8 b6 bc 05 95 c2 bc
       -0.022823542 0.053009987 -0.0223353 -0.023752699
000360 25 8d 64 ba b4 dc 93 3d 2b e9 cc bc c2 ac 5f 3d
       -0.0008718542 0.0721983 -0.025013527 0.054608114
000370 3d 29 af 3b 45 9c df bc 54 6c f3 bc cb bb 36 3c
       0.005345492 -0.027296195 -0.02971474 0.011153172
000380 14 a0 39 bc ce f6 da bc ef 62 b7 3d 92 7e fa 3c
       -0.0113296695 -0.026729014 0.08954417 0.030577932
000390 6e 3b 0f 3c 45 fc ca bc d7 cd de bc 4c f1 ba bc
       0.0087421965 -0.024778495 -0.027197761 -0.022820137
0003a0 4c a0 85 ba 56 53 91 3d 2c e7 44 3c 5c 4f b6 3d
       -0.0010194867 0.07095973 0.012018006 0.08901855
0003b0 76 b1 e4 bc 58 06 87 3d 88 9f ff bc cd 49 cf bc
       -0.027916651 0.06593007 -0.031204 -0.025303746
0003c0 e3 61 d1 bc 54 ad de bc 63 5d cd bc ee 14 fc 3c
       -0.025559371 -0.027182259 -0.025068944 0.030771699
0003d0 8d 8a c6 bc bd cd 4b 3d 64 eb c3 bc 46 f4 e7 bc
       -0.024235988 0.049756754 -0.023915954 -0.02831472
0003e0 10 12 e5 bc 37 27 c7 bc ff 26 79 3d 4f c8 ea bc
       -0.027962714 -0.024310691 0.060828205 -0.028659968
0003f0 74 cd 84 3b fd 89 fe bc 33 b5 b1 3d 38 f9 13 3d
       0.0040528122 -0.031071657 0.08677139 0.036126345

bias f4 [6]
000000 93 42 9a 3c 24 d3 02 bd 07 69 68 3d 73 82 e5 bc
       0.018830573 -0.03193964 0.056740787 -0.028016305
000010 f8 42 0a bd 7c 2b 4d 3f
       -0.033755273 0.80144477
