pytorch/architecture/t-E_T-k-TG/with_GC_data/model.pt (torch, 4623 bytes, 8 tensors)

weight f4 [10, 2]
0	0x3a658125	0.0008754901
1	0xbaedd23f	-0.0018144323
2	0x3d1506fa	0.036383606
3	0xbc648cc2	-0.013949575
4	0x3d18fca8	0.037350327
5	0xbba63362	-0.0050720433
6	0x3f119484	0.5686724
7	0xbef139c9	-0.471144
8	0x3e98630e	0.29763073
9	0xbd377758	-0.04479155
10	0x3cf9344c	0.030420445
11	0x39d786cf	0.00041108436
12	0x3f843602	1.0328982
13	0xbe513cc2	-0.20433334
14	0xbf6700aa	-0.9023539
15	0x3eef963f	0.46794316
16	0x3e71616a	0.23572317
17	0xbd32fdfc	-0.04369925
18	0x3f0cd0f3	0.5500633
19	0x3f410f89	0.7541433

bias f4 [10]
0	0x3fc3e23a	1.5303414
1	0x3f88246a	1.0636113
2	0xbf873292	-1.0562308
3	0x3f750043	0.95703524
4	0xbd76a11d	-0.060212243
5	0x3f114809	0.5675054
6	0x3efb1073	0.49035987
7	0xbf5a01f0	-0.85159206
8	0x3f7afc48	0.980412
9	0x3ec80e80	0.39073563

weight f4 [10, 10]
0	0x3c8e56d7	0.017375393
1	0x3e81cb35	0.25350347
2	0x3f30f5e5	0.69125205
3	0x3e9397fd	0.28826895
4	0xbd05377f	-0.03252363
5	0x3e89ec13	0.26937923
6	0x3d9aa428	0.075508416
7	0xbd20775e	-0.039176337
8	0x3efa8c4d	0.48935166
9	0xbd5cd6db	-0.05391584
10	0xbf241754	-0.64098096
11	0xbbb9db57	-0.0056718993
12	0x3f71aac5	0.944012
13	0x3e8eaca8	0.278661
14	0xbead5601	-0.33854678
15	0xbe21a79f	-0.15786599
16	0xbec6c4b6	-0.38821954
17	0x3df803e9	0.12110121
18	0xbcd81e73	-0.026381707
19	0xbdcb85a5	-0.099376
20	0x3f5df84d	0.86707
21	0x3ee0f873	0.43939552
22	0x3dec3f02	0.11535455
23	0x3ef70c71	0.4825168
24	0x3eef2512	0.4670797
25	0x3daf86b5	0.08570615
26	0xbd7f9573	-0.062398385
27	0xbe1ad579	-0.15120496
28	0x3e1fa099	0.15588607
29	0xbdcc2d4d	-0.09969578
30	0x3f33858c	0.7012565
31	0x3ea0054e	0.31254047
32	0x3e51b57e	0.2047939
33	0x3e99c225	0.30030933
34	0x3e3e8573	0.18605594
35	0x3e82c2d3	0.25539264
36	0x3e553755	0.20821889
37	0xbd866814	-0.0656282
38	0x3ea3449c	0.31888282
39	0x3c1567a8	0.009118952
40	0x3f06d5cb	0.5266997
41	0x3d2cb379	0.042163346
42	0x3e24ca3b	0.1609277
43	0x3ee6d3a6	0.4508335
44	0x3e8f5823	0.2799693
45	0x3e74e78f	0.23916458
46	0x3d65e23b	0.056123953
47	0x3ccfad26	0.025351118
48	0x3ef30b5b	0.474696
49	0x3d833836	0.06407206
50	0x3f39f30d	0.7263649
51	0x3e98979c	0.2980317
52	0xbbdae916	-0.006680618
53	0x3e94d1f6	0.29066437
54	0x3d7af217	0.06126603
55	0x3ed64319	0.41848066
56	0x3de9d24b	0.11417063
57	0xbdf9b2a8	-0.12192279
58	0x3e3a8f15	0.18218644
59	0x3d30f441	0.04320169
60	0x3eb6620e	0.35621685
61	0x3d70cb84	0.058787838
62	0x3ea7cabe	0.32771868
63	0x3d874231	0.06604422
64	0x3e6058e9	0.21908917
65	0x3ecbabc7	0.39779493
66	0x3df38620	0.11890817
67	0x3eb9b1cd	0.36268464
68	0x3f233b95	0.6376279
69	0x3e465aef	0.19370626
70	0x3ec68d48	0.38779664
71	0xbd60e820	-0.05490887
72	0x3ec1ea27	0.37873957
73	0xbd99e665	-0.075146474
74	0xbcb3db4a	-0.021955151
75	0x3f25f8e8	0.64832926
76	0x3eadd26f	0.3394961
77	0x3ec60476	0.38675278
78	0x3eb9bb01	0.36275485
79	0x3e9525e0	0.2913046
80	0x3e48468b	0.1955816
81	0xbe9d5e77	-0.30736133
82	0x3f056a45	0.5211528
83	0xbbd77cd2	-0.006576159
84	0xbe6293db	-0.22126715
85	0x3f103abc	0.5633962
86	0x3d74f427	0.059803154
87	0x3ea0b490	0.31387758
88	0x3f0a0d24	0.539263
89	0x3e539199	0.2066101
90	0x3c790dfb	0.015201087
91	0x3eb058b1	0.34442666
92	0x3f41bcb6	0.75678575
93	0x3e97b30c	0.2962879
94	0x3c1e250b	0.009652386
95	0x3e74c5af	0.23903535
96	0xbe54fb8c	-0.20799083
97	0x3bd67621	0.006544844
98	0x3ef09620	0.46989536
99	0xbcf04043	-0.029327517

bias f4 [10]
0	0x3e9ef0c7	0.31043074
1	0xbe95c914	-0.29254973
2	0x3e95746e	0.2919039
3	0x3ea248b4	0.31696093
4	0x3e926ead	0.28600064
5	0x3ed45b6d	0.41476002
6	0x3f20ace2	0.627638
7	0x3eceb054	0.40368903
8	0x3ea8a88f	0.329411
9	0x3ee49d47	0.44651243

weight f4 [10, 10]
0	0x3f20d620	0.6282673
1	0x3fb9e259	1.4522201
2	0xbed86431	-0.4226394
3	0x3f4b9e89	0.7953878
4	0x3ee65b1e	0.44991392
5	0x3db98f22	0.090605035
6	0x3ee7f0da	0.45300943
7	0x3f38837b	0.72075623
8	0x3f43c99e	0.7647952
9	0x3f2d1a2d	0.67618066
10	0x3f57d71d	0.8431261
11	0x3fb293bb	1.3951334
12	0xbef5d393	-0.4801298
13	0x3faf6d7a	1.3705285
14	0x3f5517bd	0.83239347
15	0x3ef87165	0.48524013
16	0x3f784c8e	0.96991813
17	0x3f4a9633	0.79135436
18	0x3f4dd8c9	0.8040891
19	0x3fa53013	1.2905296
20	0x3f44ee46	0.76926076
21	0x3fd3ad45	1.6537253
22	0xbe972f9e	-0.29528517
23	0x3ed12a54	0.40852606
24	0x3e14006c	0.14453286
25	0x3d123cfd	0.035702694
26	0x3eb6d7a8	0.35711408
27	0x3eb56023	0.3542491
28	0x3f7c81a0	0.9863529
29	0x3f4a3eff	0.79002374
30	0x3e026df1	0.12737252
31	0x3db45ddd	0.088069655
32	0x3f807616	1.0036037
33	0x3faba895	1.3410822
34	0x3f443e9e	0.76658046
35	0x3f8179c5	1.0115286
36	0x3e86d61f	0.26335236
37	0x3de486de	0.111585364
38	0x3dcb4c5d	0.099266745
39	0x3e1ef08f	0.15521453
40	0x3eb322c1	0.34987453
41	0x3f0b7015	0.544679
42	0xbf892b29	-1.0716296
43	0x3f2f11e6	0.68386686
44	0x3ecc75cf	0.3993363
45	0xbe8e5601	-0.2779999
46	0x3efff2ec	0.49990022
47	0x3e60fe2d	0.2197196
48	0x3ef1d445	0.4723226
49	0x3ee6be4e	0.45067066
50	0x3f62b6cf	0.88560194
51	0x3fa55c6e	1.2918832
52	0xbed266df	-0.4109411
53	0x3f8916fe	1.0710142
54	0x3f3a3007	0.72729534
55	0x3f1067f1	0.564086
56	0x3f6ebbcc	0.93255305
57	0x3f4c7f45	0.798817
58	0x3f23b287	0.63944286
59	0x3fb09cb0	1.3797817
60	0xbcd0a90a	-0.02547123
61	0x3ff149c7	1.885064
62	0xbebce300	-0.36891937
63	0x3ea01e4d	0.31273118
64	0x3e3f83e8	0.18702662
65	0x3d01272e	0.031531505
66	0x3e8636ed	0.2621378
67	0x3e582782	0.21108821
68	0x3f2a3dfe	0.6650084
69	0x3f065431	0.52472216
70	0x3f84c947	1.0373925
71	0x3f9e4138	1.2363653
72	0xbf180eb7	-0.59397453
73	0x3fc497e2	1.5358851
74	0x3f837ef3	1.0273117
75	0x3f00a596	0.50252664
76	0x3f782bbf	0.9694175
77	0x3f517f65	0.81835014
78	0x3f257516	0.64631784
79	0x3fa02e86	1.2514198
80	0x3f8d76cc	1.1051879
81	0x3f9f6258	1.2451887
82	0xbf2b2976	-0.6686014
83	0x3fc3d72f	1.5300044
84	0x3f889162	1.0669367
85	0x3f4ecdc6	0.80782735
86	0x3f944502	1.158356
87	0x3f9b7dbb	1.2147745
88	0x3f489536	0.7835268
89	0x3f9e9a05	1.2390753
90	0x3f3f8bb4	0.74822545
91	0x3fabdcf9	1.342681
92	0xbec1fc5f	-0.37887856
93	0x3f27f50c	0.65608287
94	0x3ec5d927	0.38642237
95	0x3e0db664	0.13839108
96	0x3f30ba1a	0.6903397
97	0x3ee4bba6	0.44674414
98	0x3f7f3bde	0.99700725
99	0x3f2e1016	0.67993295

bias f4 [10]
0	0x3e1fb1a8	0.15595114
1	0x3f13e17d	0.5776594
2	0x3cbd47ae	0.023105469
3	0x3e0b7ab8	0.13621032
4	0x3e066d30	0.13127589
5	0x3f044de6	0.51681364
6	0xbe738dd7	-0.23784576
7	0x3f2a1cb6	0.6645006
8	0x3f448e70	0.7677984
9	0x3e0518a2	0.12997678

weight f4 [3, 10]
0	0xbe19ff31	-0.15038754
1	0xbe8997e7	-0.26873705
2	0xbd7b4bdd	-0.061351646
3	0x4015b6c2	2.3392797
4	0xbe7b8d63	-0.24565654
5	0xbe732dcc	-0.23747939
6	0x3d3c6b17	0.046000566
7	0xbeb8484c	-0.35992658
8	0xbe96dbf7	-0.29464695
9	0xbdbb41b3	-0.091433905
10	0x40b0cf64	5.525316
11	0x40a9a403	5.301271
12	0x40ad7071	5.4199758
13	0x409197f7	4.5498004
14	0x40ae3443	5.4438796
15	0x40ab6e2d	5.357199
16	0x40a43803	5.1318374
17	0x40acba16	5.3977156
18	0x40aad160	5.3380585
19	0x40ad422b	5.414327
20	0xbdcdd280	-0.10049915
21	0x3e13dd25	0.14439829
22	0x3c0eaf17	0.008708737
23	0x3b149a7f	0.0022675095
24	0xbd6c7a32	-0.057733722
25	0xbd3af761	-0.045646075
26	0xba27f534	-0.00064070825
27	0x3d978f28	0.07400352
28	0xbdd46c7a	-0.10372253
29	0x3dfc4a23	0.12318828

bias f4 [3]
0	0xbe12c592	-0.1433318
1	0x40aeb186	5.4591703
2	0xbd3f5e01	-0.04672051
