t-C/pinn_1/model.pt (torch, 7849 bytes, 8 tensors)

weight f4 [10, 1]
-0.020167895 -0.0043125865 -0.036033265 -0.008419894 -0.0012038423 0.0040000766 -0.050272055 -0.016174203
0.0073906323 -0.028241165
00000000: 2437 a5bc 9950 8dbb 9e97 13bd 98f3 09bc
00000010: 3fca 9dba 1313 833b 12ea 4dbd c37f 84bc
00000020: 1e2d f23b 045a e7bc

bias f4 [10]
0.8126356 0.2578865 0.73649836 0.9353285 0.04642687 0.43592888 0.090995915 0.85469705
-0.09958884 0.8103201
00000000: e308 503f b309 843e 288b 3c3f b071 6f3f
00000010: 1a2a 3e3d 1232 df3e 115c ba3d 6dcd 5a3f
00000020: 3cf5 cbbd 2371 4f3f

weight f4 [10, 10]
0.102270745 -0.05771185 -0.018952388 0.14939705 0.4451237 0.123320065 -0.06453094 0.22570013
0.057915792 0.014885038 -0.020856319 -0.09770808 0.18511124 -0.14150506 -0.18059547 0.07153436
0.11566022 -0.16345416 0.332478 -0.11418744 -0.01304036 0.013160517 0.055911347 -0.0011336157
0.24944396 0.07146641 0.2509657 -0.061719727 0.055761106 0.20028317 0.26472485 0.3691521
0.24007376 0.27996236 0.47005442 0.010034884 0.26332888 0.055623095 -0.17766505 0.16150798
-0.1028041 0.15828593 -0.0018980748 0.0057570054 -0.11527527 -0.042673476 0.21831334 -0.16376849
-0.03690689 -0.0782486 -0.042275008 0.04508953 -0.047801103 0.37998506 0.23250318 -0.016132401
-0.058617163 0.010198411 0.009394552 -0.030965755 0.09996139 0.25776437 0.028059952 0.10338543
0.10037228 0.27448958 0.36130422 0.00074931886 -0.13835873 0.22811897 -0.1195092 -0.08869699
-0.070888646 -0.11286506 0.045396235 -0.040950768 -0.26738316 0.06781742 0.32628375 -0.123019494
0.01114186 0.058268197 0.051470045 -0.113384485 0.21006058 0.2750138 0.057187676 -0.07754686
-0.04832499 -0.091628715 0.07743306 0.0074445033 0.005541392 0.11316152 0.44730592 0.2825284
-0.053798527 0.26355362 0.020705003 0.026691344
00000000: 5373 d13d 4363 6cbd 0a42 9bbc 8afb 183e
00000010: 41e7 e33e 3b8f fc3d cc28 84bd ef1d 673e
00000020: 1c39 6d3d 60e0 733c dfda aabc 2d1b c8bd
00000030: cd8d 3d3e b4e6 10be 05ee 38be 9b80 923d
00000040: 44df ec3d 8760 27be 8e3a aa3e 1bdb e9bd
00000050: 3ca7 55bc 369f 573c 4c03 653d d595 94ba
00000060: 3d6e 7f3e fb5c 923d 947e 803e d3cd 7cbd
00000070: c265 643d 0817 4d3e 048a 873e 8101 bd3e
00000080: e5d5 753e 3a57 8f3e f9aa f03e 5b69 243c
00000090: 0bd3 863e 0bd5 633d d4ed 35be 5962 253e
000000a0: f58a d2bd b515 223e d2c8 f8ba 43a5 bc3b
000000b0: 7115 ecbd 62ca 2ebd 888d 5f3e edb2 27be
000000c0: ae2b 17bd cd40 a0bd 8f28 2dbd cdaf 383d
000000d0: 17cb 43bd 678d c23e 5015 6e3e 1928 84bc
000000e0: 8d18 70bd 3c17 273c 9beb 193c e5ab fdbc
000000f0: 8fb8 cc3d b1f9 833e fcdd e53c bebb d33d
00000100: fb8f cd3d e689 8c3e defc b83e f06d 443a
00000110: e9ad 0dbe 0598 693e 3dc1 f4bd c4a6 b5bd
00000120: 112e 91bd cc25 e7bd 67f1 393d febb 27bd
00000130: 72e6 88be dce3 8a3d aa0e a73e a5f1 fbbd
00000140: 598c 363c a2aa 6e3d 41d2 523d 2036 e8bd
00000150: 1f1a 573e 9cce 8c3e a03d 6a3d e3d0 9ebd
00000160: 6df0 45bd d6a7 bbbd 3995 9e3d 05f1 f33b
00000170: 9194 b53b 3ac1 e73d 4805 e53e 90a7 903e
00000180: d85b 5cbd 80f0 863e 8a9d a93c cea7 da3c

bias f4 [10]
0.00072960707 0.095216535 0.2682745 0.095348865 -0.063045874 0.048630927 0.024679666 -0.063926764
0.25622785 0.045641996
00000000: 1a43 3f3a e300 c33d 465b 893e 4446 c33d
00000010: 321e 81bd 3931 473d 032d ca3c 09ec 82bd
00000020: 4c30 833e 1af3 3a3d

weight f4 [10, 10]
0.33617142 -0.034248985 0.17271501 -0.0022182202 -0.19564144 0.25837374 0.11368282 -0.10424537
0.08182619 0.434513 -0.1558618 0.23095231 -0.16293688 -0.19782251 0.034926977 -0.16684178
-0.25521833 0.7039119 0.09040677 -0.18555988 -0.006660443 0.15493326 -0.05577248 0.29242793
-0.09363462 -0.004900797 0.0008112412 -0.0028543114 0.26777053 0.16287997 0.1370699 0.13235608
0.123478405 -0.0572267 -0.031241506 -0.098904096 -0.08892984 0.06470249 0.12527034 0.038004145
-0.09159716 -0.01212499 0.28420714 0.28713238 0.22382112 0.27585518 0.03238517 -0.13265704
-0.033549745 -0.07110185 -0.19790684 0.37201026 0.006442153 0.1633213 -0.16303684 -0.12533689
-0.03950124 -0.057574607 0.39239353 -0.14250134 0.12325176 -0.07874464 -0.12829858 -0.005370072
-0.1051936 0.20967986 -0.024370283 -0.047593538 0.048133865 0.27404642 -0.076878786 0.1710385
-0.16172923 0.27439252 0.34676328 0.19210558 0.18116382 0.0060860757 -0.056330524 -0.06932651
-0.17377894 0.23754862 0.10227652 0.32255083 -0.044979677 -0.04288126 0.115057684 -0.18839483
0.17611283 -0.03805458 -0.057146505 -0.06398194 -0.06840025 0.16568996 0.008865932 0.22535938
0.023627361 0.35078707 -0.07505204 -0.07039594
00000000: a91e ac3e aa48 0cbd 34dc 303e 8f5f 11bb
00000010: 3b56 48be 9049 843e 8ad2 e83d 997e d5bd
00000020: 7d94 a73d 7d78 de3e 3c9a 1fbe c37e 6c3e
00000030: edd8 26be fc91 4abe 970f 0f3d 92d8 2abe
00000040: faab 82be 9233 343f 2f27 b93d 6903 3ebe
00000050: d83f dabb d3a6 1e3e af71 64bd 1db9 953e
00000060: 82c3 bfbd dd96 a0bb 7aa9 543a 660f 3bbb
00000070: 3819 893e 02ca 263e 0d5c 0c3e 5a88 073e
00000080: 3fe2 fc3d 8b66 6abd 30ee ffbc 3b8e cabd
00000090: d920 b6bd bd82 843d de46 003e 3caa 1b3d
000000a0: 4b97 bbbd e5a7 46bc 9983 913e 0403 933e
000000b0: 5d31 653e e43c 8d3e 50a6 043d 3fd7 07be
000000c0: 756b 09bd d99d 91bd 17a8 4abe 2178 be3e
000000d0: b218 d33b b33d 273e 21f3 26be 5058 00be
000000e0: 0dcc 21bd 5ad3 6bbd cee7 c83e dfeb 11be
000000f0: 6b6b fc3d df44 a1bd b460 03be 6ef7 afbb
00000100: be6f d7bd 51b6 563e 30a4 c7bc 71f1 42bd
00000110: 0428 453d d04f 8c3e a072 9dbd b724 2f3e
00000120: 599c 25be 2d7d 8c3e f58a b13e 53b7 443e
00000130: 0283 393e b46d c73b d6ba 66bd 0ffb 8dbd
00000140: 1bf3 31be f23f 733e 5a76 d13d 6225 a53e
00000150: 9c3c 38bd 43a4 2fbd 5da3 eb3d 93ea 40be
00000160: ec56 343e 1fdf 1bbd 7412 6abd f708 83bd
00000170: 6e15 8cbd a1aa 293e 6a42 113c 9cc4 663e
00000180: 2b8e c13c 5d9a b33e e2b4 99bd bf2b 90bd

bias f4 [10]
0.15871367 -0.020767536 -0.09242261 0.12662426 0.10394512 0.11708819 0.33716425 -0.05003617
0.37508515 -0.07586693
00000000: d685 223e ae20 aabc 1148 bdbd caa9 013e
00000010: 2ee1 d43d efcb ef3d cba0 ac3e baf2 4cbd
00000020: 290b c03e 1f60 9bbd

weight f4 [5, 10]
0.107062794 -0.16595124 0.13382302 0.09359122 0.11891604 0.1801061 0.110620745 0.09370929
0.15616009 -0.048733033 0.1285128 0.021618197 0.10345149 0.2606058 -0.05237668 -0.08587046
0.13750888 -0.09698037 -0.11181409 0.1410012 0.24059281 0.050412115 -0.04013429 0.05982275
-0.090905674 -0.157973 -0.045599364 -0.18788835 -0.08851677 -0.15228193 -0.11694087 0.2814636
0.1826112 0.39158997 0.15282363 0.26246092 -0.14242278 0.043995127 0.032900915 -0.036809858
-0.015633518 0.91056776 0.027151808 0.2686528 -0.19347589 0.5262341 0.20452169 -0.20024505
0.21558215 -0.40058574
00000000: bd43 db3d 1fef 29be e708 093e c1ac bf3d
00000010: 418a f33d bc6d 383e 218d e23d a8ea bf3d
00000020: 6ee8 1f3e 4a9c 47bd dc98 033e a518 b13c
00000030: 60de d33d 206e 853e ee88 56bd dadc afbd
00000040: 21cf 0c3e a59d c6bd c9fe e4bd 9e62 103e
00000050: f65d 763e ef7c 4e3d da63 24bd b308 753d
00000060: c12c babd adc3 21be 66c6 3abd ce65 40be
00000070: 4848 b5bd cbef 1bbe b27e efbd ff1b 903e
00000080: 6efe 3a3e 7b7e c83e cc7d 1c3e 4761 863e
00000090: 47d7 11be 3c34 343d 1cc3 063d efc5 16bd
000000a0: dd11 80bc f81a 693f 786d de3c dc8c 893e
000000b0: 8b1e 46be 47b7 063f 226e 513e 0a0d 4dbe
000000c0: 91c1 5c3e 9319 cdbe

bias f4 [5]
0.12873128 -0.035796363 0.008924699 0.116889015 0.31572214
00000000: 22d2 033e 359f 12bd e738 123c 8263 ef3d
00000010: 55a6 a13e
