t-C/pinn_1/model.pt (torch, 7849 bytes, 8 tensors)

weight f4 [10, 1]
0	0xbcbbc226	-0.022919726
1	0xbcdeb681	-0.027186634
2	0xbcedc0d7	-0.029022617
3	0xbc53eaab	-0.012934367
4	0xbc546949	-0.012964555
5	0x3dbd5827	0.09245329
6	0xbbca4bc0	-0.006173581
7	0xbd0058e4	-0.031334773
8	0x3d480cc8	0.048840314
9	0xbbe3b4a7	-0.0069490257

bias f4 [10]
0	0x3f9aa582	1.2081759
1	0xbd3345ce	-0.043767743
2	0x3f17595f	0.59120744
3	0x3f1d218d	0.6137932
4	0xbdc494a6	-0.09598665
5	0x3f1fdabb	0.6244313
6	0xbcfc7be7	-0.0308208
7	0x3e49b975	0.19699652
8	0xbe2cacc8	-0.16862786
9	0x3f1e2093	0.61768454

weight f4 [10, 10]
0	0x3dc340e5	0.09533862
1	0x3c57688a	0.013147483
2	0x3c62794d	0.013822866
3	0x3e01041d	0.12599225
4	0x3ea2b2cc	0.31777036
5	0x3dd2c50f	0.10291492
6	0x3c6ec46c	0.014573198
7	0xbe177294	-0.14789802
8	0x3e22d74e	0.15902445
9	0x3ca4b8b9	0.020107614
10	0xbac8b317	-0.0015312162
11	0xbd3ff078	-0.04686019
12	0x3e0ac10c	0.13550204
13	0xbdff847f	-0.124764435
14	0xbcd08a03	-0.025456434
15	0x3dfc417c	0.12317178
16	0x3e32dca0	0.17466974
17	0xbd9d17a1	-0.076705225
18	0x3ea115f7	0.3146207
19	0xbdc5cb74	-0.09657946
20	0xbcc8a690	-0.024493486
21	0x3ca5cc9a	0.020239163
22	0x3d98f195	0.07467953
23	0x3e08cc63	0.13359217
24	0x3cfd184e	0.030895378
25	0x3d882f62	0.066496626
26	0x3d98070a	0.074232176
27	0xbcc54199	-0.024079131
28	0x3e26f91e	0.16305968
29	0x3ebbc375	0.3667256
30	0x3e8be7af	0.27325198
31	0x3eb30f20	0.34972477
32	0x3e872681	0.26396564
33	0x3e5863b3	0.21131782
34	0x3eaacf25	0.33361164
35	0x3d1d05c7	0.038335588
36	0x3db6aeb3	0.0892004
37	0xbe3120e2	-0.172977
38	0xbc4e8874	-0.012605775
39	0x3dfd0993	0.12355342
40	0xbe179f82	-0.14806941
41	0xbe07ebc1	-0.13273527
42	0xbdcaca1a	-0.09901829
43	0xbda6ce6d	-0.08144841
44	0xbe7f166b	-0.24910896
45	0x3dc5a54a	0.09650667
46	0xbda9ab65	-0.08284644
47	0xbf0419de	-0.5160197
48	0x3d8c681e	0.06855796
49	0xbe2ed2df	-0.17072628
50	0xbd5c84b0	-0.05383748
51	0xbd01e580	-0.03171301
52	0xbba8fb95	-0.005156944
53	0x3e84dcd8	0.2594974
54	0x3e2c98cc	0.16855162
55	0xbd9c3df7	-0.07629006
56	0x3d995f98	0.07488936
57	0xbe22a367	-0.15882646
58	0x3e12c6e0	0.14333677
59	0x3e1195d8	0.14217317
60	0x3ba81f61	0.005130694
61	0x3e1a8db6	0.15093121
62	0x3c9fd867	0.019512368
63	0x3d968234	0.07349053
64	0x3cd0f205	0.025506029
65	0x3e8e40f8	0.27783942
66	0x3e5a0f81	0.21294977
67	0xbdd63900	-0.10460091
68	0xbc2846f7	-0.010270826
69	0x3e770587	0.24123202
70	0xbe05e280	-0.13074684
71	0x3d2cc707	0.042181995
72	0xbd4bd2f6	-0.049761735
73	0xbe347a4f	-0.17624782
74	0x3ddcd901	0.10783578
75	0x3c335c18	0.01094725
76	0xbc99daf4	-0.018781163
77	0x3e597bf5	0.21238692
78	0x3e3e3beb	0.18577544
79	0xbdca93c4	-0.09891465
80	0x3d003e29	0.03130928
81	0x3df7e016	0.12103288
82	0xbc98e6a4	-0.018664666
83	0xbd80e6a1	-0.06293989
84	0x3e6ca042	0.23108009
85	0x3e932c34	0.28744662
86	0x3e02bbe5	0.12766989
87	0xbd9ddea8	-0.07708484
88	0xbba776d2	-0.0051106
89	0xbd353f35	-0.044249732
90	0x3cbaffae	0.022826996
91	0x3ca74323	0.020417755
92	0x3cab37b1	0.02090058
93	0x3cdeba6c	0.027188502
94	0x3ea5c1dd	0.32374468
95	0x3e8414a9	0.25797012
96	0x3c1d5226	0.009602105
97	0xbdf30c32	-0.118675604
98	0x3dfb77a9	0.12278683
99	0xbb1fee0f	-0.0024403369

bias f4 [10]
0	0xbd071d8c	-0.032987162
1	0x3dac1dc0	0.08404112
2	0x3e937966	0.28803557
3	0x3a2eb554	0.0006664593
4	0x3c9286da	0.017886568
5	0x3ced911e	0.028999861
6	0xbc1b87e7	-0.009492851
7	0xbd2ba7a7	-0.041907933
8	0x3e589fb2	0.21154669
9	0xbd15bb53	-0.0365556

weight f4 [10, 10]
0	0x3e71f882	0.23629954
1	0xbd63a6e4	-0.05557908
2	0x3d02a0d5	0.031891663
3	0xbb2f3c81	-0.0026738944
4	0x3db5a915	0.088701405
5	0x3e9ee19a	0.31031495
6	0x3e179ff5	0.14807113
7	0xbe81f1b0	-0.25379705
8	0xbc9c59d4	-0.019085802
9	0x3e234a20	0.15946245
10	0xbd9145df	-0.07093405
11	0x3deb4a20	0.114887476
12	0xbec7fb73	-0.39059028
13	0xbe900bfb	-0.2813414
14	0x3e63528a	0.22199455
15	0xbe71cc03	-0.2361298
16	0xbe17a651	-0.14809538
17	0x3e866e7a	0.26256162
18	0x3d26708f	0.040634688
19	0x3e1923fd	0.14955135
20	0xbcd6cb4b	-0.026219985
21	0x3e686fdc	0.22698921
22	0x3d616f60	0.055037856
23	0x3e733729	0.2375151
24	0x3d7fcf2b	0.06245343
25	0x3d9da95d	0.07698319
26	0x3d1bc344	0.038028017
27	0x3cefd310	0.029275447
28	0x3e7f2276	0.2491549
29	0x3e25d948	0.16196167
30	0x3e46d368	0.19416583
31	0x3e0346b0	0.12819934
32	0x3d7dac46	0.06193187
33	0xbd3b0bca	-0.04566554
34	0x3e14f0d6	0.14544997
35	0xbd2b7fb8	-0.04186985
36	0xbd69620a	-0.056978263
37	0xbca86819	-0.02055745
38	0x3de37b99	0.11107559
39	0x3ddb2850	0.107010484
40	0xbe510509	-0.20412077
41	0xbe8c2f64	-0.27379906
42	0x3dd30377	0.10303395
43	0x3e93989a	0.28827363
44	0xbe57d967	-0.21079026
45	0x3e4673e6	0.19380149
46	0xbddf7f0c	-0.10912904
47	0xbe829bc8	-0.25509477
48	0xbdfc1146	-0.12307982
49	0xbe90295b	-0.28156552
50	0xbdcbc86b	-0.09950336
51	0x3e960e0e	0.29307598
52	0xbe242ec2	-0.16033462
53	0xbc44418d	-0.011978519
54	0x3d2cc970	0.042184293
55	0xbe4a8ffd	-0.1978149
56	0xbe175113	-0.14777021
57	0x3e0e8d21	0.13921024
58	0x3e881163	0.26575765
59	0xba306d05	-0.00067301124
60	0x3dbf056c	0.09327206
61	0xbcc8348c	-0.024439119
62	0x3caa0927	0.020756317
63	0xbcef4cd5	-0.029211441
64	0x3e98ccaf	0.2984366
65	0x3e6bedfc	0.23040003
66	0x3c2ee7a8	0.010675348
67	0xbd9549e8	-0.07289487
68	0xbd89516c	-0.06704983
69	0x3e577958	0.21042383
70	0xbdf49762	-0.119429365
71	0x3e9eb1fc	0.30995166
72	0x3d396dd8	0.04527077
73	0x3e90c6fc	0.28276813
74	0xbdd1f8f2	-0.10252561
75	0xbb93a484	-0.004505696
76	0x3da376a5	0.07981614
77	0x3ee66cb1	0.450048
78	0xbd08000f	-0.03320318
79	0x3dd45e86	0.103695914
80	0xbeae7287	-0.34071752
81	0xbe03e626	-0.12880763
82	0x3d78f092	0.0607763
83	0x3e2393d3	0.15974359
84	0xbe874140	-0.2641697
85	0xbeb5e09f	-0.35522935
86	0xbedf0f53	-0.4356638
87	0x3e77c181	0.2419491
88	0x3c1d339c	0.009594824
89	0xbe807f1c	-0.25096977
90	0xbcd3a16f	-0.025833813
91	0xbcc00b2e	-0.02344283
92	0xbc889d61	-0.016676607
93	0x3e8e940f	0.27847335
94	0x3ce6fb8c	0.028196119
95	0x3e852aff	0.26009366
96	0x3da9d27c	0.082921
97	0x3e921eb9	0.28539065
98	0xbd09778e	-0.03356128
99	0xbc56154b	-0.0130666

bias f4 [10]
0	0x3d9772a7	0.07394915
1	0xbd3bea1b	-0.045877557
2	0xbd3f34fa	-0.04668138
3	0x3e00aad5	0.12565167
4	0x3d689f22	0.056792386
5	0x3dafefe7	0.085906796
6	0x3e48522b	0.19562595
7	0xbd241e9a	-0.040068246
8	0x3f1876cb	0.59556264
9	0xbd532614	-0.051549986

weight f4 [5, 10]
0	0x3ddd1c5b	0.10796424
1	0xbe9e9b79	-0.3097799
2	0x3cc372b9	0.023858415
3	0x3d2b3a9c	0.04180394
4	0x3e5e9731	0.21737362
5	0x3d07d3bb	0.033160906
6	0x3db35057	0.08755558
7	0xbd8bb8a6	-0.06822328
8	0x3e9a8652	0.30180603
9	0x3e170047	0.147462
10	0x3e15b92c	0.14621419
11	0xbb2f9896	-0.002679383
12	0x3e2c7372	0.16840914
13	0x3e886c92	0.26645333
14	0xbd2353fe	-0.039875023
15	0x3c0e5355	0.00868686
16	0x3e20a61c	0.15688366
17	0xbbb11b59	-0.0054048714
18	0xbda6bc6c	-0.08141407
19	0x3dfb667e	0.12275408
20	0x3e84c82b	0.25933966
21	0x3de992e7	0.114049725
22	0xbe27ad1b	-0.16374628
23	0xbb01332b	-0.0019714336
24	0x3da54bea	0.0807112
25	0xbda3fe5e	-0.08007501
26	0x3d53ef6b	0.051742
27	0xbe3fe426	-0.18739375
28	0xbdc888d3	-0.09791722
29	0xbe0076d0	-0.12545323
30	0xbe25528e	-0.16144773
31	0x3ecea52a	0.40360385
32	0xbd8d94e2	-0.06913163
33	0x3e6da1f3	0.2320631
34	0x3dd7a429	0.10529358
35	0x3e36bc8f	0.17845367
36	0xbe1c0595	-0.15236504
37	0x3e509f9e	0.20373389
38	0x3de205b0	0.11036241
39	0xbca61336	-0.020272832
40	0xbdba9381	-0.091101654
41	0x3f598536	0.8496889
42	0xbe666f4e	-0.22503397
43	0x3e2a7a5a	0.16648236
44	0xbe8242c1	-0.25441554
45	0x3ec6f7e1	0.38860992
46	0x3e6699cd	0.22519608
47	0xbdd6b478	-0.104836404
48	0x3ead5d8c	0.33860433
49	0xbeb9ebda	-0.36312753

bias f4 [5]
0	0x3e43d3e4	0.19123799
1	0xbd18032c	-0.0371124
2	0x3d261710	0.040549338
3	0x3e310fb0	0.1729114
4	0x3ec23d74	0.3793751
